…
I0520 03:50:59.072144 15742 net.cpp:53] Initializing net from parameters: 
name: "mAlexNet"
state {
  phase: TRAIN
  level: 0
  stage: ""
}
layer {
  name: "data"
  type: "ImageData"
  top: "data"
  top: "label"
  include {
    phase: TRAIN
  }
  transform_param {
    scale: 0.00390625
    mirror: true
    crop_size: 224
  }
  image_data_param {
    source: "/home/hao/deep-parking/splits/CNRParkAB/even.txt"
    batch_size: 64
    rand_skip: 64
    shuffle: true
    new_height: 256
    new_width: 256
    root_folder: "/home/hao/Documents/CV/CNRPark-Patches-150x150/"
  }
}
layer {
  name: "conv1"
  type: "Convolution"
  bottom: "data"
  top: "conv1"
  param {
    lr_mult: 1
    decay_mult: 1
  }
  param {
    lr_mult: 2
    decay_mult: 0
  }
  convolution_param {
    num_output: 16
    kernel_size: 11
    stride: 4
    weight_filler {
      type: "xavier"
    }
    bias_filler {
      type: "constant"
      value: 1
    }
  }
}
layer {
  name: "relu1"
  type: "ReLU"
  bottom: "conv1"
  top: "conv1"
}
layer {
  name: "pool1"
  type: "Pooling"
  bottom: "conv1"
  top: "pool1"
  pooling_param {
    pool: MAX
    kernel_size: 3
    stride: 2
  }
}
layer {
  name: "conv2"
  type: "Convolution"
  bottom: "pool1"
  top: "conv2"
  param {
    lr_mult: 1
    decay_mult: 1
  }
  param {
    lr_mult: 2
    decay_mult: 0
  }
  convolution_param {
    num_output: 20
    kernel_size: 5
    stride: 1
    weight_filler {
      type: "xavier"
    }
    bias_filler {
      type: "constant"
      value: 1
    }
  }
}
layer {
  name: "relu2"
  type: "ReLU"
  bottom: "conv2"
  top: "conv2"
}
layer {
  name: "pool2"
  type: "Pooling"
  bottom: "conv2"
  top: "pool2"
  pooling_param {
    pool: MAX
    kernel_size: 3
    stride: 2
  }
}
layer {
  name: "conv3"
  type: "Convolution"
  bottom: "pool2"
  top: "conv3"
  param {
    lr_mult: 1
    decay_mult: 1
  }
  param {
    lr_mult: 2
    decay_mult: 0
  }
  convolution_param {
    num_output: 30
    kernel_size: 3
    stride: 1
    weight_filler {
      type: "xavier"
    }
    bias_filler {
      type: "constant"
      value: 1
    }
  }
}
layer {
  name: "relu3"
  type: "ReLU"
  bottom: "conv3"
  top: "conv3"
}
layer {
  name: "pool3"
  type: "Pooling"
  bottom: "conv3"
  top: "pool3"
  pooling_param {
    pool: MAX
    kernel_size: 3
    stride: 2
  }
}
layer {
  name: "fc4"
  type: "InnerProduct"
  bottom: "pool3"
  top: "fc4"
  param {
    lr_mult: 1
    decay_mult: 1
  }
  param {
    lr_mult: 2
    decay_mult: 1
  }
  inner_product_param {
    num_output: 48
    weight_filler {
      type: "xavier"
    }
    bias_filler {
      type: "constant"
      value: 1
    }
  }
}
layer {
  name: "relu4"
  type: "ReLU"
  bottom: "fc4"
  top: "fc4"
}
layer {
  name: "fc5"
  type: "InnerProduct"
  bottom: "fc4"
  top: "fc5"
  param {
    lr_mult: 1
    decay_mult: 1
  }
  param {
    lr_mult: 2
    decay_mult: 1
  }
  inner_product_param {
    num_output: 2
    weight_filler {
      type: "xavier"
    }
    bias_filler {
      type: "constant"
      value: 1
    }
  }
}
layer {
  name: "loss"
  type: "SoftmaxWithLoss"
  bottom: "fc5"
  bottom: "label"
  top: "loss"
}
I0520 03:50:59.072225 15742 layer_factory.hpp:77] Creating layer data
I0520 03:50:59.072258 15742 net.cpp:86] Creating Layer data
I0520 03:50:59.072265 15742 net.cpp:382] data -> data
I0520 03:50:59.072283 15742 net.cpp:382] data -> label
I0520 03:50:59.072316 15742 image_data_layer.cpp:38] Opening file /home/hao/deep-parking/splits/CNRParkAB/even.txt
I0520 03:50:59.073709 15742 image_data_layer.cpp:53] Shuffling data
I0520 03:50:59.074247 15742 image_data_layer.cpp:63] A total of 6171 images.
I0520 03:50:59.074254 15742 image_data_layer.cpp:70] Skipping first 40 data points.
I0520 03:50:59.077953 15742 image_data_layer.cpp:90] output data size: 64,3,224,224
I0520 03:50:59.078064 15742 net.cpp:124] Setting up data
I0520 03:50:59.078079 15742 net.cpp:131] Top shape: 64 3 224 224 (9633792)
I0520 03:50:59.078084 15742 net.cpp:131] Top shape: 64 (64)
I0520 03:50:59.078088 15742 net.cpp:139] Memory required for data: 38535424
I0520 03:50:59.078094 15742 layer_factory.hpp:77] Creating layer conv1
I0520 03:50:59.078109 15742 net.cpp:86] Creating Layer conv1
I0520 03:50:59.078117 15742 net.cpp:408] conv1 <- data
I0520 03:50:59.078128 15742 net.cpp:382] conv1 -> conv1
I0520 03:50:59.078207 15742 net.cpp:124] Setting up conv1
I0520 03:50:59.078215 15742 net.cpp:131] Top shape: 64 16 54 54 (2985984)
I0520 03:50:59.078219 15742 net.cpp:139] Memory required for data: 50479360
I0520 03:50:59.078231 15742 layer_factory.hpp:77] Creating layer relu1
I0520 03:50:59.078238 15742 net.cpp:86] Creating Layer relu1
I0520 03:50:59.078243 15742 net.cpp:408] relu1 <- conv1
I0520 03:50:59.078248 15742 net.cpp:369] relu1 -> conv1 (in-place)
I0520 03:50:59.078258 15742 net.cpp:124] Setting up relu1
I0520 03:50:59.078264 15742 net.cpp:131] Top shape: 64 16 54 54 (2985984)
I0520 03:50:59.078269 15742 net.cpp:139] Memory required for data: 62423296
I0520 03:50:59.078272 15742 layer_factory.hpp:77] Creating layer pool1
I0520 03:50:59.078279 15742 net.cpp:86] Creating Layer pool1
I0520 03:50:59.078284 15742 net.cpp:408] pool1 <- conv1
I0520 03:50:59.078290 15742 net.cpp:382] pool1 -> pool1
I0520 03:50:59.078310 15742 net.cpp:124] Setting up pool1
I0520 03:50:59.078316 15742 net.cpp:131] Top shape: 64 16 27 27 (746496)
I0520 03:50:59.078322 15742 net.cpp:139] Memory required for data: 65409280
I0520 03:50:59.078326 15742 layer_factory.hpp:77] Creating layer conv2
I0520 03:50:59.078335 15742 net.cpp:86] Creating Layer conv2
I0520 03:50:59.078341 15742 net.cpp:408] conv2 <- pool1
I0520 03:50:59.078346 15742 net.cpp:382] conv2 -> conv2
I0520 03:50:59.078410 15742 net.cpp:124] Setting up conv2
I0520 03:50:59.078416 15742 net.cpp:131] Top shape: 64 20 23 23 (677120)
I0520 03:50:59.078421 15742 net.cpp:139] Memory required for data: 68117760
I0520 03:50:59.078426 15742 layer_factory.hpp:77] Creating layer relu2
I0520 03:50:59.078431 15742 net.cpp:86] Creating Layer relu2
I0520 03:50:59.078436 15742 net.cpp:408] relu2 <- conv2
I0520 03:50:59.078439 15742 net.cpp:369] relu2 -> conv2 (in-place)
I0520 03:50:59.078445 15742 net.cpp:124] Setting up relu2
I0520 03:50:59.078449 15742 net.cpp:131] Top shape: 64 20 23 23 (677120)
I0520 03:50:59.078454 15742 net.cpp:139] Memory required for data: 70826240
I0520 03:50:59.078456 15742 layer_factory.hpp:77] Creating layer pool2
I0520 03:50:59.078459 15742 net.cpp:86] Creating Layer pool2
I0520 03:50:59.078464 15742 net.cpp:408] pool2 <- conv2
I0520 03:50:59.078469 15742 net.cpp:382] pool2 -> pool2
I0520 03:50:59.078475 15742 net.cpp:124] Setting up pool2
I0520 03:50:59.078480 15742 net.cpp:131] Top shape: 64 20 11 11 (154880)
I0520 03:50:59.078483 15742 net.cpp:139] Memory required for data: 71445760
I0520 03:50:59.078486 15742 layer_factory.hpp:77] Creating layer conv3
I0520 03:50:59.078491 15742 net.cpp:86] Creating Layer conv3
I0520 03:50:59.078495 15742 net.cpp:408] conv3 <- pool2
I0520 03:50:59.078500 15742 net.cpp:382] conv3 -> conv3
I0520 03:50:59.078541 15742 net.cpp:124] Setting up conv3
I0520 03:50:59.078547 15742 net.cpp:131] Top shape: 64 30 9 9 (155520)
I0520 03:50:59.078559 15742 net.cpp:139] Memory required for data: 72067840
I0520 03:50:59.078586 15742 layer_factory.hpp:77] Creating layer relu3
I0520 03:50:59.078591 15742 net.cpp:86] Creating Layer relu3
I0520 03:50:59.078594 15742 net.cpp:408] relu3 <- conv3
I0520 03:50:59.078598 15742 net.cpp:369] relu3 -> conv3 (in-place)
I0520 03:50:59.078603 15742 net.cpp:124] Setting up relu3
I0520 03:50:59.078609 15742 net.cpp:131] Top shape: 64 30 9 9 (155520)
I0520 03:50:59.078613 15742 net.cpp:139] Memory required for data: 72689920
I0520 03:50:59.078616 15742 layer_factory.hpp:77] Creating layer pool3
I0520 03:50:59.078620 15742 net.cpp:86] Creating Layer pool3
I0520 03:50:59.078625 15742 net.cpp:408] pool3 <- conv3
I0520 03:50:59.078629 15742 net.cpp:382] pool3 -> pool3
I0520 03:50:59.078635 15742 net.cpp:124] Setting up pool3
I0520 03:50:59.078641 15742 net.cpp:131] Top shape: 64 30 4 4 (30720)
I0520 03:50:59.078645 15742 net.cpp:139] Memory required for data: 72812800
I0520 03:50:59.078649 15742 layer_factory.hpp:77] Creating layer fc4
I0520 03:50:59.078653 15742 net.cpp:86] Creating Layer fc4
I0520 03:50:59.078657 15742 net.cpp:408] fc4 <- pool3
I0520 03:50:59.078662 15742 net.cpp:382] fc4 -> fc4
I0520 03:50:59.078816 15742 net.cpp:124] Setting up fc4
I0520 03:50:59.078822 15742 net.cpp:131] Top shape: 64 48 (3072)
I0520 03:50:59.078827 15742 net.cpp:139] Memory required for data: 72825088
I0520 03:50:59.078831 15742 layer_factory.hpp:77] Creating layer relu4
I0520 03:50:59.078836 15742 net.cpp:86] Creating Layer relu4
I0520 03:50:59.078841 15742 net.cpp:408] relu4 <- fc4
I0520 03:50:59.078845 15742 net.cpp:369] relu4 -> fc4 (in-place)
I0520 03:50:59.078850 15742 net.cpp:124] Setting up relu4
I0520 03:50:59.078855 15742 net.cpp:131] Top shape: 64 48 (3072)
I0520 03:50:59.078858 15742 net.cpp:139] Memory required for data: 72837376
I0520 03:50:59.078860 15742 layer_factory.hpp:77] Creating layer fc5
I0520 03:50:59.078867 15742 net.cpp:86] Creating Layer fc5
I0520 03:50:59.078871 15742 net.cpp:408] fc5 <- fc4
I0520 03:50:59.078876 15742 net.cpp:382] fc5 -> fc5
I0520 03:50:59.078927 15742 net.cpp:124] Setting up fc5
I0520 03:50:59.078936 15742 net.cpp:131] Top shape: 64 2 (128)
I0520 03:50:59.078940 15742 net.cpp:139] Memory required for data: 72837888
I0520 03:50:59.078946 15742 layer_factory.hpp:77] Creating layer loss
I0520 03:50:59.078953 15742 net.cpp:86] Creating Layer loss
I0520 03:50:59.078959 15742 net.cpp:408] loss <- fc5
I0520 03:50:59.078963 15742 net.cpp:408] loss <- label
I0520 03:50:59.078967 15742 net.cpp:382] loss -> loss
I0520 03:50:59.078974 15742 layer_factory.hpp:77] Creating layer loss
…
I0520 03:50:59.079447 15742 net.cpp:53] Initializing net from parameters: 
name: "mAlexNet"
state {
  phase: TEST
}
layer {
  name: "data"
  type: "ImageData"
  top: "data"
  top: "label"
  include {
    phase: TEST
  }
  transform_param {
    scale: 0.00390625
    mirror: false
    crop_size: 224
  }
  image_data_param {
    source: "/home/hao/deep-parking/splits/CNRPark-EXT/val.txt"
    batch_size: 100
    rand_skip: 100
    shuffle: true
    new_height: 256
    new_width: 256
    root_folder: "/home/hao/Documents/CV/CNR-EXT-Patches-150x150/PATCHES/"
  }
}
layer {
  name: "conv1"
  type: "Convolution"
  bottom: "data"
  top: "conv1"
  param {
    lr_mult: 1
    decay_mult: 1
  }
  param {
    lr_mult: 2
    decay_mult: 0
  }
  convolution_param {
    num_output: 16
    kernel_size: 11
    stride: 4
    weight_filler {
      type: "xavier"
    }
    bias_filler {
      type: "constant"
      value: 1
    }
  }
}
layer {
  name: "relu1"
  type: "ReLU"
  bottom: "conv1"
  top: "conv1"
}
layer {
  name: "pool1"
  type: "Pooling"
  bottom: "conv1"
  top: "pool1"
  pooling_param {
    pool: MAX
    kernel_size: 3
    stride: 2
  }
}
layer {
  name: "conv2"
  type: "Convolution"
  bottom: "pool1"
  top: "conv2"
  param {
    lr_mult: 1
    decay_mult: 1
  }
  param {
    lr_mult: 2
    decay_mult: 0
  }
  convolution_param {
    num_output: 20
    kernel_size: 5
    stride: 1
    weight_filler {
      type: "xavier"
    }
    bias_filler {
      type: "constant"
      value: 1
    }
  }
}
layer {
  name: "relu2"
  type: "ReLU"
  bottom: "conv2"
  top: "conv2"
}
layer {
  name: "pool2"
  type: "Pooling"
  bottom: "conv2"
  top: "pool2"
  pooling_param {
    pool: MAX
    kernel_size: 3
    stride: 2
  }
}
layer {
  name: "conv3"
  type: "Convolution"
  bottom: "pool2"
  top: "conv3"
  param {
    lr_mult: 1
    decay_mult: 1
  }
  param {
    lr_mult: 2
    decay_mult: 0
  }
  convolution_param {
    num_output: 30
    kernel_size: 3
    stride: 1
    weight_filler {
      type: "xavier"
    }
    bias_filler {
      type: "constant"
      value: 1
    }
  }
}
layer {
  name: "relu3"
  type: "ReLU"
  bottom: "conv3"
  top: "conv3"
}
layer {
  name: "pool3"
  type: "Pooling"
  bottom: "conv3"
  top: "pool3"
  pooling_param {
    pool: MAX
    kernel_size: 3
    stride: 2
  }
}
layer {
  name: "fc4"
  type: "InnerProduct"
  bottom: "pool3"
  top: "fc4"
  param {
    lr_mult: 1
    decay_mult: 1
  }
  param {
    lr_mult: 2
    decay_mult: 1
  }
  inner_product_param {
    num_output: 48
    weight_filler {
      type: "xavier"
    }
    bias_filler {
      type: "constant"
      value: 1
    }
  }
}
layer {
  name: "relu4"
  type: "ReLU"
  bottom: "fc4"
  top: "fc4"
}
layer {
  name: "fc5"
  type: "InnerProduct"
  bottom: "fc4"
  top: "fc5"
  param {
    lr_mult: 1
    decay_mult: 1
  }
  param {
    lr_mult: 2
    decay_mult: 1
  }
  inner_product_param {
    num_output: 2
    weight_filler {
      type: "xavier"
    }
    bias_filler {
      type: "constant"
      value: 1
    }
  }
}
layer {
  name: "loss"
  type: "SoftmaxWithLoss"
  bottom: "fc5"
  bottom: "label"
  top: "loss"
}
layer {
  name: "accuracy"
  type: "Accuracy"
  bottom: "fc5"
  bottom: "label"
  top: "accuracy"
  include {
    phase: TEST
  }
}
I0520 03:50:59.079527 15742 layer_factory.hpp:77] Creating layer data
I0520 03:50:59.079548 15742 net.cpp:86] Creating Layer data
I0520 03:50:59.079552 15742 net.cpp:382] data -> data
I0520 03:50:59.079560 15742 net.cpp:382] data -> label
I0520 03:50:59.079566 15742 image_data_layer.cpp:38] Opening file /home/hao/deep-parking/splits/CNRPark-EXT/val.txt
I0520 03:50:59.086339 15742 image_data_layer.cpp:53] Shuffling data
I0520 03:50:59.089695 15742 image_data_layer.cpp:63] A total of 18647 images.
I0520 03:50:59.089706 15742 image_data_layer.cpp:70] Skipping first 21 data points.
I0520 03:50:59.090162 15742 image_data_layer.cpp:90] output data size: 100,3,224,224
I0520 03:50:59.090234 15742 net.cpp:124] Setting up data
I0520 03:50:59.090260 15742 net.cpp:131] Top shape: 100 3 224 224 (15052800)
I0520 03:50:59.090263 15742 net.cpp:131] Top shape: 100 (100)
I0520 03:50:59.090267 15742 net.cpp:139] Memory required for data: 60211600
I0520 03:50:59.090272 15742 layer_factory.hpp:77] Creating layer label_data_1_split
I0520 03:50:59.090284 15742 net.cpp:86] Creating Layer label_data_1_split
I0520 03:50:59.090291 15742 net.cpp:408] label_data_1_split <- label
I0520 03:50:59.090298 15742 net.cpp:382] label_data_1_split -> label_data_1_split_0
I0520 03:50:59.090308 15742 net.cpp:382] label_data_1_split -> label_data_1_split_1
I0520 03:50:59.090317 15742 net.cpp:124] Setting up label_data_1_split
I0520 03:50:59.090322 15742 net.cpp:131] Top shape: 100 (100)
I0520 03:50:59.090327 15742 net.cpp:131] Top shape: 100 (100)
I0520 03:50:59.090329 15742 net.cpp:139] Memory required for data: 60212400
I0520 03:50:59.090332 15742 layer_factory.hpp:77] Creating layer conv1
I0520 03:50:59.090344 15742 net.cpp:86] Creating Layer conv1
I0520 03:50:59.090348 15742 net.cpp:408] conv1 <- data
I0520 03:50:59.090353 15742 net.cpp:382] conv1 -> conv1
I0520 03:50:59.090407 15742 net.cpp:124] Setting up conv1
I0520 03:50:59.090414 15742 net.cpp:131] Top shape: 100 16 54 54 (4665600)
I0520 03:50:59.090416 15742 net.cpp:139] Memory required for data: 78874800
I0520 03:50:59.090425 15742 layer_factory.hpp:77] Creating layer relu1
I0520 03:50:59.090430 15742 net.cpp:86] Creating Layer relu1
I0520 03:50:59.090433 15742 net.cpp:408] relu1 <- conv1
I0520 03:50:59.090437 15742 net.cpp:369] relu1 -> conv1 (in-place)
I0520 03:50:59.090445 15742 net.cpp:124] Setting up relu1
I0520 03:50:59.090451 15742 net.cpp:131] Top shape: 100 16 54 54 (4665600)
I0520 03:50:59.090454 15742 net.cpp:139] Memory required for data: 97537200
I0520 03:50:59.090459 15742 layer_factory.hpp:77] Creating layer pool1
I0520 03:50:59.090466 15742 net.cpp:86] Creating Layer pool1
I0520 03:50:59.090469 15742 net.cpp:408] pool1 <- conv1
I0520 03:50:59.090474 15742 net.cpp:382] pool1 -> pool1
I0520 03:50:59.090483 15742 net.cpp:124] Setting up pool1
I0520 03:50:59.090488 15742 net.cpp:131] Top shape: 100 16 27 27 (1166400)
I0520 03:50:59.090493 15742 net.cpp:139] Memory required for data: 102202800
I0520 03:50:59.090497 15742 layer_factory.hpp:77] Creating layer conv2
I0520 03:50:59.090502 15742 net.cpp:86] Creating Layer conv2
I0520 03:50:59.090507 15742 net.cpp:408] conv2 <- pool1
I0520 03:50:59.090512 15742 net.cpp:382] conv2 -> conv2
I0520 03:50:59.090565 15742 net.cpp:124] Setting up conv2
I0520 03:50:59.090571 15742 net.cpp:131] Top shape: 100 20 23 23 (1058000)
I0520 03:50:59.090574 15742 net.cpp:139] Memory required for data: 106434800
I0520 03:50:59.090579 15742 layer_factory.hpp:77] Creating layer relu2
I0520 03:50:59.090584 15742 net.cpp:86] Creating Layer relu2
I0520 03:50:59.090589 15742 net.cpp:408] relu2 <- conv2
I0520 03:50:59.090591 15742 net.cpp:369] relu2 -> conv2 (in-place)
I0520 03:50:59.090595 15742 net.cpp:124] Setting up relu2
I0520 03:50:59.090603 15742 net.cpp:131] Top shape: 100 20 23 23 (1058000)
I0520 03:50:59.090606 15742 net.cpp:139] Memory required for data: 110666800
I0520 03:50:59.090610 15742 layer_factory.hpp:77] Creating layer pool2
I0520 03:50:59.090613 15742 net.cpp:86] Creating Layer pool2
I0520 03:50:59.090618 15742 net.cpp:408] pool2 <- conv2
I0520 03:50:59.090622 15742 net.cpp:382] pool2 -> pool2
I0520 03:50:59.090629 15742 net.cpp:124] Setting up pool2
I0520 03:50:59.090636 15742 net.cpp:131] Top shape: 100 20 11 11 (242000)
I0520 03:50:59.090638 15742 net.cpp:139] Memory required for data: 111634800
I0520 03:50:59.090643 15742 layer_factory.hpp:77] Creating layer conv3
I0520 03:50:59.090651 15742 net.cpp:86] Creating Layer conv3
I0520 03:50:59.090654 15742 net.cpp:408] conv3 <- pool2
I0520 03:50:59.090659 15742 net.cpp:382] conv3 -> conv3
I0520 03:50:59.090700 15742 net.cpp:124] Setting up conv3
I0520 03:50:59.090706 15742 net.cpp:131] Top shape: 100 30 9 9 (243000)
I0520 03:50:59.090710 15742 net.cpp:139] Memory required for data: 112606800
I0520 03:50:59.090716 15742 layer_factory.hpp:77] Creating layer relu3
I0520 03:50:59.090734 15742 net.cpp:86] Creating Layer relu3
I0520 03:50:59.090739 15742 net.cpp:408] relu3 <- conv3
I0520 03:50:59.090744 15742 net.cpp:369] relu3 -> conv3 (in-place)
I0520 03:50:59.090749 15742 net.cpp:124] Setting up relu3
I0520 03:50:59.090754 15742 net.cpp:131] Top shape: 100 30 9 9 (243000)
I0520 03:50:59.090759 15742 net.cpp:139] Memory required for data: 113578800
I0520 03:50:59.090762 15742 layer_factory.hpp:77] Creating layer pool3
I0520 03:50:59.090767 15742 net.cpp:86] Creating Layer pool3
I0520 03:50:59.090771 15742 net.cpp:408] pool3 <- conv3
I0520 03:50:59.090775 15742 net.cpp:382] pool3 -> pool3
I0520 03:50:59.090782 15742 net.cpp:124] Setting up pool3
I0520 03:50:59.090788 15742 net.cpp:131] Top shape: 100 30 4 4 (48000)
I0520 03:50:59.090792 15742 net.cpp:139] Memory required for data: 113770800
I0520 03:50:59.090795 15742 layer_factory.hpp:77] Creating layer fc4
I0520 03:50:59.090801 15742 net.cpp:86] Creating Layer fc4
I0520 03:50:59.090806 15742 net.cpp:408] fc4 <- pool3
I0520 03:50:59.090811 15742 net.cpp:382] fc4 -> fc4
I0520 03:50:59.090936 15742 net.cpp:124] Setting up fc4
I0520 03:50:59.090941 15742 net.cpp:131] Top shape: 100 48 (4800)
I0520 03:50:59.090945 15742 net.cpp:139] Memory required for data: 113790000
I0520 03:50:59.090948 15742 layer_factory.hpp:77] Creating layer relu4
I0520 03:50:59.090953 15742 net.cpp:86] Creating Layer relu4
I0520 03:50:59.090956 15742 net.cpp:408] relu4 <- fc4
I0520 03:50:59.090960 15742 net.cpp:369] relu4 -> fc4 (in-place)
I0520 03:50:59.090965 15742 net.cpp:124] Setting up relu4
I0520 03:50:59.090968 15742 net.cpp:131] Top shape: 100 48 (4800)
I0520 03:50:59.090971 15742 net.cpp:139] Memory required for data: 113809200
I0520 03:50:59.090975 15742 layer_factory.hpp:77] Creating layer fc5
I0520 03:50:59.090979 15742 net.cpp:86] Creating Layer fc5
I0520 03:50:59.090983 15742 net.cpp:408] fc5 <- fc4
I0520 03:50:59.090988 15742 net.cpp:382] fc5 -> fc5
I0520 03:50:59.090998 15742 net.cpp:124] Setting up fc5
I0520 03:50:59.091003 15742 net.cpp:131] Top shape: 100 2 (200)
I0520 03:50:59.091006 15742 net.cpp:139] Memory required for data: 113810000
I0520 03:50:59.091012 15742 layer_factory.hpp:77] Creating layer fc5_fc5_0_split
I0520 03:50:59.091017 15742 net.cpp:86] Creating Layer fc5_fc5_0_split
I0520 03:50:59.091022 15742 net.cpp:408] fc5_fc5_0_split <- fc5
I0520 03:50:59.091025 15742 net.cpp:382] fc5_fc5_0_split -> fc5_fc5_0_split_0
I0520 03:50:59.091033 15742 net.cpp:382] fc5_fc5_0_split -> fc5_fc5_0_split_1
I0520 03:50:59.091040 15742 net.cpp:124] Setting up fc5_fc5_0_split
I0520 03:50:59.091043 15742 net.cpp:131] Top shape: 100 2 (200)
I0520 03:50:59.091049 15742 net.cpp:131] Top shape: 100 2 (200)
I0520 03:50:59.091053 15742 net.cpp:139] Memory required for data: 113811600
I0520 03:50:59.091055 15742 layer_factory.hpp:77] Creating layer loss
I0520 03:50:59.091061 15742 net.cpp:86] Creating Layer loss
I0520 03:50:59.091066 15742 net.cpp:408] loss <- fc5_fc5_0_split_0
I0520 03:50:59.091070 15742 net.cpp:408] loss <- label_data_1_split_0
I0520 03:50:59.091076 15742 net.cpp:382] loss -> loss
…
