…
I0519 11:08:02.372923 11985 net.cpp:53] Initializing net from parameters: 
name: "mAlexNet"
state {
  phase: TRAIN
  level: 0
  stage: ""
}
layer {
  name: "data"
  type: "ImageData"
  top: "data"
  top: "label"
  include {
    phase: TRAIN
  }
  transform_param {
    scale: 0.00390625
    mirror: true
    crop_size: 224
  }
  image_data_param {
    source: "/home/hao/deep-parking/splits/PKLot/UFPR04_train.txt"
    batch_size: 64
    rand_skip: 64
    shuffle: true
    new_height: 256
    new_width: 256
    root_folder: "/home/hao/Documents/CV/PKLot/PKLotSegmented/"
  }
}
layer {
  name: "conv1"
  type: "Convolution"
  bottom: "data"
  top: "conv1"
  param {
    lr_mult: 1
    decay_mult: 1
  }
  param {
    lr_mult: 2
    decay_mult: 0
  }
  convolution_param {
    num_output: 16
    kernel_size: 11
    stride: 4
    weight_filler {
      type: "xavier"
    }
    bias_filler {
      type: "constant"
      value: 1
    }
  }
}
layer {
  name: "relu1"
  type: "ReLU"
  bottom: "conv1"
  top: "conv1"
}
layer {
  name: "pool1"
  type: "Pooling"
  bottom: "conv1"
  top: "pool1"
  pooling_param {
    pool: MAX
    kernel_size: 3
    stride: 2
  }
}
layer {
  name: "conv2"
  type: "Convolution"
  bottom: "pool1"
  top: "conv2"
  param {
    lr_mult: 1
    decay_mult: 1
  }
  param {
    lr_mult: 2
    decay_mult: 0
  }
  convolution_param {
    num_output: 20
    kernel_size: 5
    stride: 1
    weight_filler {
      type: "xavier"
    }
    bias_filler {
      type: "constant"
      value: 1
    }
  }
}
layer {
  name: "relu2"
  type: "ReLU"
  bottom: "conv2"
  top: "conv2"
}
layer {
  name: "pool2"
  type: "Pooling"
  bottom: "conv2"
  top: "pool2"
  pooling_param {
    pool: MAX
    kernel_size: 3
    stride: 2
  }
}
layer {
  name: "conv3"
  type: "Convolution"
  bottom: "pool2"
  top: "conv3"
  param {
    lr_mult: 1
    decay_mult: 1
  }
  param {
    lr_mult: 2
    decay_mult: 0
  }
  convolution_param {
    num_output: 30
    kernel_size: 3
    stride: 1
    weight_filler {
      type: "xavier"
    }
    bias_filler {
      type: "constant"
      value: 1
    }
  }
}
layer {
  name: "relu3"
  type: "ReLU"
  bottom: "conv3"
  top: "conv3"
}
layer {
  name: "pool3"
  type: "Pooling"
  bottom: "conv3"
  top: "pool3"
  pooling_param {
    pool: MAX
    kernel_size: 3
    stride: 2
  }
}
layer {
  name: "fc4"
  type: "InnerProduct"
  bottom: "pool3"
  top: "fc4"
  param {
    lr_mult: 1
    decay_mult: 1
  }
  param {
    lr_mult: 2
    decay_mult: 1
  }
  inner_product_param {
    num_output: 48
    weight_filler {
      type: "xavier"
    }
    bias_filler {
      type: "constant"
      value: 1
    }
  }
}
layer {
  name: "relu4"
  type: "ReLU"
  bottom: "fc4"
  top: "fc4"
}
layer {
  name: "fc5"
  type: "InnerProduct"
  bottom: "fc4"
  top: "fc5"
  param {
    lr_mult: 1
    decay_mult: 1
  }
  param {
    lr_mult: 2
    decay_mult: 1
  }
  inner_product_param {
    num_output: 2
    weight_filler {
      type: "xavier"
    }
    bias_filler {
      type: "constant"
      value: 1
    }
  }
}
layer {
  name: "loss"
  type: "SoftmaxWithLoss"
  bottom: "fc5"
  bottom: "label"
  top: "loss"
}
I0519 11:08:02.373003 11985 layer_factory.hpp:77] Creating layer data
I0519 11:08:02.373025 11985 net.cpp:86] Creating Layer data
I0519 11:08:02.373034 11985 net.cpp:382] data -> data
I0519 11:08:02.373052 11985 net.cpp:382] data -> label
I0519 11:08:02.373070 11985 image_data_layer.cpp:38] Opening file /home/hao/deep-parking/splits/PKLot/UFPR04_train.txt
I0519 11:08:02.386528 11985 image_data_layer.cpp:53] Shuffling data
I0519 11:08:02.402802 11985 image_data_layer.cpp:63] A total of 49160 images.
I0519 11:08:02.402844 11985 image_data_layer.cpp:70] Skipping first 40 data points.
I0519 11:08:02.403527 11985 image_data_layer.cpp:90] output data size: 64,3,224,224
I0519 11:08:02.403616 11985 net.cpp:124] Setting up data
I0519 11:08:02.403645 11985 net.cpp:131] Top shape: 64 3 224 224 (9633792)
I0519 11:08:02.403650 11985 net.cpp:131] Top shape: 64 (64)
I0519 11:08:02.403652 11985 net.cpp:139] Memory required for data: 38535424
I0519 11:08:02.403658 11985 layer_factory.hpp:77] Creating layer conv1
I0519 11:08:02.403692 11985 net.cpp:86] Creating Layer conv1
I0519 11:08:02.403699 11985 net.cpp:408] conv1 <- data
I0519 11:08:02.403721 11985 net.cpp:382] conv1 -> conv1
I0519 11:08:02.403802 11985 net.cpp:124] Setting up conv1
I0519 11:08:02.403810 11985 net.cpp:131] Top shape: 64 16 54 54 (2985984)
I0519 11:08:02.403822 11985 net.cpp:139] Memory required for data: 50479360
I0519 11:08:02.403834 11985 layer_factory.hpp:77] Creating layer relu1
I0519 11:08:02.403843 11985 net.cpp:86] Creating Layer relu1
I0519 11:08:02.403847 11985 net.cpp:408] relu1 <- conv1
I0519 11:08:02.403851 11985 net.cpp:369] relu1 -> conv1 (in-place)
I0519 11:08:02.403857 11985 net.cpp:124] Setting up relu1
I0519 11:08:02.403862 11985 net.cpp:131] Top shape: 64 16 54 54 (2985984)
I0519 11:08:02.403865 11985 net.cpp:139] Memory required for data: 62423296
I0519 11:08:02.403868 11985 layer_factory.hpp:77] Creating layer pool1
I0519 11:08:02.403873 11985 net.cpp:86] Creating Layer pool1
I0519 11:08:02.403877 11985 net.cpp:408] pool1 <- conv1
I0519 11:08:02.403882 11985 net.cpp:382] pool1 -> pool1
I0519 11:08:02.403900 11985 net.cpp:124] Setting up pool1
I0519 11:08:02.403905 11985 net.cpp:131] Top shape: 64 16 27 27 (746496)
I0519 11:08:02.403910 11985 net.cpp:139] Memory required for data: 65409280
I0519 11:08:02.403913 11985 layer_factory.hpp:77] Creating layer conv2
I0519 11:08:02.403920 11985 net.cpp:86] Creating Layer conv2
I0519 11:08:02.403925 11985 net.cpp:408] conv2 <- pool1
I0519 11:08:02.403930 11985 net.cpp:382] conv2 -> conv2
I0519 11:08:02.403987 11985 net.cpp:124] Setting up conv2
I0519 11:08:02.403995 11985 net.cpp:131] Top shape: 64 20 23 23 (677120)
I0519 11:08:02.403998 11985 net.cpp:139] Memory required for data: 68117760
I0519 11:08:02.404004 11985 layer_factory.hpp:77] Creating layer relu2
I0519 11:08:02.404009 11985 net.cpp:86] Creating Layer relu2
I0519 11:08:02.404014 11985 net.cpp:408] relu2 <- conv2
I0519 11:08:02.404018 11985 net.cpp:369] relu2 -> conv2 (in-place)
I0519 11:08:02.404024 11985 net.cpp:124] Setting up relu2
I0519 11:08:02.404029 11985 net.cpp:131] Top shape: 64 20 23 23 (677120)
I0519 11:08:02.404032 11985 net.cpp:139] Memory required for data: 70826240
I0519 11:08:02.404036 11985 layer_factory.hpp:77] Creating layer pool2
I0519 11:08:02.404042 11985 net.cpp:86] Creating Layer pool2
I0519 11:08:02.404047 11985 net.cpp:408] pool2 <- conv2
I0519 11:08:02.404050 11985 net.cpp:382] pool2 -> pool2
I0519 11:08:02.404057 11985 net.cpp:124] Setting up pool2
I0519 11:08:02.404062 11985 net.cpp:131] Top shape: 64 20 11 11 (154880)
I0519 11:08:02.404067 11985 net.cpp:139] Memory required for data: 71445760
I0519 11:08:02.404069 11985 layer_factory.hpp:77] Creating layer conv3
I0519 11:08:02.404076 11985 net.cpp:86] Creating Layer conv3
I0519 11:08:02.404081 11985 net.cpp:408] conv3 <- pool2
I0519 11:08:02.404086 11985 net.cpp:382] conv3 -> conv3
I0519 11:08:02.404131 11985 net.cpp:124] Setting up conv3
I0519 11:08:02.404137 11985 net.cpp:131] Top shape: 64 30 9 9 (155520)
I0519 11:08:02.404142 11985 net.cpp:139] Memory required for data: 72067840
I0519 11:08:02.404163 11985 layer_factory.hpp:77] Creating layer relu3
I0519 11:08:02.404170 11985 net.cpp:86] Creating Layer relu3
I0519 11:08:02.404175 11985 net.cpp:408] relu3 <- conv3
I0519 11:08:02.404179 11985 net.cpp:369] relu3 -> conv3 (in-place)
I0519 11:08:02.404186 11985 net.cpp:124] Setting up relu3
I0519 11:08:02.404191 11985 net.cpp:131] Top shape: 64 30 9 9 (155520)
I0519 11:08:02.404196 11985 net.cpp:139] Memory required for data: 72689920
I0519 11:08:02.404198 11985 layer_factory.hpp:77] Creating layer pool3
I0519 11:08:02.404202 11985 net.cpp:86] Creating Layer pool3
I0519 11:08:02.404206 11985 net.cpp:408] pool3 <- conv3
I0519 11:08:02.404211 11985 net.cpp:382] pool3 -> pool3
I0519 11:08:02.404220 11985 net.cpp:124] Setting up pool3
I0519 11:08:02.404225 11985 net.cpp:131] Top shape: 64 30 4 4 (30720)
I0519 11:08:02.404230 11985 net.cpp:139] Memory required for data: 72812800
I0519 11:08:02.404233 11985 layer_factory.hpp:77] Creating layer fc4
I0519 11:08:02.404239 11985 net.cpp:86] Creating Layer fc4
I0519 11:08:02.404244 11985 net.cpp:408] fc4 <- pool3
I0519 11:08:02.404249 11985 net.cpp:382] fc4 -> fc4
I0519 11:08:02.404383 11985 net.cpp:124] Setting up fc4
I0519 11:08:02.404390 11985 net.cpp:131] Top shape: 64 48 (3072)
I0519 11:08:02.404404 11985 net.cpp:139] Memory required for data: 72825088
I0519 11:08:02.404408 11985 layer_factory.hpp:77] Creating layer relu4
I0519 11:08:02.404412 11985 net.cpp:86] Creating Layer relu4
I0519 11:08:02.404417 11985 net.cpp:408] relu4 <- fc4
I0519 11:08:02.404420 11985 net.cpp:369] relu4 -> fc4 (in-place)
I0519 11:08:02.404424 11985 net.cpp:124] Setting up relu4
I0519 11:08:02.404430 11985 net.cpp:131] Top shape: 64 48 (3072)
I0519 11:08:02.404433 11985 net.cpp:139] Memory required for data: 72837376
I0519 11:08:02.404436 11985 layer_factory.hpp:77] Creating layer fc5
I0519 11:08:02.404441 11985 net.cpp:86] Creating Layer fc5
I0519 11:08:02.404445 11985 net.cpp:408] fc5 <- fc4
I0519 11:08:02.404451 11985 net.cpp:382] fc5 -> fc5
I0519 11:08:02.404464 11985 net.cpp:124] Setting up fc5
I0519 11:08:02.404469 11985 net.cpp:131] Top shape: 64 2 (128)
I0519 11:08:02.404470 11985 net.cpp:139] Memory required for data: 72837888
I0519 11:08:02.404475 11985 layer_factory.hpp:77] Creating layer loss
I0519 11:08:02.404484 11985 net.cpp:86] Creating Layer loss
I0519 11:08:02.404487 11985 net.cpp:408] loss <- fc5
I0519 11:08:02.404491 11985 net.cpp:408] loss <- label
I0519 11:08:02.404496 11985 net.cpp:382] loss -> loss
I0519 11:08:02.404506 11985 layer_factory.hpp:77] Creating layer loss
…
I0519 11:08:02.405082 11985 solver.cpp:190] Creating test net (#0) specified by test_net file: val-PKLot_val.prototxt
I0519 11:08:02.405275 11985 net.cpp:53] Initializing net from parameters: 
name: "mAlexNet"
state {
  phase: TEST
}
layer {
  name: "data"
  type: "ImageData"
  top: "data"
  top: "label"
  include {
    phase: TEST
  }
  transform_param {
    scale: 0.00390625
    mirror: false
    crop_size: 224
  }
  image_data_param {
    source: "/home/hao/deep-parking/splits/PKLot/val.txt"
    batch_size: 100
    rand_skip: 100
    shuffle: true
    new_height: 256
    new_width: 256
    root_folder: "/home/hao/Documents/CV/PKLot/PKLotSegmented/"
  }
}
layer {
  name: "conv1"
  type: "Convolution"
  bottom: "data"
  top: "conv1"
  param {
    lr_mult: 1
    decay_mult: 1
  }
  param {
    lr_mult: 2
    decay_mult: 0
  }
  convolution_param {
    num_output: 16
    kernel_size: 11
    stride: 4
    weight_filler {
      type: "xavier"
    }
    bias_filler {
      type: "constant"
      value: 1
    }
  }
}
layer {
  name: "relu1"
  type: "ReLU"
  bottom: "conv1"
  top: "conv1"
}
layer {
  name: "pool1"
  type: "Pooling"
  bottom: "conv1"
  top: "pool1"
  pooling_param {
    pool: MAX
    kernel_size: 3
    stride: 2
  }
}
layer {
  name: "conv2"
  type: "Convolution"
  bottom: "pool1"
  top: "conv2"
  param {
    lr_mult: 1
    decay_mult: 1
  }
  param {
    lr_mult: 2
    decay_mult: 0
  }
  convolution_param {
    num_output: 20
    kernel_size: 5
    stride: 1
    weight_filler {
      type: "xavier"
    }
    bias_filler {
      type: "constant"
      value: 1
    }
  }
}
layer {
  name: "relu2"
  type: "ReLU"
  bottom: "conv2"
  top: "conv2"
}
layer {
  name: "pool2"
  type: "Pooling"
  bottom: "conv2"
  top: "pool2"
  pooling_param {
    pool: MAX
    kernel_size: 3
    stride: 2
  }
}
layer {
  name: "conv3"
  type: "Convolution"
  bottom: "pool2"
  top: "conv3"
  param {
    lr_mult: 1
    decay_mult: 1
  }
  param {
    lr_mult: 2
    decay_mult: 0
  }
  convolution_param {
    num_output: 30
    kernel_size: 3
    stride: 1
    weight_filler {
      type: "xavier"
    }
    bias_filler {
      type: "constant"
      value: 1
    }
  }
}
layer {
  name: "relu3"
  type: "ReLU"
  bottom: "conv3"
  top: "conv3"
}
layer {
  name: "pool3"
  type: "Pooling"
  bottom: "conv3"
  top: "pool3"
  pooling_param {
    pool: MAX
    kernel_size: 3
    stride: 2
  }
}
layer {
  name: "fc4"
  type: "InnerProduct"
  bottom: "pool3"
  top: "fc4"
  param {
    lr_mult: 1
    decay_mult: 1
  }
  param {
    lr_mult: 2
    decay_mult: 1
  }
  inner_product_param {
    num_output: 48
    weight_filler {
      type: "xavier"
    }
    bias_filler {
      type: "constant"
      value: 1
    }
  }
}
layer {
  name: "relu4"
  type: "ReLU"
  bottom: "fc4"
  top: "fc4"
}
layer {
  name: "fc5"
  type: "InnerProduct"
  bottom: "fc4"
  top: "fc5"
  param {
    lr_mult: 1
    decay_mult: 1
  }
  param {
    lr_mult: 2
    decay_mult: 1
  }
  inner_product_param {
    num_output: 2
    weight_filler {
      type: "xavier"
    }
    bias_filler {
      type: "constant"
      value: 1
    }
  }
}
layer {
  name: "loss"
  type: "SoftmaxWithLoss"
  bottom: "fc5"
  bottom: "label"
  top: "loss"
}
layer {
  name: "accuracy"
  type: "Accuracy"
  bottom: "fc5"
  bottom: "label"
  top: "accuracy"
  include {
    phase: TEST
  }
}
I0519 11:08:02.405412 11985 layer_factory.hpp:77] Creating layer data
I0519 11:08:02.405445 11985 net.cpp:86] Creating Layer data
I0519 11:08:02.405455 11985 net.cpp:382] data -> data
I0519 11:08:02.405474 11985 net.cpp:382] data -> label
I0519 11:08:02.405489 11985 image_data_layer.cpp:38] Opening file /home/hao/deep-parking/splits/PKLot/val.txt
I0519 11:08:02.443881 11985 image_data_layer.cpp:53] Shuffling data
I0519 11:08:02.476397 11985 image_data_layer.cpp:63] A total of 102362 images.
I0519 11:08:02.476426 11985 image_data_layer.cpp:70] Skipping first 21 data points.
I0519 11:08:02.476742 11985 image_data_layer.cpp:90] output data size: 100,3,224,224
I0519 11:08:02.476850 11985 net.cpp:124] Setting up data
I0519 11:08:02.476871 11985 net.cpp:131] Top shape: 100 3 224 224 (15052800)
I0519 11:08:02.476892 11985 net.cpp:131] Top shape: 100 (100)
I0519 11:08:02.476897 11985 net.cpp:139] Memory required for data: 60211600
I0519 11:08:02.476902 11985 layer_factory.hpp:77] Creating layer label_data_1_split
I0519 11:08:02.476915 11985 net.cpp:86] Creating Layer label_data_1_split
I0519 11:08:02.476920 11985 net.cpp:408] label_data_1_split <- label
I0519 11:08:02.476927 11985 net.cpp:382] label_data_1_split -> label_data_1_split_0
I0519 11:08:02.476938 11985 net.cpp:382] label_data_1_split -> label_data_1_split_1
I0519 11:08:02.476948 11985 net.cpp:124] Setting up label_data_1_split
I0519 11:08:02.476950 11985 net.cpp:131] Top shape: 100 (100)
I0519 11:08:02.476953 11985 net.cpp:131] Top shape: 100 (100)
I0519 11:08:02.476956 11985 net.cpp:139] Memory required for data: 60212400
I0519 11:08:02.476959 11985 layer_factory.hpp:77] Creating layer conv1
I0519 11:08:02.476972 11985 net.cpp:86] Creating Layer conv1
I0519 11:08:02.476976 11985 net.cpp:408] conv1 <- data
I0519 11:08:02.476984 11985 net.cpp:382] conv1 -> conv1
I0519 11:08:02.477039 11985 net.cpp:124] Setting up conv1
I0519 11:08:02.477047 11985 net.cpp:131] Top shape: 100 16 54 54 (4665600)
I0519 11:08:02.477051 11985 net.cpp:139] Memory required for data: 78874800
I0519 11:08:02.477059 11985 layer_factory.hpp:77] Creating layer relu1
I0519 11:08:02.477066 11985 net.cpp:86] Creating Layer relu1
I0519 11:08:02.477069 11985 net.cpp:408] relu1 <- conv1
I0519 11:08:02.477074 11985 net.cpp:369] relu1 -> conv1 (in-place)
I0519 11:08:02.477080 11985 net.cpp:124] Setting up relu1
I0519 11:08:02.477085 11985 net.cpp:131] Top shape: 100 16 54 54 (4665600)
I0519 11:08:02.477088 11985 net.cpp:139] Memory required for data: 97537200
I0519 11:08:02.477092 11985 layer_factory.hpp:77] Creating layer pool1
I0519 11:08:02.477100 11985 net.cpp:86] Creating Layer pool1
I0519 11:08:02.477104 11985 net.cpp:408] pool1 <- conv1
I0519 11:08:02.477109 11985 net.cpp:382] pool1 -> pool1
I0519 11:08:02.477119 11985 net.cpp:124] Setting up pool1
I0519 11:08:02.477124 11985 net.cpp:131] Top shape: 100 16 27 27 (1166400)
I0519 11:08:02.477129 11985 net.cpp:139] Memory required for data: 102202800
I0519 11:08:02.477133 11985 layer_factory.hpp:77] Creating layer conv2
I0519 11:08:02.477140 11985 net.cpp:86] Creating Layer conv2
I0519 11:08:02.477144 11985 net.cpp:408] conv2 <- pool1
I0519 11:08:02.477150 11985 net.cpp:382] conv2 -> conv2
I0519 11:08:02.477206 11985 net.cpp:124] Setting up conv2
I0519 11:08:02.477212 11985 net.cpp:131] Top shape: 100 20 23 23 (1058000)
I0519 11:08:02.477216 11985 net.cpp:139] Memory required for data: 106434800
I0519 11:08:02.477221 11985 layer_factory.hpp:77] Creating layer relu2
I0519 11:08:02.477226 11985 net.cpp:86] Creating Layer relu2
I0519 11:08:02.477228 11985 net.cpp:408] relu2 <- conv2
I0519 11:08:02.477234 11985 net.cpp:369] relu2 -> conv2 (in-place)
I0519 11:08:02.477241 11985 net.cpp:124] Setting up relu2
I0519 11:08:02.477246 11985 net.cpp:131] Top shape: 100 20 23 23 (1058000)
I0519 11:08:02.477249 11985 net.cpp:139] Memory required for data: 110666800
I0519 11:08:02.477252 11985 layer_factory.hpp:77] Creating layer pool2
I0519 11:08:02.477258 11985 net.cpp:86] Creating Layer pool2
I0519 11:08:02.477262 11985 net.cpp:408] pool2 <- conv2
I0519 11:08:02.477267 11985 net.cpp:382] pool2 -> pool2
I0519 11:08:02.477274 11985 net.cpp:124] Setting up pool2
I0519 11:08:02.477279 11985 net.cpp:131] Top shape: 100 20 11 11 (242000)
I0519 11:08:02.477283 11985 net.cpp:139] Memory required for data: 111634800
I0519 11:08:02.477285 11985 layer_factory.hpp:77] Creating layer conv3
I0519 11:08:02.477295 11985 net.cpp:86] Creating Layer conv3
I0519 11:08:02.477300 11985 net.cpp:408] conv3 <- pool2
I0519 11:08:02.477305 11985 net.cpp:382] conv3 -> conv3
I0519 11:08:02.477350 11985 net.cpp:124] Setting up conv3
I0519 11:08:02.477356 11985 net.cpp:131] Top shape: 100 30 9 9 (243000)
I0519 11:08:02.477360 11985 net.cpp:139] Memory required for data: 112606800
I0519 11:08:02.477366 11985 layer_factory.hpp:77] Creating layer relu3
I0519 11:08:02.477380 11985 net.cpp:86] Creating Layer relu3
I0519 11:08:02.477385 11985 net.cpp:408] relu3 <- conv3
I0519 11:08:02.477389 11985 net.cpp:369] relu3 -> conv3 (in-place)
I0519 11:08:02.477394 11985 net.cpp:124] Setting up relu3
I0519 11:08:02.477401 11985 net.cpp:131] Top shape: 100 30 9 9 (243000)
I0519 11:08:02.477403 11985 net.cpp:139] Memory required for data: 113578800
I0519 11:08:02.477406 11985 layer_factory.hpp:77] Creating layer pool3
I0519 11:08:02.477412 11985 net.cpp:86] Creating Layer pool3
I0519 11:08:02.477417 11985 net.cpp:408] pool3 <- conv3
I0519 11:08:02.477422 11985 net.cpp:382] pool3 -> pool3
I0519 11:08:02.477430 11985 net.cpp:124] Setting up pool3
I0519 11:08:02.477435 11985 net.cpp:131] Top shape: 100 30 4 4 (48000)
I0519 11:08:02.477438 11985 net.cpp:139] Memory required for data: 113770800
I0519 11:08:02.477442 11985 layer_factory.hpp:77] Creating layer fc4
I0519 11:08:02.477448 11985 net.cpp:86] Creating Layer fc4
I0519 11:08:02.477453 11985 net.cpp:408] fc4 <- pool3
I0519 11:08:02.477458 11985 net.cpp:382] fc4 -> fc4
I0519 11:08:02.477581 11985 net.cpp:124] Setting up fc4
I0519 11:08:02.477587 11985 net.cpp:131] Top shape: 100 48 (4800)
I0519 11:08:02.477591 11985 net.cpp:139] Memory required for data: 113790000
I0519 11:08:02.477596 11985 layer_factory.hpp:77] Creating layer relu4
I0519 11:08:02.477600 11985 net.cpp:86] Creating Layer relu4
I0519 11:08:02.477603 11985 net.cpp:408] relu4 <- fc4
I0519 11:08:02.477607 11985 net.cpp:369] relu4 -> fc4 (in-place)
I0519 11:08:02.477615 11985 net.cpp:124] Setting up relu4
I0519 11:08:02.477618 11985 net.cpp:131] Top shape: 100 48 (4800)
I0519 11:08:02.477622 11985 net.cpp:139] Memory required for data: 113809200
I0519 11:08:02.477624 11985 layer_factory.hpp:77] Creating layer fc5
I0519 11:08:02.477630 11985 net.cpp:86] Creating Layer fc5
I0519 11:08:02.477633 11985 net.cpp:408] fc5 <- fc4
I0519 11:08:02.477638 11985 net.cpp:382] fc5 -> fc5
I0519 11:08:02.477650 11985 net.cpp:124] Setting up fc5
I0519 11:08:02.477655 11985 net.cpp:131] Top shape: 100 2 (200)
I0519 11:08:02.477658 11985 net.cpp:139] Memory required for data: 113810000
I0519 11:08:02.477663 11985 layer_factory.hpp:77] Creating layer fc5_fc5_0_split
I0519 11:08:02.477671 11985 net.cpp:86] Creating Layer fc5_fc5_0_split
I0519 11:08:02.477674 11985 net.cpp:408] fc5_fc5_0_split <- fc5
I0519 11:08:02.477679 11985 net.cpp:382] fc5_fc5_0_split -> fc5_fc5_0_split_0
I0519 11:08:02.477684 11985 net.cpp:382] fc5_fc5_0_split -> fc5_fc5_0_split_1
I0519 11:08:02.477692 11985 net.cpp:124] Setting up fc5_fc5_0_split
I0519 11:08:02.477697 11985 net.cpp:131] Top shape: 100 2 (200)
I0519 11:08:02.477700 11985 net.cpp:131] Top shape: 100 2 (200)
I0519 11:08:02.477703 11985 net.cpp:139] Memory required for data: 113811600
I0519 11:08:02.477706 11985 layer_factory.hpp:77] Creating layer loss
I0519 11:08:02.477711 11985 net.cpp:86] Creating Layer loss
I0519 11:08:02.477715 11985 net.cpp:408] loss <- fc5_fc5_0_split_0
I0519 11:08:02.477717 11985 net.cpp:408] loss <- label_data_1_split_0
I0519 11:08:02.477723 11985 net.cpp:382] loss -> loss
…
