…
I0520 03:07:35.385469 15441 net.cpp:53] Initializing net from parameters: 
name: "mAlexNet"
state {
  phase: TRAIN
  level: 0
  stage: ""
}
layer {
  name: "data"
  type: "ImageData"
  top: "data"
  top: "label"
  include {
    phase: TRAIN
  }
  transform_param {
    scale: 0.00390625
    mirror: true
    crop_size: 224
  }
  image_data_param {
    source: "/home/hao/deep-parking/splits/CNRParkAB/odd.txt"
    batch_size: 64
    rand_skip: 64
    shuffle: true
    new_height: 256
    new_width: 256
    root_folder: "/home/hao/Documents/CV/CNRPark-Patches-150x150/"
  }
}
layer {
  name: "conv1"
  type: "Convolution"
  bottom: "data"
  top: "conv1"
  param {
    lr_mult: 1
    decay_mult: 1
  }
  param {
    lr_mult: 2
    decay_mult: 0
  }
  convolution_param {
    num_output: 16
    kernel_size: 11
    stride: 4
    weight_filler {
      type: "xavier"
    }
    bias_filler {
      type: "constant"
      value: 1
    }
  }
}
layer {
  name: "relu1"
  type: "ReLU"
  bottom: "conv1"
  top: "conv1"
}
layer {
  name: "pool1"
  type: "Pooling"
  bottom: "conv1"
  top: "pool1"
  pooling_param {
    pool: MAX
    kernel_size: 3
    stride: 2
  }
}
layer {
  name: "conv2"
  type: "Convolution"
  bottom: "pool1"
  top: "conv2"
  param {
    lr_mult: 1
    decay_mult: 1
  }
  param {
    lr_mult: 2
    decay_mult: 0
  }
  convolution_param {
    num_output: 20
    kernel_size: 5
    stride: 1
    weight_filler {
      type: "xavier"
    }
    bias_filler {
      type: "constant"
      value: 1
    }
  }
}
layer {
  name: "relu2"
  type: "ReLU"
  bottom: "conv2"
  top: "conv2"
}
layer {
  name: "pool2"
  type: "Pooling"
  bottom: "conv2"
  top: "pool2"
  pooling_param {
    pool: MAX
    kernel_size: 3
    stride: 2
  }
}
layer {
  name: "conv3"
  type: "Convolution"
  bottom: "pool2"
  top: "conv3"
  param {
    lr_mult: 1
    decay_mult: 1
  }
  param {
    lr_mult: 2
    decay_mult: 0
  }
  convolution_param {
    num_output: 30
    kernel_size: 3
    stride: 1
    weight_filler {
      type: "xavier"
    }
    bias_filler {
      type: "constant"
      value: 1
    }
  }
}
layer {
  name: "relu3"
  type: "ReLU"
  bottom: "conv3"
  top: "conv3"
}
layer {
  name: "pool3"
  type: "Pooling"
  bottom: "conv3"
  top: "pool3"
  pooling_param {
    pool: MAX
    kernel_size: 3
    stride: 2
  }
}
layer {
  name: "fc4"
  type: "InnerProduct"
  bottom: "pool3"
  top: "fc4"
  param {
    lr_mult: 1
    decay_mult: 1
  }
  param {
    lr_mult: 2
    decay_mult: 1
  }
  inner_product_param {
    num_output: 48
    weight_filler {
      type: "xavier"
    }
    bias_filler {
      type: "constant"
      value: 1
    }
  }
}
layer {
  name: "relu4"
  type: "ReLU"
  bottom: "fc4"
  top: "fc4"
}
layer {
  name: "fc5"
  type: "InnerProduct"
  bottom: "fc4"
  top: "fc5"
  param {
    lr_mult: 1
    decay_mult: 1
  }
  param {
    lr_mult: 2
    decay_mult: 1
  }
  inner_product_param {
    num_output: 2
    weight_filler {
      type: "xavier"
    }
    bias_filler {
      type: "constant"
      value: 1
    }
  }
}
layer {
  name: "loss"
  type: "SoftmaxWithLoss"
  bottom: "fc5"
  bottom: "label"
  top: "loss"
}
I0520 03:07:35.385533 15441 layer_factory.hpp:77] Creating layer data
I0520 03:07:35.385565 15441 net.cpp:86] Creating Layer data
I0520 03:07:35.385591 15441 net.cpp:382] data -> data
I0520 03:07:35.385617 15441 net.cpp:382] data -> label
I0520 03:07:35.385629 15441 image_data_layer.cpp:38] Opening file /home/hao/deep-parking/splits/CNRParkAB/odd.txt
I0520 03:07:35.386981 15441 image_data_layer.cpp:53] Shuffling data
I0520 03:07:35.387418 15441 image_data_layer.cpp:63] A total of 6413 images.
I0520 03:07:35.387425 15441 image_data_layer.cpp:70] Skipping first 40 data points.
I0520 03:07:35.390717 15441 image_data_layer.cpp:90] output data size: 64,3,224,224
I0520 03:07:35.390830 15441 net.cpp:124] Setting up data
I0520 03:07:35.390844 15441 net.cpp:131] Top shape: 64 3 224 224 (9633792)
I0520 03:07:35.390851 15441 net.cpp:131] Top shape: 64 (64)
I0520 03:07:35.390854 15441 net.cpp:139] Memory required for data: 38535424
I0520 03:07:35.390859 15441 layer_factory.hpp:77] Creating layer conv1
I0520 03:07:35.390875 15441 net.cpp:86] Creating Layer conv1
I0520 03:07:35.390883 15441 net.cpp:408] conv1 <- data
I0520 03:07:35.390894 15441 net.cpp:382] conv1 -> conv1
I0520 03:07:35.390975 15441 net.cpp:124] Setting up conv1
I0520 03:07:35.390983 15441 net.cpp:131] Top shape: 64 16 54 54 (2985984)
I0520 03:07:35.390987 15441 net.cpp:139] Memory required for data: 50479360
I0520 03:07:35.391000 15441 layer_factory.hpp:77] Creating layer relu1
I0520 03:07:35.391007 15441 net.cpp:86] Creating Layer relu1
I0520 03:07:35.391011 15441 net.cpp:408] relu1 <- conv1
I0520 03:07:35.391017 15441 net.cpp:369] relu1 -> conv1 (in-place)
I0520 03:07:35.391023 15441 net.cpp:124] Setting up relu1
I0520 03:07:35.391031 15441 net.cpp:131] Top shape: 64 16 54 54 (2985984)
I0520 03:07:35.391038 15441 net.cpp:139] Memory required for data: 62423296
I0520 03:07:35.391042 15441 layer_factory.hpp:77] Creating layer pool1
I0520 03:07:35.391047 15441 net.cpp:86] Creating Layer pool1
I0520 03:07:35.391053 15441 net.cpp:408] pool1 <- conv1
I0520 03:07:35.391058 15441 net.cpp:382] pool1 -> pool1
I0520 03:07:35.391079 15441 net.cpp:124] Setting up pool1
I0520 03:07:35.391088 15441 net.cpp:131] Top shape: 64 16 27 27 (746496)
I0520 03:07:35.391093 15441 net.cpp:139] Memory required for data: 65409280
I0520 03:07:35.391096 15441 layer_factory.hpp:77] Creating layer conv2
I0520 03:07:35.391105 15441 net.cpp:86] Creating Layer conv2
I0520 03:07:35.391111 15441 net.cpp:408] conv2 <- pool1
I0520 03:07:35.391117 15441 net.cpp:382] conv2 -> conv2
I0520 03:07:35.391191 15441 net.cpp:124] Setting up conv2
I0520 03:07:35.391199 15441 net.cpp:131] Top shape: 64 20 23 23 (677120)
I0520 03:07:35.391204 15441 net.cpp:139] Memory required for data: 68117760
I0520 03:07:35.391211 15441 layer_factory.hpp:77] Creating layer relu2
I0520 03:07:35.391219 15441 net.cpp:86] Creating Layer relu2
I0520 03:07:35.391225 15441 net.cpp:408] relu2 <- conv2
I0520 03:07:35.391230 15441 net.cpp:369] relu2 -> conv2 (in-place)
I0520 03:07:35.391237 15441 net.cpp:124] Setting up relu2
I0520 03:07:35.391244 15441 net.cpp:131] Top shape: 64 20 23 23 (677120)
I0520 03:07:35.391250 15441 net.cpp:139] Memory required for data: 70826240
I0520 03:07:35.391254 15441 layer_factory.hpp:77] Creating layer pool2
I0520 03:07:35.391260 15441 net.cpp:86] Creating Layer pool2
I0520 03:07:35.391265 15441 net.cpp:408] pool2 <- conv2
I0520 03:07:35.391270 15441 net.cpp:382] pool2 -> pool2
I0520 03:07:35.391279 15441 net.cpp:124] Setting up pool2
I0520 03:07:35.391286 15441 net.cpp:131] Top shape: 64 20 11 11 (154880)
I0520 03:07:35.391292 15441 net.cpp:139] Memory required for data: 71445760
I0520 03:07:35.391295 15441 layer_factory.hpp:77] Creating layer conv3
I0520 03:07:35.391302 15441 net.cpp:86] Creating Layer conv3
I0520 03:07:35.391309 15441 net.cpp:408] conv3 <- pool2
I0520 03:07:35.391314 15441 net.cpp:382] conv3 -> conv3
I0520 03:07:35.391371 15441 net.cpp:124] Setting up conv3
I0520 03:07:35.391379 15441 net.cpp:131] Top shape: 64 30 9 9 (155520)
I0520 03:07:35.391386 15441 net.cpp:139] Memory required for data: 72067840
I0520 03:07:35.391409 15441 layer_factory.hpp:77] Creating layer relu3
I0520 03:07:35.391418 15441 net.cpp:86] Creating Layer relu3
I0520 03:07:35.391423 15441 net.cpp:408] relu3 <- conv3
I0520 03:07:35.391429 15441 net.cpp:369] relu3 -> conv3 (in-place)
I0520 03:07:35.391436 15441 net.cpp:124] Setting up relu3
I0520 03:07:35.391443 15441 net.cpp:131] Top shape: 64 30 9 9 (155520)
I0520 03:07:35.391449 15441 net.cpp:139] Memory required for data: 72689920
I0520 03:07:35.391453 15441 layer_factory.hpp:77] Creating layer pool3
I0520 03:07:35.391458 15441 net.cpp:86] Creating Layer pool3
I0520 03:07:35.391464 15441 net.cpp:408] pool3 <- conv3
I0520 03:07:35.391469 15441 net.cpp:382] pool3 -> pool3
I0520 03:07:35.391479 15441 net.cpp:124] Setting up pool3
I0520 03:07:35.391495 15441 net.cpp:131] Top shape: 64 30 4 4 (30720)
I0520 03:07:35.391499 15441 net.cpp:139] Memory required for data: 72812800
I0520 03:07:35.391502 15441 layer_factory.hpp:77] Creating layer fc4
I0520 03:07:35.391507 15441 net.cpp:86] Creating Layer fc4
I0520 03:07:35.391511 15441 net.cpp:408] fc4 <- pool3
I0520 03:07:35.391516 15441 net.cpp:382] fc4 -> fc4
I0520 03:07:35.391670 15441 net.cpp:124] Setting up fc4
I0520 03:07:35.391676 15441 net.cpp:131] Top shape: 64 48 (3072)
I0520 03:07:35.391681 15441 net.cpp:139] Memory required for data: 72825088
I0520 03:07:35.391685 15441 layer_factory.hpp:77] Creating layer relu4
I0520 03:07:35.391690 15441 net.cpp:86] Creating Layer relu4
I0520 03:07:35.391695 15441 net.cpp:408] relu4 <- fc4
I0520 03:07:35.391700 15441 net.cpp:369] relu4 -> fc4 (in-place)
I0520 03:07:35.391705 15441 net.cpp:124] Setting up relu4
I0520 03:07:35.391710 15441 net.cpp:131] Top shape: 64 48 (3072)
I0520 03:07:35.391714 15441 net.cpp:139] Memory required for data: 72837376
I0520 03:07:35.391717 15441 layer_factory.hpp:77] Creating layer fc5
I0520 03:07:35.391721 15441 net.cpp:86] Creating Layer fc5
I0520 03:07:35.391726 15441 net.cpp:408] fc5 <- fc4
I0520 03:07:35.391731 15441 net.cpp:382] fc5 -> fc5
I0520 03:07:35.391738 15441 net.cpp:124] Setting up fc5
I0520 03:07:35.391743 15441 net.cpp:131] Top shape: 64 2 (128)
I0520 03:07:35.391748 15441 net.cpp:139] Memory required for data: 72837888
I0520 03:07:35.391753 15441 layer_factory.hpp:77] Creating layer loss
I0520 03:07:35.391759 15441 net.cpp:86] Creating Layer loss
I0520 03:07:35.391763 15441 net.cpp:408] loss <- fc5
I0520 03:07:35.391767 15441 net.cpp:408] loss <- label
I0520 03:07:35.391773 15441 net.cpp:382] loss -> loss
I0520 03:07:35.391782 15441 layer_factory.hpp:77] Creating layer loss
…
I0520 03:07:35.392216 15441 net.cpp:53] Initializing net from parameters: 
name: "mAlexNet"
state {
  phase: TEST
}
layer {
  name: "data"
  type: "ImageData"
  top: "data"
  top: "label"
  include {
    phase: TEST
  }
  transform_param {
    scale: 0.00390625
    mirror: false
    crop_size: 224
  }
  image_data_param {
    source: "/home/hao/deep-parking/splits/CNRPark-EXT/val.txt"
    batch_size: 100
    rand_skip: 100
    shuffle: true
    new_height: 256
    new_width: 256
    root_folder: "/home/hao/Documents/CV/CNR-EXT-Patches-150x150/PATCHES/"
  }
}
layer {
  name: "conv1"
  type: "Convolution"
  bottom: "data"
  top: "conv1"
  param {
    lr_mult: 1
    decay_mult: 1
  }
  param {
    lr_mult: 2
    decay_mult: 0
  }
  convolution_param {
    num_output: 16
    kernel_size: 11
    stride: 4
    weight_filler {
      type: "xavier"
    }
    bias_filler {
      type: "constant"
      value: 1
    }
  }
}
layer {
  name: "relu1"
  type: "ReLU"
  bottom: "conv1"
  top: "conv1"
}
layer {
  name: "pool1"
  type: "Pooling"
  bottom: "conv1"
  top: "pool1"
  pooling_param {
    pool: MAX
    kernel_size: 3
    stride: 2
  }
}
layer {
  name: "conv2"
  type: "Convolution"
  bottom: "pool1"
  top: "conv2"
  param {
    lr_mult: 1
    decay_mult: 1
  }
  param {
    lr_mult: 2
    decay_mult: 0
  }
  convolution_param {
    num_output: 20
    kernel_size: 5
    stride: 1
    weight_filler {
      type: "xavier"
    }
    bias_filler {
      type: "constant"
      value: 1
    }
  }
}
layer {
  name: "relu2"
  type: "ReLU"
  bottom: "conv2"
  top: "conv2"
}
layer {
  name: "pool2"
  type: "Pooling"
  bottom: "conv2"
  top: "pool2"
  pooling_param {
    pool: MAX
    kernel_size: 3
    stride: 2
  }
}
layer {
  name: "conv3"
  type: "Convolution"
  bottom: "pool2"
  top: "conv3"
  param {
    lr_mult: 1
    decay_mult: 1
  }
  param {
    lr_mult: 2
    decay_mult: 0
  }
  convolution_param {
    num_output: 30
    kernel_size: 3
    stride: 1
    weight_filler {
      type: "xavier"
    }
    bias_filler {
      type: "constant"
      value: 1
    }
  }
}
layer {
  name: "relu3"
  type: "ReLU"
  bottom: "conv3"
  top: "conv3"
}
layer {
  name: "pool3"
  type: "Pooling"
  bottom: "conv3"
  top: "pool3"
  pooling_param {
    pool: MAX
    kernel_size: 3
    stride: 2
  }
}
layer {
  name: "fc4"
  type: "InnerProduct"
  bottom: "pool3"
  top: "fc4"
  param {
    lr_mult: 1
    decay_mult: 1
  }
  param {
    lr_mult: 2
    decay_mult: 1
  }
  inner_product_param {
    num_output: 48
    weight_filler {
      type: "xavier"
    }
    bias_filler {
      type: "constant"
      value: 1
    }
  }
}
layer {
  name: "relu4"
  type: "ReLU"
  bottom: "fc4"
  top: "fc4"
}
layer {
  name: "fc5"
  type: "InnerProduct"
  bottom: "fc4"
  top: "fc5"
  param {
    lr_mult: 1
    decay_mult: 1
  }
  param {
    lr_mult: 2
    decay_mult: 1
  }
  inner_product_param {
    num_output: 2
    weight_filler {
      type: "xavier"
    }
    bias_filler {
      type: "constant"
      value: 1
    }
  }
}
layer {
  name: "loss"
  type: "SoftmaxWithLoss"
  bottom: "fc5"
  bottom: "label"
  top: "loss"
}
layer {
  name: "accuracy"
  type: "Accuracy"
  bottom: "fc5"
  bottom: "label"
  top: "accuracy"
  include {
    phase: TEST
  }
}
I0520 03:07:35.392300 15441 layer_factory.hpp:77] Creating layer data
I0520 03:07:35.392321 15441 net.cpp:86] Creating Layer data
I0520 03:07:35.392326 15441 net.cpp:382] data -> data
I0520 03:07:35.392333 15441 net.cpp:382] data -> label
I0520 03:07:35.392338 15441 image_data_layer.cpp:38] Opening file /home/hao/deep-parking/splits/CNRPark-EXT/val.txt
I0520 03:07:35.399067 15441 image_data_layer.cpp:53] Shuffling data
I0520 03:07:35.401655 15441 image_data_layer.cpp:63] A total of 18647 images.
I0520 03:07:35.401665 15441 image_data_layer.cpp:70] Skipping first 21 data points.
I0520 03:07:35.402115 15441 image_data_layer.cpp:90] output data size: 100,3,224,224
I0520 03:07:35.402209 15441 net.cpp:124] Setting up data
I0520 03:07:35.402242 15441 net.cpp:131] Top shape: 100 3 224 224 (15052800)
I0520 03:07:35.402246 15441 net.cpp:131] Top shape: 100 (100)
I0520 03:07:35.402251 15441 net.cpp:139] Memory required for data: 60211600
I0520 03:07:35.402256 15441 layer_factory.hpp:77] Creating layer label_data_1_split
I0520 03:07:35.402266 15441 net.cpp:86] Creating Layer label_data_1_split
I0520 03:07:35.402272 15441 net.cpp:408] label_data_1_split <- label
I0520 03:07:35.402279 15441 net.cpp:382] label_data_1_split -> label_data_1_split_0
I0520 03:07:35.402288 15441 net.cpp:382] label_data_1_split -> label_data_1_split_1
I0520 03:07:35.402297 15441 net.cpp:124] Setting up label_data_1_split
I0520 03:07:35.402300 15441 net.cpp:131] Top shape: 100 (100)
I0520 03:07:35.402303 15441 net.cpp:131] Top shape: 100 (100)
I0520 03:07:35.402307 15441 net.cpp:139] Memory required for data: 60212400
I0520 03:07:35.402309 15441 layer_factory.hpp:77] Creating layer conv1
I0520 03:07:35.402320 15441 net.cpp:86] Creating Layer conv1
I0520 03:07:35.402324 15441 net.cpp:408] conv1 <- data
I0520 03:07:35.402329 15441 net.cpp:382] conv1 -> conv1
I0520 03:07:35.402380 15441 net.cpp:124] Setting up conv1
I0520 03:07:35.402386 15441 net.cpp:131] Top shape: 100 16 54 54 (4665600)
I0520 03:07:35.402391 15441 net.cpp:139] Memory required for data: 78874800
I0520 03:07:35.402400 15441 layer_factory.hpp:77] Creating layer relu1
I0520 03:07:35.402405 15441 net.cpp:86] Creating Layer relu1
I0520 03:07:35.402410 15441 net.cpp:408] relu1 <- conv1
I0520 03:07:35.402413 15441 net.cpp:369] relu1 -> conv1 (in-place)
I0520 03:07:35.402420 15441 net.cpp:124] Setting up relu1
I0520 03:07:35.402426 15441 net.cpp:131] Top shape: 100 16 54 54 (4665600)
I0520 03:07:35.402429 15441 net.cpp:139] Memory required for data: 97537200
I0520 03:07:35.402432 15441 layer_factory.hpp:77] Creating layer pool1
I0520 03:07:35.402438 15441 net.cpp:86] Creating Layer pool1
I0520 03:07:35.402442 15441 net.cpp:408] pool1 <- conv1
I0520 03:07:35.402446 15441 net.cpp:382] pool1 -> pool1
I0520 03:07:35.402456 15441 net.cpp:124] Setting up pool1
I0520 03:07:35.402462 15441 net.cpp:131] Top shape: 100 16 27 27 (1166400)
I0520 03:07:35.402465 15441 net.cpp:139] Memory required for data: 102202800
I0520 03:07:35.402468 15441 layer_factory.hpp:77] Creating layer conv2
I0520 03:07:35.402473 15441 net.cpp:86] Creating Layer conv2
I0520 03:07:35.402478 15441 net.cpp:408] conv2 <- pool1
I0520 03:07:35.402482 15441 net.cpp:382] conv2 -> conv2
I0520 03:07:35.402544 15441 net.cpp:124] Setting up conv2
I0520 03:07:35.402549 15441 net.cpp:131] Top shape: 100 20 23 23 (1058000)
I0520 03:07:35.402562 15441 net.cpp:139] Memory required for data: 106434800
I0520 03:07:35.402567 15441 layer_factory.hpp:77] Creating layer relu2
I0520 03:07:35.402571 15441 net.cpp:86] Creating Layer relu2
I0520 03:07:35.402575 15441 net.cpp:408] relu2 <- conv2
I0520 03:07:35.402578 15441 net.cpp:369] relu2 -> conv2 (in-place)
I0520 03:07:35.402582 15441 net.cpp:124] Setting up relu2
I0520 03:07:35.402590 15441 net.cpp:131] Top shape: 100 20 23 23 (1058000)
I0520 03:07:35.402592 15441 net.cpp:139] Memory required for data: 110666800
I0520 03:07:35.402596 15441 layer_factory.hpp:77] Creating layer pool2
I0520 03:07:35.402601 15441 net.cpp:86] Creating Layer pool2
I0520 03:07:35.402606 15441 net.cpp:408] pool2 <- conv2
I0520 03:07:35.402609 15441 net.cpp:382] pool2 -> pool2
I0520 03:07:35.402616 15441 net.cpp:124] Setting up pool2
I0520 03:07:35.402621 15441 net.cpp:131] Top shape: 100 20 11 11 (242000)
I0520 03:07:35.402624 15441 net.cpp:139] Memory required for data: 111634800
I0520 03:07:35.402628 15441 layer_factory.hpp:77] Creating layer conv3
I0520 03:07:35.402634 15441 net.cpp:86] Creating Layer conv3
I0520 03:07:35.402639 15441 net.cpp:408] conv3 <- pool2
I0520 03:07:35.402643 15441 net.cpp:382] conv3 -> conv3
I0520 03:07:35.402683 15441 net.cpp:124] Setting up conv3
I0520 03:07:35.402688 15441 net.cpp:131] Top shape: 100 30 9 9 (243000)
I0520 03:07:35.402693 15441 net.cpp:139] Memory required for data: 112606800
I0520 03:07:35.402698 15441 layer_factory.hpp:77] Creating layer relu3
I0520 03:07:35.402714 15441 net.cpp:86] Creating Layer relu3
I0520 03:07:35.402719 15441 net.cpp:408] relu3 <- conv3
I0520 03:07:35.402721 15441 net.cpp:369] relu3 -> conv3 (in-place)
I0520 03:07:35.402727 15441 net.cpp:124] Setting up relu3
I0520 03:07:35.402732 15441 net.cpp:131] Top shape: 100 30 9 9 (243000)
I0520 03:07:35.402737 15441 net.cpp:139] Memory required for data: 113578800
I0520 03:07:35.402740 15441 layer_factory.hpp:77] Creating layer pool3
I0520 03:07:35.402745 15441 net.cpp:86] Creating Layer pool3
I0520 03:07:35.402748 15441 net.cpp:408] pool3 <- conv3
I0520 03:07:35.402752 15441 net.cpp:382] pool3 -> pool3
I0520 03:07:35.402760 15441 net.cpp:124] Setting up pool3
I0520 03:07:35.402765 15441 net.cpp:131] Top shape: 100 30 4 4 (48000)
I0520 03:07:35.402768 15441 net.cpp:139] Memory required for data: 113770800
I0520 03:07:35.402771 15441 layer_factory.hpp:77] Creating layer fc4
I0520 03:07:35.402777 15441 net.cpp:86] Creating Layer fc4
I0520 03:07:35.402782 15441 net.cpp:408] fc4 <- pool3
I0520 03:07:35.402786 15441 net.cpp:382] fc4 -> fc4
I0520 03:07:35.402925 15441 net.cpp:124] Setting up fc4
I0520 03:07:35.402931 15441 net.cpp:131] Top shape: 100 48 (4800)
I0520 03:07:35.402933 15441 net.cpp:139] Memory required for data: 113790000
I0520 03:07:35.402938 15441 layer_factory.hpp:77] Creating layer relu4
I0520 03:07:35.402942 15441 net.cpp:86] Creating Layer relu4
I0520 03:07:35.402945 15441 net.cpp:408] relu4 <- fc4
I0520 03:07:35.402949 15441 net.cpp:369] relu4 -> fc4 (in-place)
I0520 03:07:35.402953 15441 net.cpp:124] Setting up relu4
I0520 03:07:35.402956 15441 net.cpp:131] Top shape: 100 48 (4800)
I0520 03:07:35.402959 15441 net.cpp:139] Memory required for data: 113809200
I0520 03:07:35.402962 15441 layer_factory.hpp:77] Creating layer fc5
I0520 03:07:35.402971 15441 net.cpp:86] Creating Layer fc5
I0520 03:07:35.402974 15441 net.cpp:408] fc5 <- fc4
I0520 03:07:35.402978 15441 net.cpp:382] fc5 -> fc5
I0520 03:07:35.402987 15441 net.cpp:124] Setting up fc5
I0520 03:07:35.402992 15441 net.cpp:131] Top shape: 100 2 (200)
I0520 03:07:35.402995 15441 net.cpp:139] Memory required for data: 113810000
I0520 03:07:35.403000 15441 layer_factory.hpp:77] Creating layer fc5_fc5_0_split
I0520 03:07:35.403007 15441 net.cpp:86] Creating Layer fc5_fc5_0_split
I0520 03:07:35.403009 15441 net.cpp:408] fc5_fc5_0_split <- fc5
I0520 03:07:35.403013 15441 net.cpp:382] fc5_fc5_0_split -> fc5_fc5_0_split_0
I0520 03:07:35.403017 15441 net.cpp:382] fc5_fc5_0_split -> fc5_fc5_0_split_1
I0520 03:07:35.403023 15441 net.cpp:124] Setting up fc5_fc5_0_split
I0520 03:07:35.403028 15441 net.cpp:131] Top shape: 100 2 (200)
I0520 03:07:35.403033 15441 net.cpp:131] Top shape: 100 2 (200)
I0520 03:07:35.403035 15441 net.cpp:139] Memory required for data: 113811600
I0520 03:07:35.403038 15441 layer_factory.hpp:77] Creating layer loss
I0520 03:07:35.403043 15441 net.cpp:86] Creating Layer loss
I0520 03:07:35.403046 15441 net.cpp:408] loss <- fc5_fc5_0_split_0
I0520 03:07:35.403051 15441 net.cpp:408] loss <- label_data_1_split_0
I0520 03:07:35.403057 15441 net.cpp:382] loss -> loss
…
