…
I0526 10:55:29.234992 10701 net.cpp:53] Initializing net from parameters: 
name: "mAlexNet"
state {
  phase: TRAIN
  level: 0
  stage: ""
}
layer {
  name: "data"
  type: "ImageData"
  top: "data"
  top: "label"
  include {
    phase: TRAIN
  }
  transform_param {
    scale: 0.00390625
    mirror: true
    crop_size: 224
  }
  image_data_param {
    source: "/home/hao/deep-parking/splits/PKLot/UFPR05_train.txt"
    batch_size: 64
    rand_skip: 64
    shuffle: true
    new_height: 256
    new_width: 256
    root_folder: "/home/hao/Documents/CV/PKLot/PKLotSegmented/"
  }
}
layer {
  name: "conv1"
  type: "Convolution"
  bottom: "data"
  top: "conv1"
  param {
    lr_mult: 1
    decay_mult: 1
  }
  param {
    lr_mult: 2
    decay_mult: 0
  }
  convolution_param {
    num_output: 16
    kernel_size: 11
    stride: 4
    weight_filler {
      type: "xavier"
    }
    bias_filler {
      type: "constant"
      value: 1
    }
  }
}
layer {
  name: "relu1"
  type: "ReLU"
  bottom: "conv1"
  top: "conv1"
}
layer {
  name: "pool1"
  type: "Pooling"
  bottom: "conv1"
  top: "pool1"
  pooling_param {
    pool: MAX
    kernel_size: 3
    stride: 2
  }
}
layer {
  name: "conv2"
  type: "Convolution"
  bottom: "pool1"
  top: "conv2"
  param {
    lr_mult: 1
    decay_mult: 1
  }
  param {
    lr_mult: 2
    decay_mult: 0
  }
  convolution_param {
    num_output: 20
    kernel_size: 5
    stride: 1
    weight_filler {
      type: "xavier"
    }
    bias_filler {
      type: "constant"
      value: 1
    }
  }
}
layer {
  name: "relu2"
  type: "ReLU"
  bottom: "conv2"
  top: "conv2"
}
layer {
  name: "pool2"
  type: "Pooling"
  bottom: "conv2"
  top: "pool2"
  pooling_param {
    pool: MAX
    kernel_size: 3
    stride: 2
  }
}
layer {
  name: "conv3"
  type: "Convolution"
  bottom: "pool2"
  top: "conv3"
  param {
    lr_mult: 1
    decay_mult: 1
  }
  param {
    lr_mult: 2
    decay_mult: 0
  }
  convolution_param {
    num_output: 30
    kernel_size: 3
    stride: 1
    weight_filler {
      type: "xavier"
    }
    bias_filler {
      type: "constant"
      value: 1
    }
  }
}
layer {
  name: "relu3"
  type: "ReLU"
  bottom: "conv3"
  top: "conv3"
}
layer {
  name: "pool3"
  type: "Pooling"
  bottom: "conv3"
  top: "pool3"
  pooling_param {
    pool: MAX
    kernel_size: 3
    stride: 2
  }
}
layer {
  name: "fc4"
  type: "InnerProduct"
  bottom: "pool3"
  top: "fc4"
  param {
    lr_mult: 1
    decay_mult: 1
  }
  param {
    lr_mult: 2
    decay_mult: 1
  }
  inner_product_param {
    num_output: 48
    weight_filler {
      type: "xavier"
    }
    bias_filler {
      type: "constant"
      value: 1
    }
  }
}
layer {
  name: "relu4"
  type: "ReLU"
  bottom: "fc4"
  top: "fc4"
}
layer {
  name: "fc5"
  type: "InnerProduct"
  bottom: "fc4"
  top: "fc5"
  param {
    lr_mult: 1
    decay_mult: 1
  }
  param {
    lr_mult: 2
    decay_mult: 1
  }
  inner_product_param {
    num_output: 2
    weight_filler {
      type: "xavier"
    }
    bias_filler {
      type: "constant"
      value: 1
    }
  }
}
layer {
  name: "loss"
  type: "SoftmaxWithLoss"
  bottom: "fc5"
  bottom: "label"
  top: "loss"
}
I0526 10:55:29.235069 10701 layer_factory.hpp:77] Creating layer data
I0526 10:55:29.235100 10701 net.cpp:86] Creating Layer data
I0526 10:55:29.235110 10701 net.cpp:382] data -> data
I0526 10:55:29.235136 10701 net.cpp:382] data -> label
I0526 10:55:29.235155 10701 image_data_layer.cpp:38] Opening file /home/hao/deep-parking/splits/PKLot/UFPR05_train.txt
I0526 10:55:29.263258 10701 image_data_layer.cpp:53] Shuffling data
I0526 10:55:29.290556 10701 image_data_layer.cpp:63] A total of 93955 images.
I0526 10:55:29.290587 10701 image_data_layer.cpp:70] Skipping first 40 data points.
I0526 10:55:29.291445 10701 image_data_layer.cpp:90] output data size: 64,3,224,224
I0526 10:55:29.291554 10701 net.cpp:124] Setting up data
I0526 10:55:29.291574 10701 net.cpp:131] Top shape: 64 3 224 224 (9633792)
I0526 10:55:29.291582 10701 net.cpp:131] Top shape: 64 (64)
I0526 10:55:29.291589 10701 net.cpp:139] Memory required for data: 38535424
I0526 10:55:29.291600 10701 layer_factory.hpp:77] Creating layer conv1
I0526 10:55:29.291630 10701 net.cpp:86] Creating Layer conv1
I0526 10:55:29.291640 10701 net.cpp:408] conv1 <- data
I0526 10:55:29.291657 10701 net.cpp:382] conv1 -> conv1
I0526 10:55:29.291736 10701 net.cpp:124] Setting up conv1
I0526 10:55:29.291748 10701 net.cpp:131] Top shape: 64 16 54 54 (2985984)
I0526 10:55:29.291752 10701 net.cpp:139] Memory required for data: 50479360
I0526 10:55:29.291771 10701 layer_factory.hpp:77] Creating layer relu1
I0526 10:55:29.291782 10701 net.cpp:86] Creating Layer relu1
I0526 10:55:29.291790 10701 net.cpp:408] relu1 <- conv1
I0526 10:55:29.291800 10701 net.cpp:369] relu1 -> conv1 (in-place)
I0526 10:55:29.291810 10701 net.cpp:124] Setting up relu1
I0526 10:55:29.291818 10701 net.cpp:131] Top shape: 64 16 54 54 (2985984)
I0526 10:55:29.291824 10701 net.cpp:139] Memory required for data: 62423296
I0526 10:55:29.291832 10701 layer_factory.hpp:77] Creating layer pool1
I0526 10:55:29.291841 10701 net.cpp:86] Creating Layer pool1
I0526 10:55:29.291846 10701 net.cpp:408] pool1 <- conv1
I0526 10:55:29.291858 10701 net.cpp:382] pool1 -> pool1
I0526 10:55:29.291884 10701 net.cpp:124] Setting up pool1
I0526 10:55:29.291893 10701 net.cpp:131] Top shape: 64 16 27 27 (746496)
I0526 10:55:29.291899 10701 net.cpp:139] Memory required for data: 65409280
I0526 10:55:29.291908 10701 layer_factory.hpp:77] Creating layer conv2
I0526 10:55:29.291921 10701 net.cpp:86] Creating Layer conv2
I0526 10:55:29.291929 10701 net.cpp:408] conv2 <- pool1
I0526 10:55:29.291939 10701 net.cpp:382] conv2 -> conv2
I0526 10:55:29.292016 10701 net.cpp:124] Setting up conv2
I0526 10:55:29.292026 10701 net.cpp:131] Top shape: 64 20 23 23 (677120)
I0526 10:55:29.292034 10701 net.cpp:139] Memory required for data: 68117760
I0526 10:55:29.292047 10701 layer_factory.hpp:77] Creating layer relu2
I0526 10:55:29.292055 10701 net.cpp:86] Creating Layer relu2
I0526 10:55:29.292062 10701 net.cpp:408] relu2 <- conv2
I0526 10:55:29.292071 10701 net.cpp:369] relu2 -> conv2 (in-place)
I0526 10:55:29.292079 10701 net.cpp:124] Setting up relu2
I0526 10:55:29.292088 10701 net.cpp:131] Top shape: 64 20 23 23 (677120)
I0526 10:55:29.292094 10701 net.cpp:139] Memory required for data: 70826240
I0526 10:55:29.292100 10701 layer_factory.hpp:77] Creating layer pool2
I0526 10:55:29.292109 10701 net.cpp:86] Creating Layer pool2
I0526 10:55:29.292115 10701 net.cpp:408] pool2 <- conv2
I0526 10:55:29.292125 10701 net.cpp:382] pool2 -> pool2
I0526 10:55:29.292137 10701 net.cpp:124] Setting up pool2
I0526 10:55:29.292145 10701 net.cpp:131] Top shape: 64 20 11 11 (154880)
I0526 10:55:29.292151 10701 net.cpp:139] Memory required for data: 71445760
I0526 10:55:29.292160 10701 layer_factory.hpp:77] Creating layer conv3
I0526 10:55:29.292173 10701 net.cpp:86] Creating Layer conv3
I0526 10:55:29.292179 10701 net.cpp:408] conv3 <- pool2
I0526 10:55:29.292191 10701 net.cpp:382] conv3 -> conv3
I0526 10:55:29.292254 10701 net.cpp:124] Setting up conv3
I0526 10:55:29.292264 10701 net.cpp:131] Top shape: 64 30 9 9 (155520)
I0526 10:55:29.292289 10701 net.cpp:139] Memory required for data: 72067840
I0526 10:55:29.292302 10701 layer_factory.hpp:77] Creating layer relu3
I0526 10:55:29.292312 10701 net.cpp:86] Creating Layer relu3
I0526 10:55:29.292318 10701 net.cpp:408] relu3 <- conv3
I0526 10:55:29.292327 10701 net.cpp:369] relu3 -> conv3 (in-place)
I0526 10:55:29.292336 10701 net.cpp:124] Setting up relu3
I0526 10:55:29.292345 10701 net.cpp:131] Top shape: 64 30 9 9 (155520)
I0526 10:55:29.292351 10701 net.cpp:139] Memory required for data: 72689920
I0526 10:55:29.292358 10701 layer_factory.hpp:77] Creating layer pool3
I0526 10:55:29.292368 10701 net.cpp:86] Creating Layer pool3
I0526 10:55:29.292376 10701 net.cpp:408] pool3 <- conv3
I0526 10:55:29.292387 10701 net.cpp:382] pool3 -> pool3
I0526 10:55:29.292398 10701 net.cpp:124] Setting up pool3
I0526 10:55:29.292407 10701 net.cpp:131] Top shape: 64 30 4 4 (30720)
I0526 10:55:29.292412 10701 net.cpp:139] Memory required for data: 72812800
I0526 10:55:29.292420 10701 layer_factory.hpp:77] Creating layer fc4
I0526 10:55:29.292433 10701 net.cpp:86] Creating Layer fc4
I0526 10:55:29.292438 10701 net.cpp:408] fc4 <- pool3
I0526 10:55:29.292450 10701 net.cpp:382] fc4 -> fc4
I0526 10:55:29.292584 10701 net.cpp:124] Setting up fc4
I0526 10:55:29.292593 10701 net.cpp:131] Top shape: 64 48 (3072)
I0526 10:55:29.292598 10701 net.cpp:139] Memory required for data: 72825088
I0526 10:55:29.292606 10701 layer_factory.hpp:77] Creating layer relu4
I0526 10:55:29.292616 10701 net.cpp:86] Creating Layer relu4
I0526 10:55:29.292623 10701 net.cpp:408] relu4 <- fc4
I0526 10:55:29.292634 10701 net.cpp:369] relu4 -> fc4 (in-place)
I0526 10:55:29.292642 10701 net.cpp:124] Setting up relu4
I0526 10:55:29.292650 10701 net.cpp:131] Top shape: 64 48 (3072)
I0526 10:55:29.292657 10701 net.cpp:139] Memory required for data: 72837376
I0526 10:55:29.292662 10701 layer_factory.hpp:77] Creating layer fc5
I0526 10:55:29.292673 10701 net.cpp:86] Creating Layer fc5
I0526 10:55:29.292680 10701 net.cpp:408] fc5 <- fc4
I0526 10:55:29.292688 10701 net.cpp:382] fc5 -> fc5
I0526 10:55:29.292709 10701 net.cpp:124] Setting up fc5
I0526 10:55:29.292716 10701 net.cpp:131] Top shape: 64 2 (128)
I0526 10:55:29.292722 10701 net.cpp:139] Memory required for data: 72837888
I0526 10:55:29.292732 10701 layer_factory.hpp:77] Creating layer loss
I0526 10:55:29.292742 10701 net.cpp:86] Creating Layer loss
I0526 10:55:29.292757 10701 net.cpp:408] loss <- fc5
I0526 10:55:29.292766 10701 net.cpp:408] loss <- label
I0526 10:55:29.292775 10701 net.cpp:382] loss -> loss
I0526 10:55:29.292791 10701 layer_factory.hpp:77] Creating layer loss
…
I0526 10:55:29.293529 10701 net.cpp:53] Initializing net from parameters: 
name: "mAlexNet"
state {
  phase: TEST
}
layer {
  name: "data"
  type: "ImageData"
  top: "data"
  top: "label"
  include {
    phase: TEST
  }
  transform_param {
    scale: 0.00390625
    mirror: false
    crop_size: 224
  }
  image_data_param {
    source: "/home/hao/deep-parking/splits/PKLot/UFPR04_train.txt"
    batch_size: 100
    rand_skip: 100
    shuffle: true
    new_height: 256
    new_width: 256
    root_folder: "/home/hao/Documents/CV/PKLot/PKLotSegmented/"
  }
}
layer {
  name: "conv1"
  type: "Convolution"
  bottom: "data"
  top: "conv1"
  param {
    lr_mult: 1
    decay_mult: 1
  }
  param {
    lr_mult: 2
    decay_mult: 0
  }
  convolution_param {
    num_output: 16
    kernel_size: 11
    stride: 4
    weight_filler {
      type: "xavier"
    }
    bias_filler {
      type: "constant"
      value: 1
    }
  }
}
layer {
  name: "relu1"
  type: "ReLU"
  bottom: "conv1"
  top: "conv1"
}
layer {
  name: "pool1"
  type: "Pooling"
  bottom: "conv1"
  top: "pool1"
  pooling_param {
    pool: MAX
    kernel_size: 3
    stride: 2
  }
}
layer {
  name: "conv2"
  type: "Convolution"
  bottom: "pool1"
  top: "conv2"
  param {
    lr_mult: 1
    decay_mult: 1
  }
  param {
    lr_mult: 2
    decay_mult: 0
  }
  convolution_param {
    num_output: 20
    kernel_size: 5
    stride: 1
    weight_filler {
      type: "xavier"
    }
    bias_filler {
      type: "constant"
      value: 1
    }
  }
}
layer {
  name: "relu2"
  type: "ReLU"
  bottom: "conv2"
  top: "conv2"
}
layer {
  name: "pool2"
  type: "Pooling"
  bottom: "conv2"
  top: "pool2"
  pooling_param {
    pool: MAX
    kernel_size: 3
    stride: 2
  }
}
layer {
  name: "conv3"
  type: "Convolution"
  bottom: "pool2"
  top: "conv3"
  param {
    lr_mult: 1
    decay_mult: 1
  }
  param {
    lr_mult: 2
    decay_mult: 0
  }
  convolution_param {
    num_output: 30
    kernel_size: 3
    stride: 1
    weight_filler {
      type: "xavier"
    }
    bias_filler {
      type: "constant"
      value: 1
    }
  }
}
layer {
  name: "relu3"
  type: "ReLU"
  bottom: "conv3"
  top: "conv3"
}
layer {
  name: "pool3"
  type: "Pooling"
  bottom: "conv3"
  top: "pool3"
  pooling_param {
    pool: MAX
    kernel_size: 3
    stride: 2
  }
}
layer {
  name: "fc4"
  type: "InnerProduct"
  bottom: "pool3"
  top: "fc4"
  param {
    lr_mult: 1
    decay_mult: 1
  }
  param {
    lr_mult: 2
    decay_mult: 1
  }
  inner_product_param {
    num_output: 48
    weight_filler {
      type: "xavier"
    }
    bias_filler {
      type: "constant"
      value: 1
    }
  }
}
layer {
  name: "relu4"
  type: "ReLU"
  bottom: "fc4"
  top: "fc4"
}
layer {
  name: "fc5"
  type: "InnerProduct"
  bottom: "fc4"
  top: "fc5"
  param {
    lr_mult: 1
    decay_mult: 1
  }
  param {
    lr_mult: 2
    decay_mult: 1
  }
  inner_product_param {
    num_output: 2
    weight_filler {
      type: "xavier"
    }
    bias_filler {
      type: "constant"
      value: 1
    }
  }
}
layer {
  name: "loss"
  type: "SoftmaxWithLoss"
  bottom: "fc5"
  bottom: "label"
  top: "loss"
}
layer {
  name: "accuracy"
  type: "Accuracy"
  bottom: "fc5"
  bottom: "label"
  top: "accuracy"
  include {
    phase: TEST
  }
}
I0526 10:55:29.293632 10701 layer_factory.hpp:77] Creating layer data
I0526 10:55:29.293646 10701 net.cpp:86] Creating Layer data
I0526 10:55:29.293653 10701 net.cpp:382] data -> data
I0526 10:55:29.293663 10701 net.cpp:382] data -> label
I0526 10:55:29.293673 10701 image_data_layer.cpp:38] Opening file /home/hao/deep-parking/splits/PKLot/UFPR04_train.txt
I0526 10:55:29.325537 10701 image_data_layer.cpp:53] Shuffling data
I0526 10:55:29.342813 10701 image_data_layer.cpp:63] A total of 49160 images.
I0526 10:55:29.342844 10701 image_data_layer.cpp:70] Skipping first 21 data points.
I0526 10:55:29.343248 10701 image_data_layer.cpp:90] output data size: 100,3,224,224
I0526 10:55:29.343379 10701 net.cpp:124] Setting up data
I0526 10:55:29.343398 10701 net.cpp:131] Top shape: 100 3 224 224 (15052800)
I0526 10:55:29.343412 10701 net.cpp:131] Top shape: 100 (100)
I0526 10:55:29.343420 10701 net.cpp:139] Memory required for data: 60211600
I0526 10:55:29.343427 10701 layer_factory.hpp:77] Creating layer label_data_1_split
I0526 10:55:29.343449 10701 net.cpp:86] Creating Layer label_data_1_split
I0526 10:55:29.343463 10701 net.cpp:408] label_data_1_split <- label
I0526 10:55:29.343475 10701 net.cpp:382] label_data_1_split -> label_data_1_split_0
I0526 10:55:29.343487 10701 net.cpp:382] label_data_1_split -> label_data_1_split_1
I0526 10:55:29.343498 10701 net.cpp:124] Setting up label_data_1_split
I0526 10:55:29.343504 10701 net.cpp:131] Top shape: 100 (100)
I0526 10:55:29.343508 10701 net.cpp:131] Top shape: 100 (100)
I0526 10:55:29.343511 10701 net.cpp:139] Memory required for data: 60212400
I0526 10:55:29.343515 10701 layer_factory.hpp:77] Creating layer conv1
I0526 10:55:29.343528 10701 net.cpp:86] Creating Layer conv1
I0526 10:55:29.343533 10701 net.cpp:408] conv1 <- data
I0526 10:55:29.343540 10701 net.cpp:382] conv1 -> conv1
I0526 10:55:29.343600 10701 net.cpp:124] Setting up conv1
I0526 10:55:29.343607 10701 net.cpp:131] Top shape: 100 16 54 54 (4665600)
I0526 10:55:29.343611 10701 net.cpp:139] Memory required for data: 78874800
I0526 10:55:29.343621 10701 layer_factory.hpp:77] Creating layer relu1
I0526 10:55:29.343627 10701 net.cpp:86] Creating Layer relu1
I0526 10:55:29.343636 10701 net.cpp:408] relu1 <- conv1
I0526 10:55:29.343649 10701 net.cpp:369] relu1 -> conv1 (in-place)
I0526 10:55:29.343662 10701 net.cpp:124] Setting up relu1
I0526 10:55:29.343672 10701 net.cpp:131] Top shape: 100 16 54 54 (4665600)
I0526 10:55:29.343679 10701 net.cpp:139] Memory required for data: 97537200
I0526 10:55:29.343688 10701 layer_factory.hpp:77] Creating layer pool1
I0526 10:55:29.343703 10701 net.cpp:86] Creating Layer pool1
I0526 10:55:29.343708 10701 net.cpp:408] pool1 <- conv1
I0526 10:55:29.343716 10701 net.cpp:382] pool1 -> pool1
I0526 10:55:29.343731 10701 net.cpp:124] Setting up pool1
I0526 10:55:29.343740 10701 net.cpp:131] Top shape: 100 16 27 27 (1166400)
I0526 10:55:29.343749 10701 net.cpp:139] Memory required for data: 102202800
I0526 10:55:29.343755 10701 layer_factory.hpp:77] Creating layer conv2
I0526 10:55:29.343770 10701 net.cpp:86] Creating Layer conv2
I0526 10:55:29.343776 10701 net.cpp:408] conv2 <- pool1
I0526 10:55:29.343787 10701 net.cpp:382] conv2 -> conv2
I0526 10:55:29.343856 10701 net.cpp:124] Setting up conv2
I0526 10:55:29.343865 10701 net.cpp:131] Top shape: 100 20 23 23 (1058000)
I0526 10:55:29.343870 10701 net.cpp:139] Memory required for data: 106434800
I0526 10:55:29.343883 10701 layer_factory.hpp:77] Creating layer relu2
I0526 10:55:29.343894 10701 net.cpp:86] Creating Layer relu2
I0526 10:55:29.343900 10701 net.cpp:408] relu2 <- conv2
I0526 10:55:29.343907 10701 net.cpp:369] relu2 -> conv2 (in-place)
I0526 10:55:29.343916 10701 net.cpp:124] Setting up relu2
I0526 10:55:29.343924 10701 net.cpp:131] Top shape: 100 20 23 23 (1058000)
I0526 10:55:29.343930 10701 net.cpp:139] Memory required for data: 110666800
I0526 10:55:29.343938 10701 layer_factory.hpp:77] Creating layer pool2
I0526 10:55:29.343950 10701 net.cpp:86] Creating Layer pool2
I0526 10:55:29.343955 10701 net.cpp:408] pool2 <- conv2
I0526 10:55:29.343963 10701 net.cpp:382] pool2 -> pool2
I0526 10:55:29.343976 10701 net.cpp:124] Setting up pool2
I0526 10:55:29.343991 10701 net.cpp:131] Top shape: 100 20 11 11 (242000)
I0526 10:55:29.343997 10701 net.cpp:139] Memory required for data: 111634800
I0526 10:55:29.344002 10701 layer_factory.hpp:77] Creating layer conv3
I0526 10:55:29.344020 10701 net.cpp:86] Creating Layer conv3
I0526 10:55:29.344025 10701 net.cpp:408] conv3 <- pool2
I0526 10:55:29.344033 10701 net.cpp:382] conv3 -> conv3
I0526 10:55:29.344084 10701 net.cpp:124] Setting up conv3
I0526 10:55:29.344091 10701 net.cpp:131] Top shape: 100 30 9 9 (243000)
I0526 10:55:29.344094 10701 net.cpp:139] Memory required for data: 112606800
I0526 10:55:29.344115 10701 layer_factory.hpp:77] Creating layer relu3
I0526 10:55:29.344121 10701 net.cpp:86] Creating Layer relu3
I0526 10:55:29.344126 10701 net.cpp:408] relu3 <- conv3
I0526 10:55:29.344131 10701 net.cpp:369] relu3 -> conv3 (in-place)
I0526 10:55:29.344136 10701 net.cpp:124] Setting up relu3
I0526 10:55:29.344143 10701 net.cpp:131] Top shape: 100 30 9 9 (243000)
I0526 10:55:29.344146 10701 net.cpp:139] Memory required for data: 113578800
I0526 10:55:29.344149 10701 layer_factory.hpp:77] Creating layer pool3
I0526 10:55:29.344154 10701 net.cpp:86] Creating Layer pool3
I0526 10:55:29.344159 10701 net.cpp:408] pool3 <- conv3
I0526 10:55:29.344164 10701 net.cpp:382] pool3 -> pool3
I0526 10:55:29.344172 10701 net.cpp:124] Setting up pool3
I0526 10:55:29.344177 10701 net.cpp:131] Top shape: 100 30 4 4 (48000)
I0526 10:55:29.344180 10701 net.cpp:139] Memory required for data: 113770800
I0526 10:55:29.344184 10701 layer_factory.hpp:77] Creating layer fc4
I0526 10:55:29.344192 10701 net.cpp:86] Creating Layer fc4
I0526 10:55:29.344197 10701 net.cpp:408] fc4 <- pool3
I0526 10:55:29.344202 10701 net.cpp:382] fc4 -> fc4
I0526 10:55:29.344388 10701 net.cpp:124] Setting up fc4
I0526 10:55:29.344398 10701 net.cpp:131] Top shape: 100 48 (4800)
I0526 10:55:29.344400 10701 net.cpp:139] Memory required for data: 113790000
I0526 10:55:29.344406 10701 layer_factory.hpp:77] Creating layer relu4
I0526 10:55:29.344413 10701 net.cpp:86] Creating Layer relu4
I0526 10:55:29.344417 10701 net.cpp:408] relu4 <- fc4
I0526 10:55:29.344422 10701 net.cpp:369] relu4 -> fc4 (in-place)
I0526 10:55:29.344429 10701 net.cpp:124] Setting up relu4
I0526 10:55:29.344432 10701 net.cpp:131] Top shape: 100 48 (4800)
I0526 10:55:29.344435 10701 net.cpp:139] Memory required for data: 113809200
I0526 10:55:29.344439 10701 layer_factory.hpp:77] Creating layer fc5
I0526 10:55:29.344444 10701 net.cpp:86] Creating Layer fc5
I0526 10:55:29.344447 10701 net.cpp:408] fc5 <- fc4
I0526 10:55:29.344453 10701 net.cpp:382] fc5 -> fc5
I0526 10:55:29.344481 10701 net.cpp:124] Setting up fc5
I0526 10:55:29.344501 10701 net.cpp:131] Top shape: 100 2 (200)
I0526 10:55:29.344506 10701 net.cpp:139] Memory required for data: 113810000
I0526 10:55:29.344517 10701 layer_factory.hpp:77] Creating layer fc5_fc5_0_split
I0526 10:55:29.344527 10701 net.cpp:86] Creating Layer fc5_fc5_0_split
I0526 10:55:29.344532 10701 net.cpp:408] fc5_fc5_0_split <- fc5
I0526 10:55:29.344537 10701 net.cpp:382] fc5_fc5_0_split -> fc5_fc5_0_split_0
I0526 10:55:29.344544 10701 net.cpp:382] fc5_fc5_0_split -> fc5_fc5_0_split_1
I0526 10:55:29.344552 10701 net.cpp:124] Setting up fc5_fc5_0_split
I0526 10:55:29.344557 10701 net.cpp:131] Top shape: 100 2 (200)
I0526 10:55:29.344560 10701 net.cpp:131] Top shape: 100 2 (200)
I0526 10:55:29.344563 10701 net.cpp:139] Memory required for data: 113811600
I0526 10:55:29.344566 10701 layer_factory.hpp:77] Creating layer loss
I0526 10:55:29.344571 10701 net.cpp:86] Creating Layer loss
I0526 10:55:29.344574 10701 net.cpp:408] loss <- fc5_fc5_0_split_0
I0526 10:55:29.344578 10701 net.cpp:408] loss <- label_data_1_split_0
I0526 10:55:29.344583 10701 net.cpp:382] loss -> loss
…
