…
I0519 18:02:54.530552  2334 net.cpp:53] Initializing net from parameters: 
name: "mAlexNet"
state {
  phase: TRAIN
  level: 0
  stage: ""
}
layer {
  name: "data"
  type: "ImageData"
  top: "data"
  top: "label"
  include {
    phase: TRAIN
  }
  transform_param {
    scale: 0.00390625
    mirror: true
    crop_size: 224
  }
  image_data_param {
    source: "/home/hao/deep-parking/splits/PKLot/UFPR05_train.txt"
    batch_size: 64
    rand_skip: 64
    shuffle: true
    new_height: 256
    new_width: 256
    root_folder: "/home/hao/Documents/CV/PKLot/PKLotSegmented/"
  }
}
layer {
  name: "conv1"
  type: "Convolution"
  bottom: "data"
  top: "conv1"
  param {
    lr_mult: 1
    decay_mult: 1
  }
  param {
    lr_mult: 2
    decay_mult: 0
  }
  convolution_param {
    num_output: 16
    kernel_size: 11
    stride: 4
    weight_filler {
      type: "xavier"
    }
    bias_filler {
      type: "constant"
      value: 1
    }
  }
}
layer {
  name: "relu1"
  type: "ReLU"
  bottom: "conv1"
  top: "conv1"
}
layer {
  name: "pool1"
  type: "Pooling"
  bottom: "conv1"
  top: "pool1"
  pooling_param {
    pool: MAX
    kernel_size: 3
    stride: 2
  }
}
layer {
  name: "conv2"
  type: "Convolution"
  bottom: "pool1"
  top: "conv2"
  param {
    lr_mult: 1
    decay_mult: 1
  }
  param {
    lr_mult: 2
    decay_mult: 0
  }
  convolution_param {
    num_output: 20
    kernel_size: 5
    stride: 1
    weight_filler {
      type: "xavier"
    }
    bias_filler {
      type: "constant"
      value: 1
    }
  }
}
layer {
  name: "relu2"
  type: "ReLU"
  bottom: "conv2"
  top: "conv2"
}
layer {
  name: "pool2"
  type: "Pooling"
  bottom: "conv2"
  top: "pool2"
  pooling_param {
    pool: MAX
    kernel_size: 3
    stride: 2
  }
}
layer {
  name: "conv3"
  type: "Convolution"
  bottom: "pool2"
  top: "conv3"
  param {
    lr_mult: 1
    decay_mult: 1
  }
  param {
    lr_mult: 2
    decay_mult: 0
  }
  convolution_param {
    num_output: 30
    kernel_size: 3
    stride: 1
    weight_filler {
      type: "xavier"
    }
    bias_filler {
      type: "constant"
      value: 1
    }
  }
}
layer {
  name: "relu3"
  type: "ReLU"
  bottom: "conv3"
  top: "conv3"
}
layer {
  name: "pool3"
  type: "Pooling"
  bottom: "conv3"
  top: "pool3"
  pooling_param {
    pool: MAX
    kernel_size: 3
    stride: 2
  }
}
layer {
  name: "fc4"
  type: "InnerProduct"
  bottom: "pool3"
  top: "fc4"
  param {
    lr_mult: 1
    decay_mult: 1
  }
  param {
    lr_mult: 2
    decay_mult: 1
  }
  inner_product_param {
    num_output: 48
    weight_filler {
      type: "xavier"
    }
    bias_filler {
      type: "constant"
      value: 1
    }
  }
}
layer {
  name: "relu4"
  type: "ReLU"
  bottom: "fc4"
  top: "fc4"
}
layer {
  name: "fc5"
  type: "InnerProduct"
  bottom: "fc4"
  top: "fc5"
  param {
    lr_mult: 1
    decay_mult: 1
  }
  param {
    lr_mult: 2
    decay_mult: 1
  }
  inner_product_param {
    num_output: 2
    weight_filler {
      type: "xavier"
    }
    bias_filler {
      type: "constant"
      value: 1
    }
  }
}
layer {
  name: "loss"
  type: "SoftmaxWithLoss"
  bottom: "fc5"
  bottom: "label"
  top: "loss"
}
I0519 18:02:54.530635  2334 layer_factory.hpp:77] Creating layer data
I0519 18:02:54.530660  2334 net.cpp:86] Creating Layer data
I0519 18:02:54.530668  2334 net.cpp:382] data -> data
I0519 18:02:54.530694  2334 net.cpp:382] data -> label
I0519 18:02:54.530989  2334 image_data_layer.cpp:38] Opening file /home/hao/deep-parking/splits/PKLot/UFPR05_train.txt
I0519 18:02:54.555855  2334 image_data_layer.cpp:53] Shuffling data
I0519 18:02:54.583967  2334 image_data_layer.cpp:63] A total of 93955 images.
I0519 18:02:54.583993  2334 image_data_layer.cpp:70] Skipping first 40 data points.
I0519 18:02:54.591284  2334 image_data_layer.cpp:90] output data size: 64,3,224,224
I0519 18:02:54.591416  2334 net.cpp:124] Setting up data
I0519 18:02:54.591434  2334 net.cpp:131] Top shape: 64 3 224 224 (9633792)
I0519 18:02:54.591440  2334 net.cpp:131] Top shape: 64 (64)
I0519 18:02:54.591444  2334 net.cpp:139] Memory required for data: 38535424
I0519 18:02:54.591451  2334 layer_factory.hpp:77] Creating layer conv1
I0519 18:02:54.591477  2334 net.cpp:86] Creating Layer conv1
I0519 18:02:54.591486  2334 net.cpp:408] conv1 <- data
I0519 18:02:54.591506  2334 net.cpp:382] conv1 -> conv1
I0519 18:02:54.591610  2334 net.cpp:124] Setting up conv1
I0519 18:02:54.591619  2334 net.cpp:131] Top shape: 64 16 54 54 (2985984)
I0519 18:02:54.591624  2334 net.cpp:139] Memory required for data: 50479360
I0519 18:02:54.591639  2334 layer_factory.hpp:77] Creating layer relu1
I0519 18:02:54.591647  2334 net.cpp:86] Creating Layer relu1
I0519 18:02:54.591651  2334 net.cpp:408] relu1 <- conv1
I0519 18:02:54.591656  2334 net.cpp:369] relu1 -> conv1 (in-place)
I0519 18:02:54.591667  2334 net.cpp:124] Setting up relu1
I0519 18:02:54.591672  2334 net.cpp:131] Top shape: 64 16 54 54 (2985984)
I0519 18:02:54.591678  2334 net.cpp:139] Memory required for data: 62423296
I0519 18:02:54.591682  2334 layer_factory.hpp:77] Creating layer pool1
I0519 18:02:54.591696  2334 net.cpp:86] Creating Layer pool1
I0519 18:02:54.591701  2334 net.cpp:408] pool1 <- conv1
I0519 18:02:54.591707  2334 net.cpp:382] pool1 -> pool1
I0519 18:02:54.591730  2334 net.cpp:124] Setting up pool1
I0519 18:02:54.591737  2334 net.cpp:131] Top shape: 64 16 27 27 (746496)
I0519 18:02:54.591742  2334 net.cpp:139] Memory required for data: 65409280
I0519 18:02:54.591745  2334 layer_factory.hpp:77] Creating layer conv2
I0519 18:02:54.591755  2334 net.cpp:86] Creating Layer conv2
I0519 18:02:54.591759  2334 net.cpp:408] conv2 <- pool1
I0519 18:02:54.591766  2334 net.cpp:382] conv2 -> conv2
I0519 18:02:54.591843  2334 net.cpp:124] Setting up conv2
I0519 18:02:54.591851  2334 net.cpp:131] Top shape: 64 20 23 23 (677120)
I0519 18:02:54.591856  2334 net.cpp:139] Memory required for data: 68117760
I0519 18:02:54.591862  2334 layer_factory.hpp:77] Creating layer relu2
I0519 18:02:54.591869  2334 net.cpp:86] Creating Layer relu2
I0519 18:02:54.591873  2334 net.cpp:408] relu2 <- conv2
I0519 18:02:54.591877  2334 net.cpp:369] relu2 -> conv2 (in-place)
I0519 18:02:54.591887  2334 net.cpp:124] Setting up relu2
I0519 18:02:54.591892  2334 net.cpp:131] Top shape: 64 20 23 23 (677120)
I0519 18:02:54.591898  2334 net.cpp:139] Memory required for data: 70826240
I0519 18:02:54.591902  2334 layer_factory.hpp:77] Creating layer pool2
I0519 18:02:54.591907  2334 net.cpp:86] Creating Layer pool2
I0519 18:02:54.591913  2334 net.cpp:408] pool2 <- conv2
I0519 18:02:54.591919  2334 net.cpp:382] pool2 -> pool2
I0519 18:02:54.591929  2334 net.cpp:124] Setting up pool2
I0519 18:02:54.591936  2334 net.cpp:131] Top shape: 64 20 11 11 (154880)
I0519 18:02:54.591943  2334 net.cpp:139] Memory required for data: 71445760
I0519 18:02:54.591948  2334 layer_factory.hpp:77] Creating layer conv3
I0519 18:02:54.591958  2334 net.cpp:86] Creating Layer conv3
I0519 18:02:54.591964  2334 net.cpp:408] conv3 <- pool2
I0519 18:02:54.591971  2334 net.cpp:382] conv3 -> conv3
I0519 18:02:54.592028  2334 net.cpp:124] Setting up conv3
I0519 18:02:54.592037  2334 net.cpp:131] Top shape: 64 30 9 9 (155520)
I0519 18:02:54.592042  2334 net.cpp:139] Memory required for data: 72067840
I0519 18:02:54.592074  2334 layer_factory.hpp:77] Creating layer relu3
I0519 18:02:54.592082  2334 net.cpp:86] Creating Layer relu3
I0519 18:02:54.592087  2334 net.cpp:408] relu3 <- conv3
I0519 18:02:54.592092  2334 net.cpp:369] relu3 -> conv3 (in-place)
I0519 18:02:54.592097  2334 net.cpp:124] Setting up relu3
I0519 18:02:54.592104  2334 net.cpp:131] Top shape: 64 30 9 9 (155520)
I0519 18:02:54.592108  2334 net.cpp:139] Memory required for data: 72689920
I0519 18:02:54.592114  2334 layer_factory.hpp:77] Creating layer pool3
I0519 18:02:54.592120  2334 net.cpp:86] Creating Layer pool3
I0519 18:02:54.592126  2334 net.cpp:408] pool3 <- conv3
I0519 18:02:54.592133  2334 net.cpp:382] pool3 -> pool3
I0519 18:02:54.592144  2334 net.cpp:124] Setting up pool3
I0519 18:02:54.592150  2334 net.cpp:131] Top shape: 64 30 4 4 (30720)
I0519 18:02:54.592156  2334 net.cpp:139] Memory required for data: 72812800
I0519 18:02:54.592160  2334 layer_factory.hpp:77] Creating layer fc4
I0519 18:02:54.592170  2334 net.cpp:86] Creating Layer fc4
I0519 18:02:54.592175  2334 net.cpp:408] fc4 <- pool3
I0519 18:02:54.592183  2334 net.cpp:382] fc4 -> fc4
I0519 18:02:54.592340  2334 net.cpp:124] Setting up fc4
I0519 18:02:54.592346  2334 net.cpp:131] Top shape: 64 48 (3072)
I0519 18:02:54.592351  2334 net.cpp:139] Memory required for data: 72825088
I0519 18:02:54.592356  2334 layer_factory.hpp:77] Creating layer relu4
I0519 18:02:54.592363  2334 net.cpp:86] Creating Layer relu4
I0519 18:02:54.592367  2334 net.cpp:408] relu4 <- fc4
I0519 18:02:54.592372  2334 net.cpp:369] relu4 -> fc4 (in-place)
I0519 18:02:54.592377  2334 net.cpp:124] Setting up relu4
I0519 18:02:54.592382  2334 net.cpp:131] Top shape: 64 48 (3072)
I0519 18:02:54.592386  2334 net.cpp:139] Memory required for data: 72837376
I0519 18:02:54.592391  2334 layer_factory.hpp:77] Creating layer fc5
I0519 18:02:54.592396  2334 net.cpp:86] Creating Layer fc5
I0519 18:02:54.592399  2334 net.cpp:408] fc5 <- fc4
I0519 18:02:54.592406  2334 net.cpp:382] fc5 -> fc5
I0519 18:02:54.592417  2334 net.cpp:124] Setting up fc5
I0519 18:02:54.592422  2334 net.cpp:131] Top shape: 64 2 (128)
I0519 18:02:54.592427  2334 net.cpp:139] Memory required for data: 72837888
I0519 18:02:54.592432  2334 layer_factory.hpp:77] Creating layer loss
I0519 18:02:54.592438  2334 net.cpp:86] Creating Layer loss
I0519 18:02:54.592442  2334 net.cpp:408] loss <- fc5
I0519 18:02:54.592445  2334 net.cpp:408] loss <- label
I0519 18:02:54.592451  2334 net.cpp:382] loss -> loss
I0519 18:02:54.592460  2334 layer_factory.hpp:77] Creating layer loss
…
I0519 18:02:54.592878  2334 solver.cpp:190] Creating test net (#0) specified by test_net file: val-PKLot_val.prototxt
I0519 18:02:54.592995  2334 net.cpp:53] Initializing net from parameters: 
name: "mAlexNet"
state {
  phase: TEST
}
layer {
  name: "data"
  type: "ImageData"
  top: "data"
  top: "label"
  include {
    phase: TEST
  }
  transform_param {
    scale: 0.00390625
    mirror: false
    crop_size: 224
  }
  image_data_param {
    source: "/home/hao/deep-parking/splits/PKLot/val.txt"
    batch_size: 100
    rand_skip: 100
    shuffle: true
    new_height: 256
    new_width: 256
    root_folder: "/home/hao/Documents/CV/PKLot/PKLotSegmented/"
  }
}
layer {
  name: "conv1"
  type: "Convolution"
  bottom: "data"
  top: "conv1"
  param {
    lr_mult: 1
    decay_mult: 1
  }
  param {
    lr_mult: 2
    decay_mult: 0
  }
  convolution_param {
    num_output: 16
    kernel_size: 11
    stride: 4
    weight_filler {
      type: "xavier"
    }
    bias_filler {
      type: "constant"
      value: 1
    }
  }
}
layer {
  name: "relu1"
  type: "ReLU"
  bottom: "conv1"
  top: "conv1"
}
layer {
  name: "pool1"
  type: "Pooling"
  bottom: "conv1"
  top: "pool1"
  pooling_param {
    pool: MAX
    kernel_size: 3
    stride: 2
  }
}
layer {
  name: "conv2"
  type: "Convolution"
  bottom: "pool1"
  top: "conv2"
  param {
    lr_mult: 1
    decay_mult: 1
  }
  param {
    lr_mult: 2
    decay_mult: 0
  }
  convolution_param {
    num_output: 20
    kernel_size: 5
    stride: 1
    weight_filler {
      type: "xavier"
    }
    bias_filler {
      type: "constant"
      value: 1
    }
  }
}
layer {
  name: "relu2"
  type: "ReLU"
  bottom: "conv2"
  top: "conv2"
}
layer {
  name: "pool2"
  type: "Pooling"
  bottom: "conv2"
  top: "pool2"
  pooling_param {
    pool: MAX
    kernel_size: 3
    stride: 2
  }
}
layer {
  name: "conv3"
  type: "Convolution"
  bottom: "pool2"
  top: "conv3"
  param {
    lr_mult: 1
    decay_mult: 1
  }
  param {
    lr_mult: 2
    decay_mult: 0
  }
  convolution_param {
    num_output: 30
    kernel_size: 3
    stride: 1
    weight_filler {
      type: "xavier"
    }
    bias_filler {
      type: "constant"
      value: 1
    }
  }
}
layer {
  name: "relu3"
  type: "ReLU"
  bottom: "conv3"
  top: "conv3"
}
layer {
  name: "pool3"
  type: "Pooling"
  bottom: "conv3"
  top: "pool3"
  pooling_param {
    pool: MAX
    kernel_size: 3
    stride: 2
  }
}
layer {
  name: "fc4"
  type: "InnerProduct"
  bottom: "pool3"
  top: "fc4"
  param {
    lr_mult: 1
    decay_mult: 1
  }
  param {
    lr_mult: 2
    decay_mult: 1
  }
  inner_product_param {
    num_output: 48
    weight_filler {
      type: "xavier"
    }
    bias_filler {
      type: "constant"
      value: 1
    }
  }
}
layer {
  name: "relu4"
  type: "ReLU"
  bottom: "fc4"
  top: "fc4"
}
layer {
  name: "fc5"
  type: "InnerProduct"
  bottom: "fc4"
  top: "fc5"
  param {
    lr_mult: 1
    decay_mult: 1
  }
  param {
    lr_mult: 2
    decay_mult: 1
  }
  inner_product_param {
    num_output: 2
    weight_filler {
      type: "xavier"
    }
    bias_filler {
      type: "constant"
      value: 1
    }
  }
}
layer {
  name: "loss"
  type: "SoftmaxWithLoss"
  bottom: "fc5"
  bottom: "label"
  top: "loss"
}
layer {
  name: "accuracy"
  type: "Accuracy"
  bottom: "fc5"
  bottom: "label"
  top: "accuracy"
  include {
    phase: TEST
  }
}
I0519 18:02:54.593076  2334 layer_factory.hpp:77] Creating layer data
I0519 18:02:54.593097  2334 net.cpp:86] Creating Layer data
I0519 18:02:54.593103  2334 net.cpp:382] data -> data
I0519 18:02:54.593109  2334 net.cpp:382] data -> label
I0519 18:02:54.593119  2334 image_data_layer.cpp:38] Opening file /home/hao/deep-parking/splits/PKLot/val.txt
I0519 18:02:54.642083  2334 image_data_layer.cpp:53] Shuffling data
I0519 18:02:54.679111  2334 image_data_layer.cpp:63] A total of 102362 images.
I0519 18:02:54.679133  2334 image_data_layer.cpp:70] Skipping first 21 data points.
I0519 18:02:54.681663  2334 image_data_layer.cpp:90] output data size: 100,3,224,224
I0519 18:02:54.681774  2334 net.cpp:124] Setting up data
I0519 18:02:54.681790  2334 net.cpp:131] Top shape: 100 3 224 224 (15052800)
I0519 18:02:54.681815  2334 net.cpp:131] Top shape: 100 (100)
I0519 18:02:54.681819  2334 net.cpp:139] Memory required for data: 60211600
I0519 18:02:54.681825  2334 layer_factory.hpp:77] Creating layer label_data_1_split
I0519 18:02:54.681840  2334 net.cpp:86] Creating Layer label_data_1_split
I0519 18:02:54.681846  2334 net.cpp:408] label_data_1_split <- label
I0519 18:02:54.681856  2334 net.cpp:382] label_data_1_split -> label_data_1_split_0
I0519 18:02:54.681869  2334 net.cpp:382] label_data_1_split -> label_data_1_split_1
I0519 18:02:54.681879  2334 net.cpp:124] Setting up label_data_1_split
I0519 18:02:54.681885  2334 net.cpp:131] Top shape: 100 (100)
I0519 18:02:54.681888  2334 net.cpp:131] Top shape: 100 (100)
I0519 18:02:54.681891  2334 net.cpp:139] Memory required for data: 60212400
I0519 18:02:54.681895  2334 layer_factory.hpp:77] Creating layer conv1
I0519 18:02:54.681910  2334 net.cpp:86] Creating Layer conv1
I0519 18:02:54.681915  2334 net.cpp:408] conv1 <- data
I0519 18:02:54.681921  2334 net.cpp:382] conv1 -> conv1
I0519 18:02:54.681985  2334 net.cpp:124] Setting up conv1
I0519 18:02:54.681994  2334 net.cpp:131] Top shape: 100 16 54 54 (4665600)
I0519 18:02:54.681998  2334 net.cpp:139] Memory required for data: 78874800
I0519 18:02:54.682008  2334 layer_factory.hpp:77] Creating layer relu1
I0519 18:02:54.682013  2334 net.cpp:86] Creating Layer relu1
I0519 18:02:54.682018  2334 net.cpp:408] relu1 <- conv1
I0519 18:02:54.682022  2334 net.cpp:369] relu1 -> conv1 (in-place)
I0519 18:02:54.682032  2334 net.cpp:124] Setting up relu1
I0519 18:02:54.682039  2334 net.cpp:131] Top shape: 100 16 54 54 (4665600)
I0519 18:02:54.682044  2334 net.cpp:139] Memory required for data: 97537200
I0519 18:02:54.682047  2334 layer_factory.hpp:77] Creating layer pool1
I0519 18:02:54.682054  2334 net.cpp:86] Creating Layer pool1
I0519 18:02:54.682060  2334 net.cpp:408] pool1 <- conv1
I0519 18:02:54.682065  2334 net.cpp:382] pool1 -> pool1
I0519 18:02:54.682076  2334 net.cpp:124] Setting up pool1
I0519 18:02:54.682082  2334 net.cpp:131] Top shape: 100 16 27 27 (1166400)
I0519 18:02:54.682085  2334 net.cpp:139] Memory required for data: 102202800
I0519 18:02:54.682090  2334 layer_factory.hpp:77] Creating layer conv2
I0519 18:02:54.682099  2334 net.cpp:86] Creating Layer conv2
I0519 18:02:54.682104  2334 net.cpp:408] conv2 <- pool1
I0519 18:02:54.682111  2334 net.cpp:382] conv2 -> conv2
I0519 18:02:54.682176  2334 net.cpp:124] Setting up conv2
I0519 18:02:54.682183  2334 net.cpp:131] Top shape: 100 20 23 23 (1058000)
I0519 18:02:54.682186  2334 net.cpp:139] Memory required for data: 106434800
I0519 18:02:54.682193  2334 layer_factory.hpp:77] Creating layer relu2
I0519 18:02:54.682199  2334 net.cpp:86] Creating Layer relu2
I0519 18:02:54.682201  2334 net.cpp:408] relu2 <- conv2
I0519 18:02:54.682205  2334 net.cpp:369] relu2 -> conv2 (in-place)
I0519 18:02:54.682210  2334 net.cpp:124] Setting up relu2
I0519 18:02:54.682219  2334 net.cpp:131] Top shape: 100 20 23 23 (1058000)
I0519 18:02:54.682221  2334 net.cpp:139] Memory required for data: 110666800
I0519 18:02:54.682225  2334 layer_factory.hpp:77] Creating layer pool2
I0519 18:02:54.682229  2334 net.cpp:86] Creating Layer pool2
I0519 18:02:54.682235  2334 net.cpp:408] pool2 <- conv2
I0519 18:02:54.682240  2334 net.cpp:382] pool2 -> pool2
I0519 18:02:54.682250  2334 net.cpp:124] Setting up pool2
I0519 18:02:54.682255  2334 net.cpp:131] Top shape: 100 20 11 11 (242000)
I0519 18:02:54.682258  2334 net.cpp:139] Memory required for data: 111634800
I0519 18:02:54.682263  2334 layer_factory.hpp:77] Creating layer conv3
I0519 18:02:54.682273  2334 net.cpp:86] Creating Layer conv3
I0519 18:02:54.682277  2334 net.cpp:408] conv3 <- pool2
I0519 18:02:54.682286  2334 net.cpp:382] conv3 -> conv3
I0519 18:02:54.682335  2334 net.cpp:124] Setting up conv3
I0519 18:02:54.682343  2334 net.cpp:131] Top shape: 100 30 9 9 (243000)
I0519 18:02:54.682348  2334 net.cpp:139] Memory required for data: 112606800
I0519 18:02:54.682354  2334 layer_factory.hpp:77] Creating layer relu3
I0519 18:02:54.682371  2334 net.cpp:86] Creating Layer relu3
I0519 18:02:54.682376  2334 net.cpp:408] relu3 <- conv3
I0519 18:02:54.682382  2334 net.cpp:369] relu3 -> conv3 (in-place)
I0519 18:02:54.682389  2334 net.cpp:124] Setting up relu3
I0519 18:02:54.682395  2334 net.cpp:131] Top shape: 100 30 9 9 (243000)
I0519 18:02:54.682400  2334 net.cpp:139] Memory required for data: 113578800
I0519 18:02:54.682404  2334 layer_factory.hpp:77] Creating layer pool3
I0519 18:02:54.682408  2334 net.cpp:86] Creating Layer pool3
I0519 18:02:54.682413  2334 net.cpp:408] pool3 <- conv3
I0519 18:02:54.682420  2334 net.cpp:382] pool3 -> pool3
I0519 18:02:54.682428  2334 net.cpp:124] Setting up pool3
I0519 18:02:54.682435  2334 net.cpp:131] Top shape: 100 30 4 4 (48000)
I0519 18:02:54.682440  2334 net.cpp:139] Memory required for data: 113770800
I0519 18:02:54.682442  2334 layer_factory.hpp:77] Creating layer fc4
I0519 18:02:54.682451  2334 net.cpp:86] Creating Layer fc4
I0519 18:02:54.682456  2334 net.cpp:408] fc4 <- pool3
I0519 18:02:54.682462  2334 net.cpp:382] fc4 -> fc4
I0519 18:02:54.682605  2334 net.cpp:124] Setting up fc4
I0519 18:02:54.682612  2334 net.cpp:131] Top shape: 100 48 (4800)
I0519 18:02:54.682615  2334 net.cpp:139] Memory required for data: 113790000
I0519 18:02:54.682621  2334 layer_factory.hpp:77] Creating layer relu4
I0519 18:02:54.682626  2334 net.cpp:86] Creating Layer relu4
I0519 18:02:54.682631  2334 net.cpp:408] relu4 <- fc4
I0519 18:02:54.682636  2334 net.cpp:369] relu4 -> fc4 (in-place)
I0519 18:02:54.682641  2334 net.cpp:124] Setting up relu4
I0519 18:02:54.682648  2334 net.cpp:131] Top shape: 100 48 (4800)
I0519 18:02:54.682651  2334 net.cpp:139] Memory required for data: 113809200
I0519 18:02:54.682654  2334 layer_factory.hpp:77] Creating layer fc5
I0519 18:02:54.682662  2334 net.cpp:86] Creating Layer fc5
I0519 18:02:54.682665  2334 net.cpp:408] fc5 <- fc4
I0519 18:02:54.682673  2334 net.cpp:382] fc5 -> fc5
I0519 18:02:54.682684  2334 net.cpp:124] Setting up fc5
I0519 18:02:54.682690  2334 net.cpp:131] Top shape: 100 2 (200)
I0519 18:02:54.682693  2334 net.cpp:139] Memory required for data: 113810000
I0519 18:02:54.682699  2334 layer_factory.hpp:77] Creating layer fc5_fc5_0_split
I0519 18:02:54.682705  2334 net.cpp:86] Creating Layer fc5_fc5_0_split
I0519 18:02:54.682710  2334 net.cpp:408] fc5_fc5_0_split <- fc5
I0519 18:02:54.682715  2334 net.cpp:382] fc5_fc5_0_split -> fc5_fc5_0_split_0
I0519 18:02:54.682724  2334 net.cpp:382] fc5_fc5_0_split -> fc5_fc5_0_split_1
I0519 18:02:54.682732  2334 net.cpp:124] Setting up fc5_fc5_0_split
I0519 18:02:54.682739  2334 net.cpp:131] Top shape: 100 2 (200)
I0519 18:02:54.682742  2334 net.cpp:131] Top shape: 100 2 (200)
I0519 18:02:54.682747  2334 net.cpp:139] Memory required for data: 113811600
I0519 18:02:54.682750  2334 layer_factory.hpp:77] Creating layer loss
I0519 18:02:54.682756  2334 net.cpp:86] Creating Layer loss
I0519 18:02:54.682770  2334 net.cpp:408] loss <- fc5_fc5_0_split_0
I0519 18:02:54.682775  2334 net.cpp:408] loss <- label_data_1_split_0
I0519 18:02:54.682780  2334 net.cpp:382] loss -> loss
…
