…
I0519 13:26:11.877130 15673 net.cpp:53] Initializing net from parameters: 
name: "mAlexNet"
state {
  phase: TRAIN
  level: 0
  stage: ""
}
layer {
  name: "data"
  type: "ImageData"
  top: "data"
  top: "label"
  include {
    phase: TRAIN
  }
  transform_param {
    scale: 0.00390625
    mirror: true
    crop_size: 224
  }
  image_data_param {
    source: "/home/hao/deep-parking/splits/PKLot/UFPR04_train.txt"
    batch_size: 64
    rand_skip: 64
    shuffle: true
    new_height: 256
    new_width: 256
    root_folder: "/home/hao/Documents/CV/PKLot/PKLotSegmented/"
  }
}
layer {
  name: "conv1"
  type: "Convolution"
  bottom: "data"
  top: "conv1"
  param {
    lr_mult: 1
    decay_mult: 1
  }
  param {
    lr_mult: 2
    decay_mult: 0
  }
  convolution_param {
    num_output: 16
    kernel_size: 11
    stride: 4
    weight_filler {
      type: "xavier"
    }
    bias_filler {
      type: "constant"
      value: 1
    }
  }
}
layer {
  name: "relu1"
  type: "ReLU"
  bottom: "conv1"
  top: "conv1"
}
layer {
  name: "pool1"
  type: "Pooling"
  bottom: "conv1"
  top: "pool1"
  pooling_param {
    pool: MAX
    kernel_size: 3
    stride: 2
  }
}
layer {
  name: "conv2"
  type: "Convolution"
  bottom: "pool1"
  top: "conv2"
  param {
    lr_mult: 1
    decay_mult: 1
  }
  param {
    lr_mult: 2
    decay_mult: 0
  }
  convolution_param {
    num_output: 20
    kernel_size: 5
    stride: 1
    weight_filler {
      type: "xavier"
    }
    bias_filler {
      type: "constant"
      value: 1
    }
  }
}
layer {
  name: "relu2"
  type: "ReLU"
  bottom: "conv2"
  top: "conv2"
}
layer {
  name: "pool2"
  type: "Pooling"
  bottom: "conv2"
  top: "pool2"
  pooling_param {
    pool: MAX
    kernel_size: 3
    stride: 2
  }
}
layer {
  name: "conv3"
  type: "Convolution"
  bottom: "pool2"
  top: "conv3"
  param {
    lr_mult: 1
    decay_mult: 1
  }
  param {
    lr_mult: 2
    decay_mult: 0
  }
  convolution_param {
    num_output: 30
    kernel_size: 3
    stride: 1
    weight_filler {
      type: "xavier"
    }
    bias_filler {
      type: "constant"
      value: 1
    }
  }
}
layer {
  name: "relu3"
  type: "ReLU"
  bottom: "conv3"
  top: "conv3"
}
layer {
  name: "pool3"
  type: "Pooling"
  bottom: "conv3"
  top: "pool3"
  pooling_param {
    pool: MAX
    kernel_size: 3
    stride: 2
  }
}
layer {
  name: "fc4"
  type: "InnerProduct"
  bottom: "pool3"
  top: "fc4"
  param {
    lr_mult: 1
    decay_mult: 1
  }
  param {
    lr_mult: 2
    decay_mult: 1
  }
  inner_product_param {
    num_output: 48
    weight_filler {
      type: "xavier"
    }
    bias_filler {
      type: "constant"
      value: 1
    }
  }
}
layer {
  name: "relu4"
  type: "ReLU"
  bottom: "fc4"
  top: "fc4"
}
layer {
  name: "fc5"
  type: "InnerProduct"
  bottom: "fc4"
  top: "fc5"
  param {
    lr_mult: 1
    decay_mult: 1
  }
  param {
    lr_mult: 2
    decay_mult: 1
  }
  inner_product_param {
    num_output: 2
    weight_filler {
      type: "xavier"
    }
    bias_filler {
      type: "constant"
      value: 1
    }
  }
}
layer {
  name: "loss"
  type: "SoftmaxWithLoss"
  bottom: "fc5"
  bottom: "label"
  top: "loss"
}
I0519 13:26:11.877199 15673 layer_factory.hpp:77] Creating layer data
I0519 13:26:11.877221 15673 net.cpp:86] Creating Layer data
I0519 13:26:11.877228 15673 net.cpp:382] data -> data
I0519 13:26:11.877246 15673 net.cpp:382] data -> label
I0519 13:26:11.877261 15673 image_data_layer.cpp:38] Opening file /home/hao/deep-parking/splits/PKLot/UFPR04_train.txt
I0519 13:26:11.889984 15673 image_data_layer.cpp:53] Shuffling data
I0519 13:26:11.904225 15673 image_data_layer.cpp:63] A total of 49160 images.
I0519 13:26:11.904265 15673 image_data_layer.cpp:70] Skipping first 40 data points.
I0519 13:26:11.904942 15673 image_data_layer.cpp:90] output data size: 64,3,224,224
I0519 13:26:11.905047 15673 net.cpp:124] Setting up data
I0519 13:26:11.905071 15673 net.cpp:131] Top shape: 64 3 224 224 (9633792)
I0519 13:26:11.905076 15673 net.cpp:131] Top shape: 64 (64)
I0519 13:26:11.905078 15673 net.cpp:139] Memory required for data: 38535424
I0519 13:26:11.905084 15673 layer_factory.hpp:77] Creating layer conv1
I0519 13:26:11.905108 15673 net.cpp:86] Creating Layer conv1
I0519 13:26:11.905115 15673 net.cpp:408] conv1 <- data
I0519 13:26:11.905126 15673 net.cpp:382] conv1 -> conv1
I0519 13:26:11.905200 15673 net.cpp:124] Setting up conv1
I0519 13:26:11.905206 15673 net.cpp:131] Top shape: 64 16 54 54 (2985984)
I0519 13:26:11.905210 15673 net.cpp:139] Memory required for data: 50479360
I0519 13:26:11.905221 15673 layer_factory.hpp:77] Creating layer relu1
I0519 13:26:11.905227 15673 net.cpp:86] Creating Layer relu1
I0519 13:26:11.905230 15673 net.cpp:408] relu1 <- conv1
I0519 13:26:11.905234 15673 net.cpp:369] relu1 -> conv1 (in-place)
I0519 13:26:11.905242 15673 net.cpp:124] Setting up relu1
I0519 13:26:11.905247 15673 net.cpp:131] Top shape: 64 16 54 54 (2985984)
I0519 13:26:11.905251 15673 net.cpp:139] Memory required for data: 62423296
I0519 13:26:11.905253 15673 layer_factory.hpp:77] Creating layer pool1
I0519 13:26:11.905258 15673 net.cpp:86] Creating Layer pool1
I0519 13:26:11.905261 15673 net.cpp:408] pool1 <- conv1
I0519 13:26:11.905267 15673 net.cpp:382] pool1 -> pool1
I0519 13:26:11.905285 15673 net.cpp:124] Setting up pool1
I0519 13:26:11.905290 15673 net.cpp:131] Top shape: 64 16 27 27 (746496)
I0519 13:26:11.905293 15673 net.cpp:139] Memory required for data: 65409280
I0519 13:26:11.905297 15673 layer_factory.hpp:77] Creating layer conv2
I0519 13:26:11.905303 15673 net.cpp:86] Creating Layer conv2
I0519 13:26:11.905308 15673 net.cpp:408] conv2 <- pool1
I0519 13:26:11.905313 15673 net.cpp:382] conv2 -> conv2
I0519 13:26:11.905369 15673 net.cpp:124] Setting up conv2
I0519 13:26:11.905375 15673 net.cpp:131] Top shape: 64 20 23 23 (677120)
I0519 13:26:11.905378 15673 net.cpp:139] Memory required for data: 68117760
I0519 13:26:11.905383 15673 layer_factory.hpp:77] Creating layer relu2
I0519 13:26:11.905390 15673 net.cpp:86] Creating Layer relu2
I0519 13:26:11.905395 15673 net.cpp:408] relu2 <- conv2
I0519 13:26:11.905397 15673 net.cpp:369] relu2 -> conv2 (in-place)
I0519 13:26:11.905403 15673 net.cpp:124] Setting up relu2
I0519 13:26:11.905408 15673 net.cpp:131] Top shape: 64 20 23 23 (677120)
I0519 13:26:11.905411 15673 net.cpp:139] Memory required for data: 70826240
I0519 13:26:11.905414 15673 layer_factory.hpp:77] Creating layer pool2
I0519 13:26:11.905421 15673 net.cpp:86] Creating Layer pool2
I0519 13:26:11.905426 15673 net.cpp:408] pool2 <- conv2
I0519 13:26:11.905429 15673 net.cpp:382] pool2 -> pool2
I0519 13:26:11.905436 15673 net.cpp:124] Setting up pool2
I0519 13:26:11.905441 15673 net.cpp:131] Top shape: 64 20 11 11 (154880)
I0519 13:26:11.905447 15673 net.cpp:139] Memory required for data: 71445760
I0519 13:26:11.905449 15673 layer_factory.hpp:77] Creating layer conv3
I0519 13:26:11.905455 15673 net.cpp:86] Creating Layer conv3
I0519 13:26:11.905460 15673 net.cpp:408] conv3 <- pool2
I0519 13:26:11.905465 15673 net.cpp:382] conv3 -> conv3
I0519 13:26:11.905508 15673 net.cpp:124] Setting up conv3
I0519 13:26:11.905514 15673 net.cpp:131] Top shape: 64 30 9 9 (155520)
I0519 13:26:11.905519 15673 net.cpp:139] Memory required for data: 72067840
I0519 13:26:11.905541 15673 layer_factory.hpp:77] Creating layer relu3
I0519 13:26:11.905548 15673 net.cpp:86] Creating Layer relu3
I0519 13:26:11.905552 15673 net.cpp:408] relu3 <- conv3
I0519 13:26:11.905556 15673 net.cpp:369] relu3 -> conv3 (in-place)
I0519 13:26:11.905562 15673 net.cpp:124] Setting up relu3
I0519 13:26:11.905567 15673 net.cpp:131] Top shape: 64 30 9 9 (155520)
I0519 13:26:11.905572 15673 net.cpp:139] Memory required for data: 72689920
I0519 13:26:11.905575 15673 layer_factory.hpp:77] Creating layer pool3
I0519 13:26:11.905580 15673 net.cpp:86] Creating Layer pool3
I0519 13:26:11.905583 15673 net.cpp:408] pool3 <- conv3
I0519 13:26:11.905588 15673 net.cpp:382] pool3 -> pool3
I0519 13:26:11.905597 15673 net.cpp:124] Setting up pool3
I0519 13:26:11.905602 15673 net.cpp:131] Top shape: 64 30 4 4 (30720)
I0519 13:26:11.905606 15673 net.cpp:139] Memory required for data: 72812800
I0519 13:26:11.905609 15673 layer_factory.hpp:77] Creating layer fc4
I0519 13:26:11.905616 15673 net.cpp:86] Creating Layer fc4
I0519 13:26:11.905620 15673 net.cpp:408] fc4 <- pool3
I0519 13:26:11.905625 15673 net.cpp:382] fc4 -> fc4
I0519 13:26:11.905752 15673 net.cpp:124] Setting up fc4
I0519 13:26:11.905758 15673 net.cpp:131] Top shape: 64 48 (3072)
I0519 13:26:11.905761 15673 net.cpp:139] Memory required for data: 72825088
I0519 13:26:11.905766 15673 layer_factory.hpp:77] Creating layer relu4
I0519 13:26:11.905769 15673 net.cpp:86] Creating Layer relu4
I0519 13:26:11.905772 15673 net.cpp:408] relu4 <- fc4
I0519 13:26:11.905776 15673 net.cpp:369] relu4 -> fc4 (in-place)
I0519 13:26:11.905781 15673 net.cpp:124] Setting up relu4
I0519 13:26:11.905783 15673 net.cpp:131] Top shape: 64 48 (3072)
I0519 13:26:11.905786 15673 net.cpp:139] Memory required for data: 72837376
I0519 13:26:11.905789 15673 layer_factory.hpp:77] Creating layer fc5
I0519 13:26:11.905797 15673 net.cpp:86] Creating Layer fc5
I0519 13:26:11.905802 15673 net.cpp:408] fc5 <- fc4
I0519 13:26:11.905807 15673 net.cpp:382] fc5 -> fc5
I0519 13:26:11.905819 15673 net.cpp:124] Setting up fc5
I0519 13:26:11.905824 15673 net.cpp:131] Top shape: 64 2 (128)
I0519 13:26:11.905827 15673 net.cpp:139] Memory required for data: 72837888
I0519 13:26:11.905833 15673 layer_factory.hpp:77] Creating layer loss
I0519 13:26:11.905838 15673 net.cpp:86] Creating Layer loss
I0519 13:26:11.905841 15673 net.cpp:408] loss <- fc5
I0519 13:26:11.905844 15673 net.cpp:408] loss <- label
I0519 13:26:11.905851 15673 net.cpp:382] loss -> loss
I0519 13:26:11.905860 15673 layer_factory.hpp:77] Creating layer loss
…
I0519 13:26:11.906239 15673 solver.cpp:190] Creating test net (#0) specified by test_net file: val-PKLot_val.prototxt
I0519 13:26:11.906348 15673 net.cpp:53] Initializing net from parameters: 
name: "mAlexNet"
state {
  phase: TEST
}
layer {
  name: "data"
  type: "ImageData"
  top: "data"
  top: "label"
  include {
    phase: TEST
  }
  transform_param {
    scale: 0.00390625
    mirror: false
    crop_size: 224
  }
  image_data_param {
    source: "/home/hao/deep-parking/splits/PKLot/val.txt"
    batch_size: 100
    rand_skip: 100
    shuffle: true
    new_height: 256
    new_width: 256
    root_folder: "/home/hao/Documents/CV/PKLot/PKLotSegmented/"
  }
}
layer {
  name: "conv1"
  type: "Convolution"
  bottom: "data"
  top: "conv1"
  param {
    lr_mult: 1
    decay_mult: 1
  }
  param {
    lr_mult: 2
    decay_mult: 0
  }
  convolution_param {
    num_output: 16
    kernel_size: 11
    stride: 4
    weight_filler {
      type: "xavier"
    }
    bias_filler {
      type: "constant"
      value: 1
    }
  }
}
layer {
  name: "relu1"
  type: "ReLU"
  bottom: "conv1"
  top: "conv1"
}
layer {
  name: "pool1"
  type: "Pooling"
  bottom: "conv1"
  top: "pool1"
  pooling_param {
    pool: MAX
    kernel_size: 3
    stride: 2
  }
}
layer {
  name: "conv2"
  type: "Convolution"
  bottom: "pool1"
  top: "conv2"
  param {
    lr_mult: 1
    decay_mult: 1
  }
  param {
    lr_mult: 2
    decay_mult: 0
  }
  convolution_param {
    num_output: 20
    kernel_size: 5
    stride: 1
    weight_filler {
      type: "xavier"
    }
    bias_filler {
      type: "constant"
      value: 1
    }
  }
}
layer {
  name: "relu2"
  type: "ReLU"
  bottom: "conv2"
  top: "conv2"
}
layer {
  name: "pool2"
  type: "Pooling"
  bottom: "conv2"
  top: "pool2"
  pooling_param {
    pool: MAX
    kernel_size: 3
    stride: 2
  }
}
layer {
  name: "conv3"
  type: "Convolution"
  bottom: "pool2"
  top: "conv3"
  param {
    lr_mult: 1
    decay_mult: 1
  }
  param {
    lr_mult: 2
    decay_mult: 0
  }
  convolution_param {
    num_output: 30
    kernel_size: 3
    stride: 1
    weight_filler {
      type: "xavier"
    }
    bias_filler {
      type: "constant"
      value: 1
    }
  }
}
layer {
  name: "relu3"
  type: "ReLU"
  bottom: "conv3"
  top: "conv3"
}
layer {
  name: "pool3"
  type: "Pooling"
  bottom: "conv3"
  top: "pool3"
  pooling_param {
    pool: MAX
    kernel_size: 3
    stride: 2
  }
}
layer {
  name: "fc4"
  type: "InnerProduct"
  bottom: "pool3"
  top: "fc4"
  param {
    lr_mult: 1
    decay_mult: 1
  }
  param {
    lr_mult: 2
    decay_mult: 1
  }
  inner_product_param {
    num_output: 48
    weight_filler {
      type: "xavier"
    }
    bias_filler {
      type: "constant"
      value: 1
    }
  }
}
layer {
  name: "relu4"
  type: "ReLU"
  bottom: "fc4"
  top: "fc4"
}
layer {
  name: "fc5"
  type: "InnerProduct"
  bottom: "fc4"
  top: "fc5"
  param {
    lr_mult: 1
    decay_mult: 1
  }
  param {
    lr_mult: 2
    decay_mult: 1
  }
  inner_product_param {
    num_output: 2
    weight_filler {
      type: "xavier"
    }
    bias_filler {
      type: "constant"
      value: 1
    }
  }
}
layer {
  name: "loss"
  type: "SoftmaxWithLoss"
  bottom: "fc5"
  bottom: "label"
  top: "loss"
}
layer {
  name: "accuracy"
  type: "Accuracy"
  bottom: "fc5"
  bottom: "label"
  top: "accuracy"
  include {
    phase: TEST
  }
}
I0519 13:26:11.906427 15673 layer_factory.hpp:77] Creating layer data
I0519 13:26:11.906440 15673 net.cpp:86] Creating Layer data
I0519 13:26:11.906445 15673 net.cpp:382] data -> data
I0519 13:26:11.906453 15673 net.cpp:382] data -> label
I0519 13:26:11.906461 15673 image_data_layer.cpp:38] Opening file /home/hao/deep-parking/splits/PKLot/val.txt
I0519 13:26:11.943759 15673 image_data_layer.cpp:53] Shuffling data
I0519 13:26:11.972704 15673 image_data_layer.cpp:63] A total of 102362 images.
I0519 13:26:11.972723 15673 image_data_layer.cpp:70] Skipping first 21 data points.
I0519 13:26:11.973037 15673 image_data_layer.cpp:90] output data size: 100,3,224,224
I0519 13:26:11.973120 15673 net.cpp:124] Setting up data
I0519 13:26:11.973131 15673 net.cpp:131] Top shape: 100 3 224 224 (15052800)
I0519 13:26:11.973157 15673 net.cpp:131] Top shape: 100 (100)
I0519 13:26:11.973162 15673 net.cpp:139] Memory required for data: 60211600
I0519 13:26:11.973170 15673 layer_factory.hpp:77] Creating layer label_data_1_split
I0519 13:26:11.973186 15673 net.cpp:86] Creating Layer label_data_1_split
I0519 13:26:11.973191 15673 net.cpp:408] label_data_1_split <- label
I0519 13:26:11.973199 15673 net.cpp:382] label_data_1_split -> label_data_1_split_0
I0519 13:26:11.973207 15673 net.cpp:382] label_data_1_split -> label_data_1_split_1
I0519 13:26:11.973217 15673 net.cpp:124] Setting up label_data_1_split
I0519 13:26:11.973222 15673 net.cpp:131] Top shape: 100 (100)
I0519 13:26:11.973224 15673 net.cpp:131] Top shape: 100 (100)
I0519 13:26:11.973227 15673 net.cpp:139] Memory required for data: 60212400
I0519 13:26:11.973230 15673 layer_factory.hpp:77] Creating layer conv1
I0519 13:26:11.973244 15673 net.cpp:86] Creating Layer conv1
I0519 13:26:11.973248 15673 net.cpp:408] conv1 <- data
I0519 13:26:11.973255 15673 net.cpp:382] conv1 -> conv1
I0519 13:26:11.973311 15673 net.cpp:124] Setting up conv1
I0519 13:26:11.973318 15673 net.cpp:131] Top shape: 100 16 54 54 (4665600)
I0519 13:26:11.973321 15673 net.cpp:139] Memory required for data: 78874800
I0519 13:26:11.973330 15673 layer_factory.hpp:77] Creating layer relu1
I0519 13:26:11.973336 15673 net.cpp:86] Creating Layer relu1
I0519 13:26:11.973342 15673 net.cpp:408] relu1 <- conv1
I0519 13:26:11.973346 15673 net.cpp:369] relu1 -> conv1 (in-place)
I0519 13:26:11.973351 15673 net.cpp:124] Setting up relu1
I0519 13:26:11.973357 15673 net.cpp:131] Top shape: 100 16 54 54 (4665600)
I0519 13:26:11.973361 15673 net.cpp:139] Memory required for data: 97537200
I0519 13:26:11.973363 15673 layer_factory.hpp:77] Creating layer pool1
I0519 13:26:11.973371 15673 net.cpp:86] Creating Layer pool1
I0519 13:26:11.973376 15673 net.cpp:408] pool1 <- conv1
I0519 13:26:11.973381 15673 net.cpp:382] pool1 -> pool1
I0519 13:26:11.973389 15673 net.cpp:124] Setting up pool1
I0519 13:26:11.973394 15673 net.cpp:131] Top shape: 100 16 27 27 (1166400)
I0519 13:26:11.973397 15673 net.cpp:139] Memory required for data: 102202800
I0519 13:26:11.973400 15673 layer_factory.hpp:77] Creating layer conv2
I0519 13:26:11.973408 15673 net.cpp:86] Creating Layer conv2
I0519 13:26:11.973413 15673 net.cpp:408] conv2 <- pool1
I0519 13:26:11.973419 15673 net.cpp:382] conv2 -> conv2
I0519 13:26:11.973475 15673 net.cpp:124] Setting up conv2
I0519 13:26:11.973481 15673 net.cpp:131] Top shape: 100 20 23 23 (1058000)
I0519 13:26:11.973485 15673 net.cpp:139] Memory required for data: 106434800
I0519 13:26:11.973490 15673 layer_factory.hpp:77] Creating layer relu2
I0519 13:26:11.973497 15673 net.cpp:86] Creating Layer relu2
I0519 13:26:11.973500 15673 net.cpp:408] relu2 <- conv2
I0519 13:26:11.973503 15673 net.cpp:369] relu2 -> conv2 (in-place)
I0519 13:26:11.973507 15673 net.cpp:124] Setting up relu2
I0519 13:26:11.973511 15673 net.cpp:131] Top shape: 100 20 23 23 (1058000)
I0519 13:26:11.973515 15673 net.cpp:139] Memory required for data: 110666800
I0519 13:26:11.973516 15673 layer_factory.hpp:77] Creating layer pool2
I0519 13:26:11.973521 15673 net.cpp:86] Creating Layer pool2
I0519 13:26:11.973523 15673 net.cpp:408] pool2 <- conv2
I0519 13:26:11.973528 15673 net.cpp:382] pool2 -> pool2
I0519 13:26:11.973536 15673 net.cpp:124] Setting up pool2
I0519 13:26:11.973542 15673 net.cpp:131] Top shape: 100 20 11 11 (242000)
I0519 13:26:11.973544 15673 net.cpp:139] Memory required for data: 111634800
I0519 13:26:11.973547 15673 layer_factory.hpp:77] Creating layer conv3
I0519 13:26:11.973556 15673 net.cpp:86] Creating Layer conv3
I0519 13:26:11.973560 15673 net.cpp:408] conv3 <- pool2
I0519 13:26:11.973567 15673 net.cpp:382] conv3 -> conv3
I0519 13:26:11.973613 15673 net.cpp:124] Setting up conv3
I0519 13:26:11.973618 15673 net.cpp:131] Top shape: 100 30 9 9 (243000)
I0519 13:26:11.973620 15673 net.cpp:139] Memory required for data: 112606800
I0519 13:26:11.973626 15673 layer_factory.hpp:77] Creating layer relu3
I0519 13:26:11.973641 15673 net.cpp:86] Creating Layer relu3
I0519 13:26:11.973644 15673 net.cpp:408] relu3 <- conv3
I0519 13:26:11.973649 15673 net.cpp:369] relu3 -> conv3 (in-place)
I0519 13:26:11.973654 15673 net.cpp:124] Setting up relu3
I0519 13:26:11.973657 15673 net.cpp:131] Top shape: 100 30 9 9 (243000)
I0519 13:26:11.973660 15673 net.cpp:139] Memory required for data: 113578800
I0519 13:26:11.973664 15673 layer_factory.hpp:77] Creating layer pool3
I0519 13:26:11.973667 15673 net.cpp:86] Creating Layer pool3
I0519 13:26:11.973670 15673 net.cpp:408] pool3 <- conv3
I0519 13:26:11.973675 15673 net.cpp:382] pool3 -> pool3
I0519 13:26:11.973682 15673 net.cpp:124] Setting up pool3
I0519 13:26:11.973687 15673 net.cpp:131] Top shape: 100 30 4 4 (48000)
I0519 13:26:11.973690 15673 net.cpp:139] Memory required for data: 113770800
I0519 13:26:11.973692 15673 layer_factory.hpp:77] Creating layer fc4
I0519 13:26:11.973700 15673 net.cpp:86] Creating Layer fc4
I0519 13:26:11.973702 15673 net.cpp:408] fc4 <- pool3
I0519 13:26:11.973707 15673 net.cpp:382] fc4 -> fc4
I0519 13:26:11.973830 15673 net.cpp:124] Setting up fc4
I0519 13:26:11.973836 15673 net.cpp:131] Top shape: 100 48 (4800)
I0519 13:26:11.973839 15673 net.cpp:139] Memory required for data: 113790000
I0519 13:26:11.973843 15673 layer_factory.hpp:77] Creating layer relu4
I0519 13:26:11.973850 15673 net.cpp:86] Creating Layer relu4
I0519 13:26:11.973853 15673 net.cpp:408] relu4 <- fc4
I0519 13:26:11.973857 15673 net.cpp:369] relu4 -> fc4 (in-place)
I0519 13:26:11.973862 15673 net.cpp:124] Setting up relu4
I0519 13:26:11.973865 15673 net.cpp:131] Top shape: 100 48 (4800)
I0519 13:26:11.973868 15673 net.cpp:139] Memory required for data: 113809200
I0519 13:26:11.973871 15673 layer_factory.hpp:77] Creating layer fc5
I0519 13:26:11.973876 15673 net.cpp:86] Creating Layer fc5
I0519 13:26:11.973879 15673 net.cpp:408] fc5 <- fc4
I0519 13:26:11.973884 15673 net.cpp:382] fc5 -> fc5
I0519 13:26:11.973894 15673 net.cpp:124] Setting up fc5
I0519 13:26:11.973899 15673 net.cpp:131] Top shape: 100 2 (200)
I0519 13:26:11.973902 15673 net.cpp:139] Memory required for data: 113810000
I0519 13:26:11.973907 15673 layer_factory.hpp:77] Creating layer fc5_fc5_0_split
I0519 13:26:11.973912 15673 net.cpp:86] Creating Layer fc5_fc5_0_split
I0519 13:26:11.973915 15673 net.cpp:408] fc5_fc5_0_split <- fc5
I0519 13:26:11.973919 15673 net.cpp:382] fc5_fc5_0_split -> fc5_fc5_0_split_0
I0519 13:26:11.973924 15673 net.cpp:382] fc5_fc5_0_split -> fc5_fc5_0_split_1
I0519 13:26:11.973935 15673 net.cpp:124] Setting up fc5_fc5_0_split
I0519 13:26:11.973939 15673 net.cpp:131] Top shape: 100 2 (200)
I0519 13:26:11.973943 15673 net.cpp:131] Top shape: 100 2 (200)
I0519 13:26:11.973945 15673 net.cpp:139] Memory required for data: 113811600
I0519 13:26:11.973948 15673 layer_factory.hpp:77] Creating layer loss
I0519 13:26:11.973954 15673 net.cpp:86] Creating Layer loss
I0519 13:26:11.973958 15673 net.cpp:408] loss <- fc5_fc5_0_split_0
I0519 13:26:11.973963 15673 net.cpp:408] loss <- label_data_1_split_0
I0519 13:26:11.973968 15673 net.cpp:382] loss -> loss
…
