…
I0526 01:22:58.637317  5200 net.cpp:53] Initializing net from parameters: 
name: "mAlexNet"
state {
  phase: TRAIN
  level: 0
  stage: ""
}
layer {
  name: "data"
  type: "ImageData"
  top: "data"
  top: "label"
  include {
    phase: TRAIN
  }
  transform_param {
    scale: 0.00390625
    mirror: true
    crop_size: 224
  }
  image_data_param {
    source: "/home/hao/deep-parking/splits/PKLot/UFPR04_train.txt"
    batch_size: 64
    rand_skip: 64
    shuffle: true
    new_height: 256
    new_width: 256
    root_folder: "/home/hao/Documents/CV/PKLot/PKLotSegmented/"
  }
}
layer {
  name: "conv1"
  type: "Convolution"
  bottom: "data"
  top: "conv1"
  param {
    lr_mult: 1
    decay_mult: 1
  }
  param {
    lr_mult: 2
    decay_mult: 0
  }
  convolution_param {
    num_output: 16
    kernel_size: 11
    stride: 4
    weight_filler {
      type: "xavier"
    }
    bias_filler {
      type: "constant"
      value: 1
    }
  }
}
layer {
  name: "relu1"
  type: "ReLU"
  bottom: "conv1"
  top: "conv1"
}
layer {
  name: "pool1"
  type: "Pooling"
  bottom: "conv1"
  top: "pool1"
  pooling_param {
    pool: MAX
    kernel_size: 3
    stride: 2
  }
}
layer {
  name: "conv2"
  type: "Convolution"
  bottom: "pool1"
  top: "conv2"
  param {
    lr_mult: 1
    decay_mult: 1
  }
  param {
    lr_mult: 2
    decay_mult: 0
  }
  convolution_param {
    num_output: 20
    kernel_size: 5
    stride: 1
    weight_filler {
      type: "xavier"
    }
    bias_filler {
      type: "constant"
      value: 1
    }
  }
}
layer {
  name: "relu2"
  type: "ReLU"
  bottom: "conv2"
  top: "conv2"
}
layer {
  name: "pool2"
  type: "Pooling"
  bottom: "conv2"
  top: "pool2"
  pooling_param {
    pool: MAX
    kernel_size: 3
    stride: 2
  }
}
layer {
  name: "conv3"
  type: "Convolution"
  bottom: "pool2"
  top: "conv3"
  param {
    lr_mult: 1
    decay_mult: 1
  }
  param {
    lr_mult: 2
    decay_mult: 0
  }
  convolution_param {
    num_output: 30
    kernel_size: 3
    stride: 1
    weight_filler {
      type: "xavier"
    }
    bias_filler {
      type: "constant"
      value: 1
    }
  }
}
layer {
  name: "relu3"
  type: "ReLU"
  bottom: "conv3"
  top: "conv3"
}
layer {
  name: "pool3"
  type: "Pooling"
  bottom: "conv3"
  top: "pool3"
  pooling_param {
    pool: MAX
    kernel_size: 3
    stride: 2
  }
}
layer {
  name: "fc4"
  type: "InnerProduct"
  bottom: "pool3"
  top: "fc4"
  param {
    lr_mult: 1
    decay_mult: 1
  }
  param {
    lr_mult: 2
    decay_mult: 1
  }
  inner_product_param {
    num_output: 48
    weight_filler {
      type: "xavier"
    }
    bias_filler {
      type: "constant"
      value: 1
    }
  }
}
layer {
  name: "relu4"
  type: "ReLU"
  bottom: "fc4"
  top: "fc4"
}
layer {
  name: "fc5"
  type: "InnerProduct"
  bottom: "fc4"
  top: "fc5"
  param {
    lr_mult: 1
    decay_mult: 1
  }
  param {
    lr_mult: 2
    decay_mult: 1
  }
  inner_product_param {
    num_output: 2
    weight_filler {
      type: "xavier"
    }
    bias_filler {
      type: "constant"
      value: 1
    }
  }
}
layer {
  name: "loss"
  type: "SoftmaxWithLoss"
  bottom: "fc5"
  bottom: "label"
  top: "loss"
}
I0526 01:22:58.637424  5200 layer_factory.hpp:77] Creating layer data
I0526 01:22:58.637457  5200 net.cpp:86] Creating Layer data
I0526 01:22:58.637468  5200 net.cpp:382] data -> data
I0526 01:22:58.637506  5200 net.cpp:382] data -> label
I0526 01:22:58.637815  5200 image_data_layer.cpp:38] Opening file /home/hao/deep-parking/splits/PKLot/UFPR04_train.txt
I0526 01:22:58.656168  5200 image_data_layer.cpp:53] Shuffling data
I0526 01:22:58.671087  5200 image_data_layer.cpp:63] A total of 49160 images.
I0526 01:22:58.671118  5200 image_data_layer.cpp:70] Skipping first 40 data points.
I0526 01:22:58.677678  5200 image_data_layer.cpp:90] output data size: 64,3,224,224
I0526 01:22:58.677790  5200 net.cpp:124] Setting up data
I0526 01:22:58.677806  5200 net.cpp:131] Top shape: 64 3 224 224 (9633792)
I0526 01:22:58.677811  5200 net.cpp:131] Top shape: 64 (64)
I0526 01:22:58.677815  5200 net.cpp:139] Memory required for data: 38535424
I0526 01:22:58.677821  5200 layer_factory.hpp:77] Creating layer conv1
I0526 01:22:58.677855  5200 net.cpp:86] Creating Layer conv1
I0526 01:22:58.677870  5200 net.cpp:408] conv1 <- data
I0526 01:22:58.677892  5200 net.cpp:382] conv1 -> conv1
I0526 01:22:58.678004  5200 net.cpp:124] Setting up conv1
I0526 01:22:58.678020  5200 net.cpp:131] Top shape: 64 16 54 54 (2985984)
I0526 01:22:58.678025  5200 net.cpp:139] Memory required for data: 50479360
I0526 01:22:58.678043  5200 layer_factory.hpp:77] Creating layer relu1
I0526 01:22:58.678053  5200 net.cpp:86] Creating Layer relu1
I0526 01:22:58.678057  5200 net.cpp:408] relu1 <- conv1
I0526 01:22:58.678061  5200 net.cpp:369] relu1 -> conv1 (in-place)
I0526 01:22:58.678071  5200 net.cpp:124] Setting up relu1
I0526 01:22:58.678077  5200 net.cpp:131] Top shape: 64 16 54 54 (2985984)
I0526 01:22:58.678081  5200 net.cpp:139] Memory required for data: 62423296
I0526 01:22:58.678083  5200 layer_factory.hpp:77] Creating layer pool1
I0526 01:22:58.678095  5200 net.cpp:86] Creating Layer pool1
I0526 01:22:58.678099  5200 net.cpp:408] pool1 <- conv1
I0526 01:22:58.678108  5200 net.cpp:382] pool1 -> pool1
I0526 01:22:58.678143  5200 net.cpp:124] Setting up pool1
I0526 01:22:58.678156  5200 net.cpp:131] Top shape: 64 16 27 27 (746496)
I0526 01:22:58.678164  5200 net.cpp:139] Memory required for data: 65409280
I0526 01:22:58.678169  5200 layer_factory.hpp:77] Creating layer conv2
I0526 01:22:58.678189  5200 net.cpp:86] Creating Layer conv2
I0526 01:22:58.678201  5200 net.cpp:408] conv2 <- pool1
I0526 01:22:58.678216  5200 net.cpp:382] conv2 -> conv2
I0526 01:22:58.678306  5200 net.cpp:124] Setting up conv2
I0526 01:22:58.678318  5200 net.cpp:131] Top shape: 64 20 23 23 (677120)
I0526 01:22:58.678320  5200 net.cpp:139] Memory required for data: 68117760
I0526 01:22:58.678328  5200 layer_factory.hpp:77] Creating layer relu2
I0526 01:22:58.678340  5200 net.cpp:86] Creating Layer relu2
I0526 01:22:58.678349  5200 net.cpp:408] relu2 <- conv2
I0526 01:22:58.678362  5200 net.cpp:369] relu2 -> conv2 (in-place)
I0526 01:22:58.678372  5200 net.cpp:124] Setting up relu2
I0526 01:22:58.678381  5200 net.cpp:131] Top shape: 64 20 23 23 (677120)
I0526 01:22:58.678388  5200 net.cpp:139] Memory required for data: 70826240
I0526 01:22:58.678396  5200 layer_factory.hpp:77] Creating layer pool2
I0526 01:22:58.678406  5200 net.cpp:86] Creating Layer pool2
I0526 01:22:58.678412  5200 net.cpp:408] pool2 <- conv2
I0526 01:22:58.678423  5200 net.cpp:382] pool2 -> pool2
I0526 01:22:58.678436  5200 net.cpp:124] Setting up pool2
I0526 01:22:58.678444  5200 net.cpp:131] Top shape: 64 20 11 11 (154880)
I0526 01:22:58.678450  5200 net.cpp:139] Memory required for data: 71445760
I0526 01:22:58.678458  5200 layer_factory.hpp:77] Creating layer conv3
I0526 01:22:58.678472  5200 net.cpp:86] Creating Layer conv3
I0526 01:22:58.678486  5200 net.cpp:408] conv3 <- pool2
I0526 01:22:58.678498  5200 net.cpp:382] conv3 -> conv3
I0526 01:22:58.678578  5200 net.cpp:124] Setting up conv3
I0526 01:22:58.678592  5200 net.cpp:131] Top shape: 64 30 9 9 (155520)
I0526 01:22:58.678622  5200 net.cpp:139] Memory required for data: 72067840
I0526 01:22:58.678635  5200 layer_factory.hpp:77] Creating layer relu3
I0526 01:22:58.678645  5200 net.cpp:86] Creating Layer relu3
I0526 01:22:58.678651  5200 net.cpp:408] relu3 <- conv3
I0526 01:22:58.678656  5200 net.cpp:369] relu3 -> conv3 (in-place)
I0526 01:22:58.678661  5200 net.cpp:124] Setting up relu3
I0526 01:22:58.678673  5200 net.cpp:131] Top shape: 64 30 9 9 (155520)
I0526 01:22:58.678683  5200 net.cpp:139] Memory required for data: 72689920
I0526 01:22:58.678691  5200 layer_factory.hpp:77] Creating layer pool3
I0526 01:22:58.678702  5200 net.cpp:86] Creating Layer pool3
I0526 01:22:58.678714  5200 net.cpp:408] pool3 <- conv3
I0526 01:22:58.678730  5200 net.cpp:382] pool3 -> pool3
I0526 01:22:58.678747  5200 net.cpp:124] Setting up pool3
I0526 01:22:58.678756  5200 net.cpp:131] Top shape: 64 30 4 4 (30720)
I0526 01:22:58.678761  5200 net.cpp:139] Memory required for data: 72812800
I0526 01:22:58.678768  5200 layer_factory.hpp:77] Creating layer fc4
I0526 01:22:58.678786  5200 net.cpp:86] Creating Layer fc4
I0526 01:22:58.678794  5200 net.cpp:408] fc4 <- pool3
I0526 01:22:58.678807  5200 net.cpp:382] fc4 -> fc4
I0526 01:22:58.679008  5200 net.cpp:124] Setting up fc4
I0526 01:22:58.679023  5200 net.cpp:131] Top shape: 64 48 (3072)
I0526 01:22:58.679028  5200 net.cpp:139] Memory required for data: 72825088
I0526 01:22:58.679037  5200 layer_factory.hpp:77] Creating layer relu4
I0526 01:22:58.679049  5200 net.cpp:86] Creating Layer relu4
I0526 01:22:58.679054  5200 net.cpp:408] relu4 <- fc4
I0526 01:22:58.679062  5200 net.cpp:369] relu4 -> fc4 (in-place)
I0526 01:22:58.679078  5200 net.cpp:124] Setting up relu4
I0526 01:22:58.679088  5200 net.cpp:131] Top shape: 64 48 (3072)
I0526 01:22:58.679095  5200 net.cpp:139] Memory required for data: 72837376
I0526 01:22:58.679101  5200 layer_factory.hpp:77] Creating layer fc5
I0526 01:22:58.679111  5200 net.cpp:86] Creating Layer fc5
I0526 01:22:58.679116  5200 net.cpp:408] fc5 <- fc4
I0526 01:22:58.679122  5200 net.cpp:382] fc5 -> fc5
I0526 01:22:58.679139  5200 net.cpp:124] Setting up fc5
I0526 01:22:58.679145  5200 net.cpp:131] Top shape: 64 2 (128)
I0526 01:22:58.679148  5200 net.cpp:139] Memory required for data: 72837888
I0526 01:22:58.679154  5200 layer_factory.hpp:77] Creating layer loss
I0526 01:22:58.679162  5200 net.cpp:86] Creating Layer loss
I0526 01:22:58.679169  5200 net.cpp:408] loss <- fc5
I0526 01:22:58.679178  5200 net.cpp:408] loss <- label
I0526 01:22:58.679189  5200 net.cpp:382] loss -> loss
I0526 01:22:58.679204  5200 layer_factory.hpp:77] Creating layer loss
…
I0526 01:22:58.680007  5200 net.cpp:53] Initializing net from parameters: 
name: "mAlexNet"
state {
  phase: TEST
}
layer {
  name: "data"
  type: "ImageData"
  top: "data"
  top: "label"
  include {
    phase: TEST
  }
  transform_param {
    scale: 0.00390625
    mirror: false
    crop_size: 224
  }
  image_data_param {
    source: "/home/hao/deep-parking/splits/PKLot/UFPR04_train.txt"
    batch_size: 100
    rand_skip: 100
    shuffle: true
    new_height: 256
    new_width: 256
    root_folder: "/home/hao/Documents/CV/PKLot/PKLotSegmented/"
  }
}
layer {
  name: "conv1"
  type: "Convolution"
  bottom: "data"
  top: "conv1"
  param {
    lr_mult: 1
    decay_mult: 1
  }
  param {
    lr_mult: 2
    decay_mult: 0
  }
  convolution_param {
    num_output: 16
    kernel_size: 11
    stride: 4
    weight_filler {
      type: "xavier"
    }
    bias_filler {
      type: "constant"
      value: 1
    }
  }
}
layer {
  name: "relu1"
  type: "ReLU"
  bottom: "conv1"
  top: "conv1"
}
layer {
  name: "pool1"
  type: "Pooling"
  bottom: "conv1"
  top: "pool1"
  pooling_param {
    pool: MAX
    kernel_size: 3
    stride: 2
  }
}
layer {
  name: "conv2"
  type: "Convolution"
  bottom: "pool1"
  top: "conv2"
  param {
    lr_mult: 1
    decay_mult: 1
  }
  param {
    lr_mult: 2
    decay_mult: 0
  }
  convolution_param {
    num_output: 20
    kernel_size: 5
    stride: 1
    weight_filler {
      type: "xavier"
    }
    bias_filler {
      type: "constant"
      value: 1
    }
  }
}
layer {
  name: "relu2"
  type: "ReLU"
  bottom: "conv2"
  top: "conv2"
}
layer {
  name: "pool2"
  type: "Pooling"
  bottom: "conv2"
  top: "pool2"
  pooling_param {
    pool: MAX
    kernel_size: 3
    stride: 2
  }
}
layer {
  name: "conv3"
  type: "Convolution"
  bottom: "pool2"
  top: "conv3"
  param {
    lr_mult: 1
    decay_mult: 1
  }
  param {
    lr_mult: 2
    decay_mult: 0
  }
  convolution_param {
    num_output: 30
    kernel_size: 3
    stride: 1
    weight_filler {
      type: "xavier"
    }
    bias_filler {
      type: "constant"
      value: 1
    }
  }
}
layer {
  name: "relu3"
  type: "ReLU"
  bottom: "conv3"
  top: "conv3"
}
layer {
  name: "pool3"
  type: "Pooling"
  bottom: "conv3"
  top: "pool3"
  pooling_param {
    pool: MAX
    kernel_size: 3
    stride: 2
  }
}
layer {
  name: "fc4"
  type: "InnerProduct"
  bottom: "pool3"
  top: "fc4"
  param {
    lr_mult: 1
    decay_mult: 1
  }
  param {
    lr_mult: 2
    decay_mult: 1
  }
  inner_product_param {
    num_output: 48
    weight_filler {
      type: "xavier"
    }
    bias_filler {
      type: "constant"
      value: 1
    }
  }
}
layer {
  name: "relu4"
  type: "ReLU"
  bottom: "fc4"
  top: "fc4"
}
layer {
  name: "fc5"
  type: "InnerProduct"
  bottom: "fc4"
  top: "fc5"
  param {
    lr_mult: 1
    decay_mult: 1
  }
  param {
    lr_mult: 2
    decay_mult: 1
  }
  inner_product_param {
    num_output: 2
    weight_filler {
      type: "xavier"
    }
    bias_filler {
      type: "constant"
      value: 1
    }
  }
}
layer {
  name: "loss"
  type: "SoftmaxWithLoss"
  bottom: "fc5"
  bottom: "label"
  top: "loss"
}
layer {
  name: "accuracy"
  type: "Accuracy"
  bottom: "fc5"
  bottom: "label"
  top: "accuracy"
  include {
    phase: TEST
  }
}
I0526 01:22:58.680119  5200 layer_factory.hpp:77] Creating layer data
I0526 01:22:58.680135  5200 net.cpp:86] Creating Layer data
I0526 01:22:58.680143  5200 net.cpp:382] data -> data
I0526 01:22:58.680152  5200 net.cpp:382] data -> label
I0526 01:22:58.680166  5200 image_data_layer.cpp:38] Opening file /home/hao/deep-parking/splits/PKLot/UFPR04_train.txt
I0526 01:22:58.707335  5200 image_data_layer.cpp:53] Shuffling data
I0526 01:22:58.724686  5200 image_data_layer.cpp:63] A total of 49160 images.
I0526 01:22:58.724715  5200 image_data_layer.cpp:70] Skipping first 21 data points.
I0526 01:22:58.725442  5200 image_data_layer.cpp:90] output data size: 100,3,224,224
I0526 01:22:58.725548  5200 net.cpp:124] Setting up data
I0526 01:22:58.725569  5200 net.cpp:131] Top shape: 100 3 224 224 (15052800)
I0526 01:22:58.725575  5200 net.cpp:131] Top shape: 100 (100)
I0526 01:22:58.725582  5200 net.cpp:139] Memory required for data: 60211600
I0526 01:22:58.725587  5200 layer_factory.hpp:77] Creating layer label_data_1_split
I0526 01:22:58.725602  5200 net.cpp:86] Creating Layer label_data_1_split
I0526 01:22:58.725611  5200 net.cpp:408] label_data_1_split <- label
I0526 01:22:58.725626  5200 net.cpp:382] label_data_1_split -> label_data_1_split_0
I0526 01:22:58.725641  5200 net.cpp:382] label_data_1_split -> label_data_1_split_1
I0526 01:22:58.725654  5200 net.cpp:124] Setting up label_data_1_split
I0526 01:22:58.725664  5200 net.cpp:131] Top shape: 100 (100)
I0526 01:22:58.725672  5200 net.cpp:131] Top shape: 100 (100)
I0526 01:22:58.725677  5200 net.cpp:139] Memory required for data: 60212400
I0526 01:22:58.725680  5200 layer_factory.hpp:77] Creating layer conv1
I0526 01:22:58.725703  5200 net.cpp:86] Creating Layer conv1
I0526 01:22:58.725713  5200 net.cpp:408] conv1 <- data
I0526 01:22:58.725726  5200 net.cpp:382] conv1 -> conv1
I0526 01:22:58.725793  5200 net.cpp:124] Setting up conv1
I0526 01:22:58.725802  5200 net.cpp:131] Top shape: 100 16 54 54 (4665600)
I0526 01:22:58.725805  5200 net.cpp:139] Memory required for data: 78874800
I0526 01:22:58.725814  5200 layer_factory.hpp:77] Creating layer relu1
I0526 01:22:58.725821  5200 net.cpp:86] Creating Layer relu1
I0526 01:22:58.725826  5200 net.cpp:408] relu1 <- conv1
I0526 01:22:58.725831  5200 net.cpp:369] relu1 -> conv1 (in-place)
I0526 01:22:58.725836  5200 net.cpp:124] Setting up relu1
I0526 01:22:58.725841  5200 net.cpp:131] Top shape: 100 16 54 54 (4665600)
I0526 01:22:58.725847  5200 net.cpp:139] Memory required for data: 97537200
I0526 01:22:58.725849  5200 layer_factory.hpp:77] Creating layer pool1
I0526 01:22:58.725857  5200 net.cpp:86] Creating Layer pool1
I0526 01:22:58.725862  5200 net.cpp:408] pool1 <- conv1
I0526 01:22:58.725867  5200 net.cpp:382] pool1 -> pool1
I0526 01:22:58.725877  5200 net.cpp:124] Setting up pool1
I0526 01:22:58.725883  5200 net.cpp:131] Top shape: 100 16 27 27 (1166400)
I0526 01:22:58.725888  5200 net.cpp:139] Memory required for data: 102202800
I0526 01:22:58.725890  5200 layer_factory.hpp:77] Creating layer conv2
I0526 01:22:58.725899  5200 net.cpp:86] Creating Layer conv2
I0526 01:22:58.725904  5200 net.cpp:408] conv2 <- pool1
I0526 01:22:58.725910  5200 net.cpp:382] conv2 -> conv2
I0526 01:22:58.725970  5200 net.cpp:124] Setting up conv2
I0526 01:22:58.725976  5200 net.cpp:131] Top shape: 100 20 23 23 (1058000)
I0526 01:22:58.725980  5200 net.cpp:139] Memory required for data: 106434800
I0526 01:22:58.725986  5200 layer_factory.hpp:77] Creating layer relu2
I0526 01:22:58.725992  5200 net.cpp:86] Creating Layer relu2
I0526 01:22:58.725996  5200 net.cpp:408] relu2 <- conv2
I0526 01:22:58.726001  5200 net.cpp:369] relu2 -> conv2 (in-place)
I0526 01:22:58.726007  5200 net.cpp:124] Setting up relu2
I0526 01:22:58.726011  5200 net.cpp:131] Top shape: 100 20 23 23 (1058000)
I0526 01:22:58.726016  5200 net.cpp:139] Memory required for data: 110666800
I0526 01:22:58.726018  5200 layer_factory.hpp:77] Creating layer pool2
I0526 01:22:58.726023  5200 net.cpp:86] Creating Layer pool2
I0526 01:22:58.726027  5200 net.cpp:408] pool2 <- conv2
I0526 01:22:58.726032  5200 net.cpp:382] pool2 -> pool2
I0526 01:22:58.726039  5200 net.cpp:124] Setting up pool2
I0526 01:22:58.726044  5200 net.cpp:131] Top shape: 100 20 11 11 (242000)
I0526 01:22:58.726049  5200 net.cpp:139] Memory required for data: 111634800
I0526 01:22:58.726052  5200 layer_factory.hpp:77] Creating layer conv3
I0526 01:22:58.726060  5200 net.cpp:86] Creating Layer conv3
I0526 01:22:58.726064  5200 net.cpp:408] conv3 <- pool2
I0526 01:22:58.726070  5200 net.cpp:382] conv3 -> conv3
I0526 01:22:58.726119  5200 net.cpp:124] Setting up conv3
I0526 01:22:58.726125  5200 net.cpp:131] Top shape: 100 30 9 9 (243000)
I0526 01:22:58.726130  5200 net.cpp:139] Memory required for data: 112606800
I0526 01:22:58.726150  5200 layer_factory.hpp:77] Creating layer relu3
I0526 01:22:58.726156  5200 net.cpp:86] Creating Layer relu3
I0526 01:22:58.726161  5200 net.cpp:408] relu3 <- conv3
I0526 01:22:58.726166  5200 net.cpp:369] relu3 -> conv3 (in-place)
I0526 01:22:58.726171  5200 net.cpp:124] Setting up relu3
I0526 01:22:58.726176  5200 net.cpp:131] Top shape: 100 30 9 9 (243000)
I0526 01:22:58.726181  5200 net.cpp:139] Memory required for data: 113578800
I0526 01:22:58.726184  5200 layer_factory.hpp:77] Creating layer pool3
I0526 01:22:58.726188  5200 net.cpp:86] Creating Layer pool3
I0526 01:22:58.726192  5200 net.cpp:408] pool3 <- conv3
I0526 01:22:58.726197  5200 net.cpp:382] pool3 -> pool3
I0526 01:22:58.726207  5200 net.cpp:124] Setting up pool3
I0526 01:22:58.726212  5200 net.cpp:131] Top shape: 100 30 4 4 (48000)
I0526 01:22:58.726215  5200 net.cpp:139] Memory required for data: 113770800
I0526 01:22:58.726219  5200 layer_factory.hpp:77] Creating layer fc4
I0526 01:22:58.726227  5200 net.cpp:86] Creating Layer fc4
I0526 01:22:58.726230  5200 net.cpp:408] fc4 <- pool3
I0526 01:22:58.726236  5200 net.cpp:382] fc4 -> fc4
I0526 01:22:58.726366  5200 net.cpp:124] Setting up fc4
I0526 01:22:58.726372  5200 net.cpp:131] Top shape: 100 48 (4800)
I0526 01:22:58.726374  5200 net.cpp:139] Memory required for data: 113790000
I0526 01:22:58.726379  5200 layer_factory.hpp:77] Creating layer relu4
I0526 01:22:58.726387  5200 net.cpp:86] Creating Layer relu4
I0526 01:22:58.726392  5200 net.cpp:408] relu4 <- fc4
I0526 01:22:58.726395  5200 net.cpp:369] relu4 -> fc4 (in-place)
I0526 01:22:58.726402  5200 net.cpp:124] Setting up relu4
I0526 01:22:58.726404  5200 net.cpp:131] Top shape: 100 48 (4800)
I0526 01:22:58.726409  5200 net.cpp:139] Memory required for data: 113809200
I0526 01:22:58.726413  5200 layer_factory.hpp:77] Creating layer fc5
I0526 01:22:58.726418  5200 net.cpp:86] Creating Layer fc5
I0526 01:22:58.726423  5200 net.cpp:408] fc5 <- fc4
I0526 01:22:58.726429  5200 net.cpp:382] fc5 -> fc5
I0526 01:22:58.726441  5200 net.cpp:124] Setting up fc5
I0526 01:22:58.726446  5200 net.cpp:131] Top shape: 100 2 (200)
I0526 01:22:58.726449  5200 net.cpp:139] Memory required for data: 113810000
I0526 01:22:58.726454  5200 layer_factory.hpp:77] Creating layer fc5_fc5_0_split
I0526 01:22:58.726461  5200 net.cpp:86] Creating Layer fc5_fc5_0_split
I0526 01:22:58.726465  5200 net.cpp:408] fc5_fc5_0_split <- fc5
I0526 01:22:58.726470  5200 net.cpp:382] fc5_fc5_0_split -> fc5_fc5_0_split_0
I0526 01:22:58.726478  5200 net.cpp:382] fc5_fc5_0_split -> fc5_fc5_0_split_1
I0526 01:22:58.726486  5200 net.cpp:124] Setting up fc5_fc5_0_split
I0526 01:22:58.726491  5200 net.cpp:131] Top shape: 100 2 (200)
I0526 01:22:58.726495  5200 net.cpp:131] Top shape: 100 2 (200)
I0526 01:22:58.726500  5200 net.cpp:139] Memory required for data: 113811600
I0526 01:22:58.726502  5200 layer_factory.hpp:77] Creating layer loss
I0526 01:22:58.726508  5200 net.cpp:86] Creating Layer loss
I0526 01:22:58.726512  5200 net.cpp:408] loss <- fc5_fc5_0_split_0
I0526 01:22:58.726516  5200 net.cpp:408] loss <- label_data_1_split_0
I0526 01:22:58.726523  5200 net.cpp:382] loss -> loss
…
