…
I0526 19:15:34.780474 24634 net.cpp:53] Initializing net from parameters: 
name: "mAlexNet"
state {
  phase: TRAIN
  level: 0
  stage: ""
}
layer {
  name: "data"
  type: "ImageData"
  top: "data"
  top: "label"
  include {
    phase: TRAIN
  }
  transform_param {
    scale: 0.00390625
    mirror: true
    crop_size: 224
  }
  image_data_param {
    source: "/home/hao/deep-parking/splits/PKLot/PUC_train.txt"
    batch_size: 64
    rand_skip: 64
    shuffle: true
    new_height: 256
    new_width: 256
    root_folder: "/home/hao/Documents/CV/PKLot/PKLotSegmented/"
  }
}
layer {
  name: "conv1"
  type: "Convolution"
  bottom: "data"
  top: "conv1"
  param {
    lr_mult: 1
    decay_mult: 1
  }
  param {
    lr_mult: 2
    decay_mult: 0
  }
  convolution_param {
    num_output: 16
    kernel_size: 11
    stride: 4
    weight_filler {
      type: "xavier"
    }
    bias_filler {
      type: "constant"
      value: 1
    }
  }
}
layer {
  name: "relu1"
  type: "ReLU"
  bottom: "conv1"
  top: "conv1"
}
layer {
  name: "pool1"
  type: "Pooling"
  bottom: "conv1"
  top: "pool1"
  pooling_param {
    pool: MAX
    kernel_size: 3
    stride: 2
  }
}
layer {
  name: "conv2"
  type: "Convolution"
  bottom: "pool1"
  top: "conv2"
  param {
    lr_mult: 1
    decay_mult: 1
  }
  param {
    lr_mult: 2
    decay_mult: 0
  }
  convolution_param {
    num_output: 20
    kernel_size: 5
    stride: 1
    weight_filler {
      type: "xavier"
    }
    bias_filler {
      type: "constant"
      value: 1
    }
  }
}
layer {
  name: "relu2"
  type: "ReLU"
  bottom: "conv2"
  top: "conv2"
}
layer {
  name: "pool2"
  type: "Pooling"
  bottom: "conv2"
  top: "pool2"
  pooling_param {
    pool: MAX
    kernel_size: 3
    stride: 2
  }
}
layer {
  name: "conv3"
  type: "Convolution"
  bottom: "pool2"
  top: "conv3"
  param {
    lr_mult: 1
    decay_mult: 1
  }
  param {
    lr_mult: 2
    decay_mult: 0
  }
  convolution_param {
    num_output: 30
    kernel_size: 3
    stride: 1
    weight_filler {
      type: "xavier"
    }
    bias_filler {
      type: "constant"
      value: 1
    }
  }
}
layer {
  name: "relu3"
  type: "ReLU"
  bottom: "conv3"
  top: "conv3"
}
layer {
  name: "pool3"
  type: "Pooling"
  bottom: "conv3"
  top: "pool3"
  pooling_param {
    pool: MAX
    kernel_size: 3
    stride: 2
  }
}
layer {
  name: "fc4"
  type: "InnerProduct"
  bottom: "pool3"
  top: "fc4"
  param {
    lr_mult: 1
    decay_mult: 1
  }
  param {
    lr_mult: 2
    decay_mult: 1
  }
  inner_product_param {
    num_output: 48
    weight_filler {
      type: "xavier"
    }
    bias_filler {
      type: "constant"
      value: 1
    }
  }
}
layer {
  name: "relu4"
  type: "ReLU"
  bottom: "fc4"
  top: "fc4"
}
layer {
  name: "fc5"
  type: "InnerProduct"
  bottom: "fc4"
  top: "fc5"
  param {
    lr_mult: 1
    decay_mult: 1
  }
  param {
    lr_mult: 2
    decay_mult: 1
  }
  inner_product_param {
    num_output: 2
    weight_filler {
      type: "xavier"
    }
    bias_filler {
      type: "constant"
      value: 1
    }
  }
}
layer {
  name: "loss"
  type: "SoftmaxWithLoss"
  bottom: "fc5"
  bottom: "label"
  top: "loss"
}
I0526 19:15:34.780584 24634 layer_factory.hpp:77] Creating layer data
I0526 19:15:34.780618 24634 net.cpp:86] Creating Layer data
I0526 19:15:34.780632 24634 net.cpp:382] data -> data
I0526 19:15:34.780659 24634 net.cpp:382] data -> label
I0526 19:15:34.780680 24634 image_data_layer.cpp:38] Opening file /home/hao/deep-parking/splits/PKLot/PUC_train.txt
I0526 19:15:34.854387 24634 image_data_layer.cpp:53] Shuffling data
I0526 19:15:34.917070 24634 image_data_layer.cpp:63] A total of 220713 images.
I0526 19:15:34.917111 24634 image_data_layer.cpp:70] Skipping first 40 data points.
I0526 19:15:34.921983 24634 image_data_layer.cpp:90] output data size: 64,3,224,224
I0526 19:15:34.922338 24634 net.cpp:124] Setting up data
I0526 19:15:34.922358 24634 net.cpp:131] Top shape: 64 3 224 224 (9633792)
I0526 19:15:34.922363 24634 net.cpp:131] Top shape: 64 (64)
I0526 19:15:34.922367 24634 net.cpp:139] Memory required for data: 38535424
I0526 19:15:34.922376 24634 layer_factory.hpp:77] Creating layer conv1
I0526 19:15:34.922402 24634 net.cpp:86] Creating Layer conv1
I0526 19:15:34.922411 24634 net.cpp:408] conv1 <- data
I0526 19:15:34.922451 24634 net.cpp:382] conv1 -> conv1
I0526 19:15:34.922554 24634 net.cpp:124] Setting up conv1
I0526 19:15:34.922562 24634 net.cpp:131] Top shape: 64 16 54 54 (2985984)
I0526 19:15:34.922566 24634 net.cpp:139] Memory required for data: 50479360
I0526 19:15:34.922581 24634 layer_factory.hpp:77] Creating layer relu1
I0526 19:15:34.922590 24634 net.cpp:86] Creating Layer relu1
I0526 19:15:34.922595 24634 net.cpp:408] relu1 <- conv1
I0526 19:15:34.922600 24634 net.cpp:369] relu1 -> conv1 (in-place)
I0526 19:15:34.922606 24634 net.cpp:124] Setting up relu1
I0526 19:15:34.922613 24634 net.cpp:131] Top shape: 64 16 54 54 (2985984)
I0526 19:15:34.922617 24634 net.cpp:139] Memory required for data: 62423296
I0526 19:15:34.922621 24634 layer_factory.hpp:77] Creating layer pool1
I0526 19:15:34.922628 24634 net.cpp:86] Creating Layer pool1
I0526 19:15:34.922634 24634 net.cpp:408] pool1 <- conv1
I0526 19:15:34.922641 24634 net.cpp:382] pool1 -> pool1
I0526 19:15:34.922665 24634 net.cpp:124] Setting up pool1
I0526 19:15:34.922673 24634 net.cpp:131] Top shape: 64 16 27 27 (746496)
I0526 19:15:34.922677 24634 net.cpp:139] Memory required for data: 65409280
I0526 19:15:34.922680 24634 layer_factory.hpp:77] Creating layer conv2
I0526 19:15:34.922690 24634 net.cpp:86] Creating Layer conv2
I0526 19:15:34.922694 24634 net.cpp:408] conv2 <- pool1
I0526 19:15:34.922701 24634 net.cpp:382] conv2 -> conv2
I0526 19:15:34.922780 24634 net.cpp:124] Setting up conv2
I0526 19:15:34.922787 24634 net.cpp:131] Top shape: 64 20 23 23 (677120)
I0526 19:15:34.922793 24634 net.cpp:139] Memory required for data: 68117760
I0526 19:15:34.922802 24634 layer_factory.hpp:77] Creating layer relu2
I0526 19:15:34.922809 24634 net.cpp:86] Creating Layer relu2
I0526 19:15:34.922816 24634 net.cpp:408] relu2 <- conv2
I0526 19:15:34.922821 24634 net.cpp:369] relu2 -> conv2 (in-place)
I0526 19:15:34.922829 24634 net.cpp:124] Setting up relu2
I0526 19:15:34.922834 24634 net.cpp:131] Top shape: 64 20 23 23 (677120)
I0526 19:15:34.922840 24634 net.cpp:139] Memory required for data: 70826240
I0526 19:15:34.922844 24634 layer_factory.hpp:77] Creating layer pool2
I0526 19:15:34.922850 24634 net.cpp:86] Creating Layer pool2
I0526 19:15:34.922857 24634 net.cpp:408] pool2 <- conv2
I0526 19:15:34.922863 24634 net.cpp:382] pool2 -> pool2
I0526 19:15:34.922873 24634 net.cpp:124] Setting up pool2
I0526 19:15:34.922880 24634 net.cpp:131] Top shape: 64 20 11 11 (154880)
I0526 19:15:34.922886 24634 net.cpp:139] Memory required for data: 71445760
I0526 19:15:34.922890 24634 layer_factory.hpp:77] Creating layer conv3
I0526 19:15:34.922925 24634 net.cpp:86] Creating Layer conv3
I0526 19:15:34.922932 24634 net.cpp:408] conv3 <- pool2
I0526 19:15:34.922940 24634 net.cpp:382] conv3 -> conv3
I0526 19:15:34.922997 24634 net.cpp:124] Setting up conv3
I0526 19:15:34.923004 24634 net.cpp:131] Top shape: 64 30 9 9 (155520)
I0526 19:15:34.923030 24634 net.cpp:139] Memory required for data: 72067840
I0526 19:15:34.923039 24634 layer_factory.hpp:77] Creating layer relu3
I0526 19:15:34.923048 24634 net.cpp:86] Creating Layer relu3
I0526 19:15:34.923053 24634 net.cpp:408] relu3 <- conv3
I0526 19:15:34.923058 24634 net.cpp:369] relu3 -> conv3 (in-place)
I0526 19:15:34.923066 24634 net.cpp:124] Setting up relu3
I0526 19:15:34.923074 24634 net.cpp:131] Top shape: 64 30 9 9 (155520)
I0526 19:15:34.923077 24634 net.cpp:139] Memory required for data: 72689920
I0526 19:15:34.923081 24634 layer_factory.hpp:77] Creating layer pool3
I0526 19:15:34.923086 24634 net.cpp:86] Creating Layer pool3
I0526 19:15:34.923092 24634 net.cpp:408] pool3 <- conv3
I0526 19:15:34.923099 24634 net.cpp:382] pool3 -> pool3
I0526 19:15:34.923110 24634 net.cpp:124] Setting up pool3
I0526 19:15:34.923116 24634 net.cpp:131] Top shape: 64 30 4 4 (30720)
I0526 19:15:34.923122 24634 net.cpp:139] Memory required for data: 72812800
I0526 19:15:34.923126 24634 layer_factory.hpp:77] Creating layer fc4
I0526 19:15:34.923133 24634 net.cpp:86] Creating Layer fc4
I0526 19:15:34.923139 24634 net.cpp:408] fc4 <- pool3
I0526 19:15:34.923146 24634 net.cpp:382] fc4 -> fc4
I0526 19:15:34.923308 24634 net.cpp:124] Setting up fc4
I0526 19:15:34.923316 24634 net.cpp:131] Top shape: 64 48 (3072)
I0526 19:15:34.923319 24634 net.cpp:139] Memory required for data: 72825088
I0526 19:15:34.923324 24634 layer_factory.hpp:77] Creating layer relu4
I0526 19:15:34.923329 24634 net.cpp:86] Creating Layer relu4
I0526 19:15:34.923333 24634 net.cpp:408] relu4 <- fc4
I0526 19:15:34.923339 24634 net.cpp:369] relu4 -> fc4 (in-place)
I0526 19:15:34.923344 24634 net.cpp:124] Setting up relu4
I0526 19:15:34.923348 24634 net.cpp:131] Top shape: 64 48 (3072)
I0526 19:15:34.923352 24634 net.cpp:139] Memory required for data: 72837376
I0526 19:15:34.923355 24634 layer_factory.hpp:77] Creating layer fc5
I0526 19:15:34.923362 24634 net.cpp:86] Creating Layer fc5
I0526 19:15:34.923368 24634 net.cpp:408] fc5 <- fc4
I0526 19:15:34.923375 24634 net.cpp:382] fc5 -> fc5
I0526 19:15:34.923391 24634 net.cpp:124] Setting up fc5
I0526 19:15:34.923398 24634 net.cpp:131] Top shape: 64 2 (128)
I0526 19:15:34.923400 24634 net.cpp:139] Memory required for data: 72837888
I0526 19:15:34.923408 24634 layer_factory.hpp:77] Creating layer loss
I0526 19:15:34.923413 24634 net.cpp:86] Creating Layer loss
I0526 19:15:34.923419 24634 net.cpp:408] loss <- fc5
I0526 19:15:34.923424 24634 net.cpp:408] loss <- label
I0526 19:15:34.923429 24634 net.cpp:382] loss -> loss
I0526 19:15:34.923441 24634 layer_factory.hpp:77] Creating layer loss
…
I0526 19:15:34.924129 24634 net.cpp:53] Initializing net from parameters: 
name: "mAlexNet"
state {
  phase: TEST
}
layer {
  name: "data"
  type: "ImageData"
  top: "data"
  top: "label"
  include {
    phase: TEST
  }
  transform_param {
    scale: 0.00390625
    mirror: false
    crop_size: 224
  }
  image_data_param {
    source: "/home/hao/deep-parking/splits/PKLot/UFPR04_train.txt"
    batch_size: 100
    rand_skip: 100
    shuffle: true
    new_height: 256
    new_width: 256
    root_folder: "/home/hao/Documents/CV/PKLot/PKLotSegmented/"
  }
}
layer {
  name: "conv1"
  type: "Convolution"
  bottom: "data"
  top: "conv1"
  param {
    lr_mult: 1
    decay_mult: 1
  }
  param {
    lr_mult: 2
    decay_mult: 0
  }
  convolution_param {
    num_output: 16
    kernel_size: 11
    stride: 4
    weight_filler {
      type: "xavier"
    }
    bias_filler {
      type: "constant"
      value: 1
    }
  }
}
layer {
  name: "relu1"
  type: "ReLU"
  bottom: "conv1"
  top: "conv1"
}
layer {
  name: "pool1"
  type: "Pooling"
  bottom: "conv1"
  top: "pool1"
  pooling_param {
    pool: MAX
    kernel_size: 3
    stride: 2
  }
}
layer {
  name: "conv2"
  type: "Convolution"
  bottom: "pool1"
  top: "conv2"
  param {
    lr_mult: 1
    decay_mult: 1
  }
  param {
    lr_mult: 2
    decay_mult: 0
  }
  convolution_param {
    num_output: 20
    kernel_size: 5
    stride: 1
    weight_filler {
      type: "xavier"
    }
    bias_filler {
      type: "constant"
      value: 1
    }
  }
}
layer {
  name: "relu2"
  type: "ReLU"
  bottom: "conv2"
  top: "conv2"
}
layer {
  name: "pool2"
  type: "Pooling"
  bottom: "conv2"
  top: "pool2"
  pooling_param {
    pool: MAX
    kernel_size: 3
    stride: 2
  }
}
layer {
  name: "conv3"
  type: "Convolution"
  bottom: "pool2"
  top: "conv3"
  param {
    lr_mult: 1
    decay_mult: 1
  }
  param {
    lr_mult: 2
    decay_mult: 0
  }
  convolution_param {
    num_output: 30
    kernel_size: 3
    stride: 1
    weight_filler {
      type: "xavier"
    }
    bias_filler {
      type: "constant"
      value: 1
    }
  }
}
layer {
  name: "relu3"
  type: "ReLU"
  bottom: "conv3"
  top: "conv3"
}
layer {
  name: "pool3"
  type: "Pooling"
  bottom: "conv3"
  top: "pool3"
  pooling_param {
    pool: MAX
    kernel_size: 3
    stride: 2
  }
}
layer {
  name: "fc4"
  type: "InnerProduct"
  bottom: "pool3"
  top: "fc4"
  param {
    lr_mult: 1
    decay_mult: 1
  }
  param {
    lr_mult: 2
    decay_mult: 1
  }
  inner_product_param {
    num_output: 48
    weight_filler {
      type: "xavier"
    }
    bias_filler {
      type: "constant"
      value: 1
    }
  }
}
layer {
  name: "relu4"
  type: "ReLU"
  bottom: "fc4"
  top: "fc4"
}
layer {
  name: "fc5"
  type: "InnerProduct"
  bottom: "fc4"
  top: "fc5"
  param {
    lr_mult: 1
    decay_mult: 1
  }
  param {
    lr_mult: 2
    decay_mult: 1
  }
  inner_product_param {
    num_output: 2
    weight_filler {
      type: "xavier"
    }
    bias_filler {
      type: "constant"
      value: 1
    }
  }
}
layer {
  name: "loss"
  type: "SoftmaxWithLoss"
  bottom: "fc5"
  bottom: "label"
  top: "loss"
}
layer {
  name: "accuracy"
  type: "Accuracy"
  bottom: "fc5"
  bottom: "label"
  top: "accuracy"
  include {
    phase: TEST
  }
}
I0526 19:15:34.924206 24634 layer_factory.hpp:77] Creating layer data
I0526 19:15:34.924217 24634 net.cpp:86] Creating Layer data
I0526 19:15:34.924223 24634 net.cpp:382] data -> data
I0526 19:15:34.924232 24634 net.cpp:382] data -> label
I0526 19:15:34.924242 24634 image_data_layer.cpp:38] Opening file /home/hao/deep-parking/splits/PKLot/UFPR04_train.txt
I0526 19:15:34.944011 24634 image_data_layer.cpp:53] Shuffling data
I0526 19:15:34.956460 24634 image_data_layer.cpp:63] A total of 49160 images.
I0526 19:15:34.956491 24634 image_data_layer.cpp:70] Skipping first 21 data points.
I0526 19:15:34.956848 24634 image_data_layer.cpp:90] output data size: 100,3,224,224
I0526 19:15:34.956959 24634 net.cpp:124] Setting up data
I0526 19:15:34.956982 24634 net.cpp:131] Top shape: 100 3 224 224 (15052800)
I0526 19:15:34.956987 24634 net.cpp:131] Top shape: 100 (100)
I0526 19:15:34.956990 24634 net.cpp:139] Memory required for data: 60211600
I0526 19:15:34.956995 24634 layer_factory.hpp:77] Creating layer label_data_1_split
I0526 19:15:34.957008 24634 net.cpp:86] Creating Layer label_data_1_split
I0526 19:15:34.957015 24634 net.cpp:408] label_data_1_split <- label
I0526 19:15:34.957021 24634 net.cpp:382] label_data_1_split -> label_data_1_split_0
I0526 19:15:34.957032 24634 net.cpp:382] label_data_1_split -> label_data_1_split_1
I0526 19:15:34.957039 24634 net.cpp:124] Setting up label_data_1_split
I0526 19:15:34.957044 24634 net.cpp:131] Top shape: 100 (100)
I0526 19:15:34.957047 24634 net.cpp:131] Top shape: 100 (100)
I0526 19:15:34.957051 24634 net.cpp:139] Memory required for data: 60212400
I0526 19:15:34.957053 24634 layer_factory.hpp:77] Creating layer conv1
I0526 19:15:34.957064 24634 net.cpp:86] Creating Layer conv1
I0526 19:15:34.957068 24634 net.cpp:408] conv1 <- data
I0526 19:15:34.957074 24634 net.cpp:382] conv1 -> conv1
I0526 19:15:34.957131 24634 net.cpp:124] Setting up conv1
I0526 19:15:34.957137 24634 net.cpp:131] Top shape: 100 16 54 54 (4665600)
I0526 19:15:34.957140 24634 net.cpp:139] Memory required for data: 78874800
I0526 19:15:34.957149 24634 layer_factory.hpp:77] Creating layer relu1
I0526 19:15:34.957155 24634 net.cpp:86] Creating Layer relu1
I0526 19:15:34.957160 24634 net.cpp:408] relu1 <- conv1
I0526 19:15:34.957165 24634 net.cpp:369] relu1 -> conv1 (in-place)
I0526 19:15:34.957170 24634 net.cpp:124] Setting up relu1
I0526 19:15:34.957175 24634 net.cpp:131] Top shape: 100 16 54 54 (4665600)
I0526 19:15:34.957180 24634 net.cpp:139] Memory required for data: 97537200
I0526 19:15:34.957183 24634 layer_factory.hpp:77] Creating layer pool1
I0526 19:15:34.957190 24634 net.cpp:86] Creating Layer pool1
I0526 19:15:34.957195 24634 net.cpp:408] pool1 <- conv1
I0526 19:15:34.957199 24634 net.cpp:382] pool1 -> pool1
I0526 19:15:34.957209 24634 net.cpp:124] Setting up pool1
I0526 19:15:34.957216 24634 net.cpp:131] Top shape: 100 16 27 27 (1166400)
I0526 19:15:34.957218 24634 net.cpp:139] Memory required for data: 102202800
I0526 19:15:34.957222 24634 layer_factory.hpp:77] Creating layer conv2
I0526 19:15:34.957229 24634 net.cpp:86] Creating Layer conv2
I0526 19:15:34.957234 24634 net.cpp:408] conv2 <- pool1
I0526 19:15:34.957239 24634 net.cpp:382] conv2 -> conv2
I0526 19:15:34.957296 24634 net.cpp:124] Setting up conv2
I0526 19:15:34.957303 24634 net.cpp:131] Top shape: 100 20 23 23 (1058000)
I0526 19:15:34.957307 24634 net.cpp:139] Memory required for data: 106434800
I0526 19:15:34.957314 24634 layer_factory.hpp:77] Creating layer relu2
I0526 19:15:34.957320 24634 net.cpp:86] Creating Layer relu2
I0526 19:15:34.957324 24634 net.cpp:408] relu2 <- conv2
I0526 19:15:34.957329 24634 net.cpp:369] relu2 -> conv2 (in-place)
I0526 19:15:34.957334 24634 net.cpp:124] Setting up relu2
I0526 19:15:34.957340 24634 net.cpp:131] Top shape: 100 20 23 23 (1058000)
I0526 19:15:34.957342 24634 net.cpp:139] Memory required for data: 110666800
I0526 19:15:34.957345 24634 layer_factory.hpp:77] Creating layer pool2
I0526 19:15:34.957350 24634 net.cpp:86] Creating Layer pool2
I0526 19:15:34.957355 24634 net.cpp:408] pool2 <- conv2
I0526 19:15:34.957360 24634 net.cpp:382] pool2 -> pool2
I0526 19:15:34.957366 24634 net.cpp:124] Setting up pool2
I0526 19:15:34.957370 24634 net.cpp:131] Top shape: 100 20 11 11 (242000)
I0526 19:15:34.957373 24634 net.cpp:139] Memory required for data: 111634800
I0526 19:15:34.957376 24634 layer_factory.hpp:77] Creating layer conv3
I0526 19:15:34.957382 24634 net.cpp:86] Creating Layer conv3
I0526 19:15:34.957387 24634 net.cpp:408] conv3 <- pool2
I0526 19:15:34.957393 24634 net.cpp:382] conv3 -> conv3
I0526 19:15:34.957463 24634 net.cpp:124] Setting up conv3
I0526 19:15:34.957473 24634 net.cpp:131] Top shape: 100 30 9 9 (243000)
I0526 19:15:34.957476 24634 net.cpp:139] Memory required for data: 112606800
I0526 19:15:34.957495 24634 layer_factory.hpp:77] Creating layer relu3
I0526 19:15:34.957502 24634 net.cpp:86] Creating Layer relu3
I0526 19:15:34.957509 24634 net.cpp:408] relu3 <- conv3
I0526 19:15:34.957518 24634 net.cpp:369] relu3 -> conv3 (in-place)
I0526 19:15:34.957528 24634 net.cpp:124] Setting up relu3
I0526 19:15:34.957536 24634 net.cpp:131] Top shape: 100 30 9 9 (243000)
I0526 19:15:34.957538 24634 net.cpp:139] Memory required for data: 113578800
I0526 19:15:34.957543 24634 layer_factory.hpp:77] Creating layer pool3
I0526 19:15:34.957551 24634 net.cpp:86] Creating Layer pool3
I0526 19:15:34.957556 24634 net.cpp:408] pool3 <- conv3
I0526 19:15:34.957562 24634 net.cpp:382] pool3 -> pool3
I0526 19:15:34.957571 24634 net.cpp:124] Setting up pool3
I0526 19:15:34.957577 24634 net.cpp:131] Top shape: 100 30 4 4 (48000)
I0526 19:15:34.957581 24634 net.cpp:139] Memory required for data: 113770800
I0526 19:15:34.957584 24634 layer_factory.hpp:77] Creating layer fc4
I0526 19:15:34.957592 24634 net.cpp:86] Creating Layer fc4
I0526 19:15:34.957595 24634 net.cpp:408] fc4 <- pool3
I0526 19:15:34.957600 24634 net.cpp:382] fc4 -> fc4
I0526 19:15:34.957726 24634 net.cpp:124] Setting up fc4
I0526 19:15:34.957731 24634 net.cpp:131] Top shape: 100 48 (4800)
I0526 19:15:34.957733 24634 net.cpp:139] Memory required for data: 113790000
I0526 19:15:34.957737 24634 layer_factory.hpp:77] Creating layer relu4
I0526 19:15:34.957741 24634 net.cpp:86] Creating Layer relu4
I0526 19:15:34.957746 24634 net.cpp:408] relu4 <- fc4
I0526 19:15:34.957749 24634 net.cpp:369] relu4 -> fc4 (in-place)
I0526 19:15:34.957753 24634 net.cpp:124] Setting up relu4
I0526 19:15:34.957756 24634 net.cpp:131] Top shape: 100 48 (4800)
I0526 19:15:34.957759 24634 net.cpp:139] Memory required for data: 113809200
I0526 19:15:34.957762 24634 layer_factory.hpp:77] Creating layer fc5
I0526 19:15:34.957767 24634 net.cpp:86] Creating Layer fc5
I0526 19:15:34.957772 24634 net.cpp:408] fc5 <- fc4
I0526 19:15:34.957778 24634 net.cpp:382] fc5 -> fc5
I0526 19:15:34.957790 24634 net.cpp:124] Setting up fc5
I0526 19:15:34.957795 24634 net.cpp:131] Top shape: 100 2 (200)
I0526 19:15:34.957798 24634 net.cpp:139] Memory required for data: 113810000
I0526 19:15:34.957804 24634 layer_factory.hpp:77] Creating layer fc5_fc5_0_split
I0526 19:15:34.957810 24634 net.cpp:86] Creating Layer fc5_fc5_0_split
I0526 19:15:34.957815 24634 net.cpp:408] fc5_fc5_0_split <- fc5
I0526 19:15:34.957820 24634 net.cpp:382] fc5_fc5_0_split -> fc5_fc5_0_split_0
I0526 19:15:34.957826 24634 net.cpp:382] fc5_fc5_0_split -> fc5_fc5_0_split_1
I0526 19:15:34.957834 24634 net.cpp:124] Setting up fc5_fc5_0_split
I0526 19:15:34.957839 24634 net.cpp:131] Top shape: 100 2 (200)
I0526 19:15:34.957844 24634 net.cpp:131] Top shape: 100 2 (200)
I0526 19:15:34.957850 24634 net.cpp:139] Memory required for data: 113811600
I0526 19:15:34.957856 24634 layer_factory.hpp:77] Creating layer loss
I0526 19:15:34.957862 24634 net.cpp:86] Creating Layer loss
I0526 19:15:34.957866 24634 net.cpp:408] loss <- fc5_fc5_0_split_0
I0526 19:15:34.957870 24634 net.cpp:408] loss <- label_data_1_split_0
I0526 19:15:34.957877 24634 net.cpp:382] loss -> loss
…
