…
I0521 02:41:40.803644 25710 net.cpp:53] Initializing net from parameters: 
name: "mAlexNet"
state {
  phase: TRAIN
  level: 0
  stage: ""
}
layer {
  name: "data"
  type: "ImageData"
  top: "data"
  top: "label"
  include {
    phase: TRAIN
  }
  transform_param {
    scale: 0.00390625
    mirror: true
    crop_size: 224
  }
  image_data_param {
    source: "/home/hao/deep-parking/splits/PKLot/PUC_train.txt"
    batch_size: 64
    rand_skip: 64
    shuffle: true
    new_height: 256
    new_width: 256
    root_folder: "/home/hao/Documents/CV/PKLot/PKLotSegmented/"
  }
}
layer {
  name: "conv1"
  type: "Convolution"
  bottom: "data"
  top: "conv1"
  param {
    lr_mult: 1
    decay_mult: 1
  }
  param {
    lr_mult: 2
    decay_mult: 0
  }
  convolution_param {
    num_output: 16
    kernel_size: 11
    stride: 4
    weight_filler {
      type: "xavier"
    }
    bias_filler {
      type: "constant"
      value: 1
    }
  }
}
layer {
  name: "relu1"
  type: "ReLU"
  bottom: "conv1"
  top: "conv1"
}
layer {
  name: "pool1"
  type: "Pooling"
  bottom: "conv1"
  top: "pool1"
  pooling_param {
    pool: MAX
    kernel_size: 3
    stride: 2
  }
}
layer {
  name: "conv2"
  type: "Convolution"
  bottom: "pool1"
  top: "conv2"
  param {
    lr_mult: 1
    decay_mult: 1
  }
  param {
    lr_mult: 2
    decay_mult: 0
  }
  convolution_param {
    num_output: 20
    kernel_size: 5
    stride: 1
    weight_filler {
      type: "xavier"
    }
    bias_filler {
      type: "constant"
      value: 1
    }
  }
}
layer {
  name: "relu2"
  type: "ReLU"
  bottom: "conv2"
  top: "conv2"
}
layer {
  name: "pool2"
  type: "Pooling"
  bottom: "conv2"
  top: "pool2"
  pooling_param {
    pool: MAX
    kernel_size: 3
    stride: 2
  }
}
layer {
  name: "conv3"
  type: "Convolution"
  bottom: "pool2"
  top: "conv3"
  param {
    lr_mult: 1
    decay_mult: 1
  }
  param {
    lr_mult: 2
    decay_mult: 0
  }
  convolution_param {
    num_output: 30
    kernel_size: 3
    stride: 1
    weight_filler {
      type: "xavier"
    }
    bias_filler {
      type: "constant"
      value: 1
    }
  }
}
layer {
  name: "relu3"
  type: "ReLU"
  bottom: "conv3"
  top: "conv3"
}
layer {
  name: "pool3"
  type: "Pooling"
  bottom: "conv3"
  top: "pool3"
  pooling_param {
    pool: MAX
    kernel_size: 3
    stride: 2
  }
}
layer {
  name: "fc4"
  type: "InnerProduct"
  bottom: "pool3"
  top: "fc4"
  param {
    lr_mult: 1
    decay_mult: 1
  }
  param {
    lr_mult: 2
    decay_mult: 1
  }
  inner_product_param {
    num_output: 48
    weight_filler {
      type: "xavier"
    }
    bias_filler {
      type: "constant"
      value: 1
    }
  }
}
layer {
  name: "relu4"
  type: "ReLU"
  bottom: "fc4"
  top: "fc4"
}
layer {
  name: "fc5"
  type: "InnerProduct"
  bottom: "fc4"
  top: "fc5"
  param {
    lr_mult: 1
    decay_mult: 1
  }
  param {
    lr_mult: 2
    decay_mult: 1
  }
  inner_product_param {
    num_output: 2
    weight_filler {
      type: "xavier"
    }
    bias_filler {
      type: "constant"
      value: 1
    }
  }
}
layer {
  name: "loss"
  type: "SoftmaxWithLoss"
  bottom: "fc5"
  bottom: "label"
  top: "loss"
}
I0521 02:41:40.803740 25710 layer_factory.hpp:77] Creating layer data
I0521 02:41:40.803772 25710 net.cpp:86] Creating Layer data
I0521 02:41:40.803781 25710 net.cpp:382] data -> data
I0521 02:41:40.803797 25710 net.cpp:382] data -> label
I0521 02:41:40.803829 25710 image_data_layer.cpp:38] Opening file /home/hao/deep-parking/splits/PKLot/PUC_train.txt
I0521 02:41:40.863286 25710 image_data_layer.cpp:53] Shuffling data
I0521 02:41:40.930677 25710 image_data_layer.cpp:63] A total of 220713 images.
I0521 02:41:40.930711 25710 image_data_layer.cpp:70] Skipping first 40 data points.
I0521 02:41:40.931314 25710 image_data_layer.cpp:90] output data size: 64,3,224,224
I0521 02:41:40.931403 25710 net.cpp:124] Setting up data
I0521 02:41:40.931416 25710 net.cpp:131] Top shape: 64 3 224 224 (9633792)
I0521 02:41:40.931421 25710 net.cpp:131] Top shape: 64 (64)
I0521 02:41:40.931423 25710 net.cpp:139] Memory required for data: 38535424
I0521 02:41:40.931430 25710 layer_factory.hpp:77] Creating layer conv1
I0521 02:41:40.931452 25710 net.cpp:86] Creating Layer conv1
I0521 02:41:40.931459 25710 net.cpp:408] conv1 <- data
I0521 02:41:40.931469 25710 net.cpp:382] conv1 -> conv1
I0521 02:41:40.931553 25710 net.cpp:124] Setting up conv1
I0521 02:41:40.931560 25710 net.cpp:131] Top shape: 64 16 54 54 (2985984)
I0521 02:41:40.931573 25710 net.cpp:139] Memory required for data: 50479360
I0521 02:41:40.931586 25710 layer_factory.hpp:77] Creating layer relu1
I0521 02:41:40.931594 25710 net.cpp:86] Creating Layer relu1
I0521 02:41:40.931599 25710 net.cpp:408] relu1 <- conv1
I0521 02:41:40.931603 25710 net.cpp:369] relu1 -> conv1 (in-place)
I0521 02:41:40.931610 25710 net.cpp:124] Setting up relu1
I0521 02:41:40.931615 25710 net.cpp:131] Top shape: 64 16 54 54 (2985984)
I0521 02:41:40.931618 25710 net.cpp:139] Memory required for data: 62423296
I0521 02:41:40.931622 25710 layer_factory.hpp:77] Creating layer pool1
I0521 02:41:40.931628 25710 net.cpp:86] Creating Layer pool1
I0521 02:41:40.931632 25710 net.cpp:408] pool1 <- conv1
I0521 02:41:40.931638 25710 net.cpp:382] pool1 -> pool1
I0521 02:41:40.931658 25710 net.cpp:124] Setting up pool1
I0521 02:41:40.931663 25710 net.cpp:131] Top shape: 64 16 27 27 (746496)
I0521 02:41:40.931668 25710 net.cpp:139] Memory required for data: 65409280
I0521 02:41:40.931670 25710 layer_factory.hpp:77] Creating layer conv2
I0521 02:41:40.931677 25710 net.cpp:86] Creating Layer conv2
I0521 02:41:40.931682 25710 net.cpp:408] conv2 <- pool1
I0521 02:41:40.931687 25710 net.cpp:382] conv2 -> conv2
I0521 02:41:40.931746 25710 net.cpp:124] Setting up conv2
I0521 02:41:40.931751 25710 net.cpp:131] Top shape: 64 20 23 23 (677120)
I0521 02:41:40.931756 25710 net.cpp:139] Memory required for data: 68117760
I0521 02:41:40.931761 25710 layer_factory.hpp:77] Creating layer relu2
I0521 02:41:40.931767 25710 net.cpp:86] Creating Layer relu2
I0521 02:41:40.931772 25710 net.cpp:408] relu2 <- conv2
I0521 02:41:40.931777 25710 net.cpp:369] relu2 -> conv2 (in-place)
I0521 02:41:40.931782 25710 net.cpp:124] Setting up relu2
I0521 02:41:40.931787 25710 net.cpp:131] Top shape: 64 20 23 23 (677120)
I0521 02:41:40.931790 25710 net.cpp:139] Memory required for data: 70826240
I0521 02:41:40.931795 25710 layer_factory.hpp:77] Creating layer pool2
I0521 02:41:40.931799 25710 net.cpp:86] Creating Layer pool2
I0521 02:41:40.931803 25710 net.cpp:408] pool2 <- conv2
I0521 02:41:40.931808 25710 net.cpp:382] pool2 -> pool2
I0521 02:41:40.931816 25710 net.cpp:124] Setting up pool2
I0521 02:41:40.931823 25710 net.cpp:131] Top shape: 64 20 11 11 (154880)
I0521 02:41:40.931826 25710 net.cpp:139] Memory required for data: 71445760
I0521 02:41:40.931829 25710 layer_factory.hpp:77] Creating layer conv3
I0521 02:41:40.931838 25710 net.cpp:86] Creating Layer conv3
I0521 02:41:40.931841 25710 net.cpp:408] conv3 <- pool2
I0521 02:41:40.931847 25710 net.cpp:382] conv3 -> conv3
I0521 02:41:40.931902 25710 net.cpp:124] Setting up conv3
I0521 02:41:40.931907 25710 net.cpp:131] Top shape: 64 30 9 9 (155520)
I0521 02:41:40.931921 25710 net.cpp:139] Memory required for data: 72067840
I0521 02:41:40.931947 25710 layer_factory.hpp:77] Creating layer relu3
I0521 02:41:40.931952 25710 net.cpp:86] Creating Layer relu3
I0521 02:41:40.931957 25710 net.cpp:408] relu3 <- conv3
I0521 02:41:40.931960 25710 net.cpp:369] relu3 -> conv3 (in-place)
I0521 02:41:40.931967 25710 net.cpp:124] Setting up relu3
I0521 02:41:40.931973 25710 net.cpp:131] Top shape: 64 30 9 9 (155520)
I0521 02:41:40.931977 25710 net.cpp:139] Memory required for data: 72689920
I0521 02:41:40.931979 25710 layer_factory.hpp:77] Creating layer pool3
I0521 02:41:40.931987 25710 net.cpp:86] Creating Layer pool3
I0521 02:41:40.931990 25710 net.cpp:408] pool3 <- conv3
I0521 02:41:40.931994 25710 net.cpp:382] pool3 -> pool3
I0521 02:41:40.932003 25710 net.cpp:124] Setting up pool3
I0521 02:41:40.932009 25710 net.cpp:131] Top shape: 64 30 4 4 (30720)
I0521 02:41:40.932014 25710 net.cpp:139] Memory required for data: 72812800
I0521 02:41:40.932018 25710 layer_factory.hpp:77] Creating layer fc4
I0521 02:41:40.932024 25710 net.cpp:86] Creating Layer fc4
I0521 02:41:40.932027 25710 net.cpp:408] fc4 <- pool3
I0521 02:41:40.932032 25710 net.cpp:382] fc4 -> fc4
I0521 02:41:40.932166 25710 net.cpp:124] Setting up fc4
I0521 02:41:40.932173 25710 net.cpp:131] Top shape: 64 48 (3072)
I0521 02:41:40.932185 25710 net.cpp:139] Memory required for data: 72825088
I0521 02:41:40.932189 25710 layer_factory.hpp:77] Creating layer relu4
I0521 02:41:40.932194 25710 net.cpp:86] Creating Layer relu4
I0521 02:41:40.932197 25710 net.cpp:408] relu4 <- fc4
I0521 02:41:40.932201 25710 net.cpp:369] relu4 -> fc4 (in-place)
I0521 02:41:40.932209 25710 net.cpp:124] Setting up relu4
I0521 02:41:40.932212 25710 net.cpp:131] Top shape: 64 48 (3072)
I0521 02:41:40.932216 25710 net.cpp:139] Memory required for data: 72837376
I0521 02:41:40.932219 25710 layer_factory.hpp:77] Creating layer fc5
I0521 02:41:40.932224 25710 net.cpp:86] Creating Layer fc5
I0521 02:41:40.932229 25710 net.cpp:408] fc5 <- fc4
I0521 02:41:40.932235 25710 net.cpp:382] fc5 -> fc5
I0521 02:41:40.932245 25710 net.cpp:124] Setting up fc5
I0521 02:41:40.932250 25710 net.cpp:131] Top shape: 64 2 (128)
I0521 02:41:40.932253 25710 net.cpp:139] Memory required for data: 72837888
I0521 02:41:40.932258 25710 layer_factory.hpp:77] Creating layer loss
I0521 02:41:40.932263 25710 net.cpp:86] Creating Layer loss
I0521 02:41:40.932267 25710 net.cpp:408] loss <- fc5
I0521 02:41:40.932271 25710 net.cpp:408] loss <- label
I0521 02:41:40.932276 25710 net.cpp:382] loss -> loss
I0521 02:41:40.932284 25710 layer_factory.hpp:77] Creating layer loss
…
I0521 02:41:40.932791 25710 net.cpp:53] Initializing net from parameters: 
name: "mAlexNet"
state {
  phase: TEST
}
layer {
  name: "data"
  type: "ImageData"
  top: "data"
  top: "label"
  include {
    phase: TEST
  }
  transform_param {
    scale: 0.00390625
    mirror: false
    crop_size: 224
  }
  image_data_param {
    source: "/home/hao/deep-parking/splits/CNRPark-EXT/val.txt"
    batch_size: 100
    rand_skip: 100
    shuffle: true
    new_height: 256
    new_width: 256
    root_folder: "/home/hao/Documents/CV/CNR-EXT-Patches-150x150/PATCHES/"
  }
}
layer {
  name: "conv1"
  type: "Convolution"
  bottom: "data"
  top: "conv1"
  param {
    lr_mult: 1
    decay_mult: 1
  }
  param {
    lr_mult: 2
    decay_mult: 0
  }
  convolution_param {
    num_output: 16
    kernel_size: 11
    stride: 4
    weight_filler {
      type: "xavier"
    }
    bias_filler {
      type: "constant"
      value: 1
    }
  }
}
layer {
  name: "relu1"
  type: "ReLU"
  bottom: "conv1"
  top: "conv1"
}
layer {
  name: "pool1"
  type: "Pooling"
  bottom: "conv1"
  top: "pool1"
  pooling_param {
    pool: MAX
    kernel_size: 3
    stride: 2
  }
}
layer {
  name: "conv2"
  type: "Convolution"
  bottom: "pool1"
  top: "conv2"
  param {
    lr_mult: 1
    decay_mult: 1
  }
  param {
    lr_mult: 2
    decay_mult: 0
  }
  convolution_param {
    num_output: 20
    kernel_size: 5
    stride: 1
    weight_filler {
      type: "xavier"
    }
    bias_filler {
      type: "constant"
      value: 1
    }
  }
}
layer {
  name: "relu2"
  type: "ReLU"
  bottom: "conv2"
  top: "conv2"
}
layer {
  name: "pool2"
  type: "Pooling"
  bottom: "conv2"
  top: "pool2"
  pooling_param {
    pool: MAX
    kernel_size: 3
    stride: 2
  }
}
layer {
  name: "conv3"
  type: "Convolution"
  bottom: "pool2"
  top: "conv3"
  param {
    lr_mult: 1
    decay_mult: 1
  }
  param {
    lr_mult: 2
    decay_mult: 0
  }
  convolution_param {
    num_output: 30
    kernel_size: 3
    stride: 1
    weight_filler {
      type: "xavier"
    }
    bias_filler {
      type: "constant"
      value: 1
    }
  }
}
layer {
  name: "relu3"
  type: "ReLU"
  bottom: "conv3"
  top: "conv3"
}
layer {
  name: "pool3"
  type: "Pooling"
  bottom: "conv3"
  top: "pool3"
  pooling_param {
    pool: MAX
    kernel_size: 3
    stride: 2
  }
}
layer {
  name: "fc4"
  type: "InnerProduct"
  bottom: "pool3"
  top: "fc4"
  param {
    lr_mult: 1
    decay_mult: 1
  }
  param {
    lr_mult: 2
    decay_mult: 1
  }
  inner_product_param {
    num_output: 48
    weight_filler {
      type: "xavier"
    }
    bias_filler {
      type: "constant"
      value: 1
    }
  }
}
layer {
  name: "relu4"
  type: "ReLU"
  bottom: "fc4"
  top: "fc4"
}
layer {
  name: "fc5"
  type: "InnerProduct"
  bottom: "fc4"
  top: "fc5"
  param {
    lr_mult: 1
    decay_mult: 1
  }
  param {
    lr_mult: 2
    decay_mult: 1
  }
  inner_product_param {
    num_output: 2
    weight_filler {
      type: "xavier"
    }
    bias_filler {
      type: "constant"
      value: 1
    }
  }
}
layer {
  name: "loss"
  type: "SoftmaxWithLoss"
  bottom: "fc5"
  bottom: "label"
  top: "loss"
}
layer {
  name: "accuracy"
  type: "Accuracy"
  bottom: "fc5"
  bottom: "label"
  top: "accuracy"
  include {
    phase: TEST
  }
}
I0521 02:41:40.932881 25710 layer_factory.hpp:77] Creating layer data
I0521 02:41:40.932904 25710 net.cpp:86] Creating Layer data
I0521 02:41:40.932909 25710 net.cpp:382] data -> data
I0521 02:41:40.932915 25710 net.cpp:382] data -> label
I0521 02:41:40.932921 25710 image_data_layer.cpp:38] Opening file /home/hao/deep-parking/splits/CNRPark-EXT/val.txt
I0521 02:41:40.944296 25710 image_data_layer.cpp:53] Shuffling data
I0521 02:41:40.947763 25710 image_data_layer.cpp:63] A total of 18647 images.
I0521 02:41:40.947777 25710 image_data_layer.cpp:70] Skipping first 21 data points.
I0521 02:41:40.948300 25710 image_data_layer.cpp:90] output data size: 100,3,224,224
I0521 02:41:40.948372 25710 net.cpp:124] Setting up data
I0521 02:41:40.948400 25710 net.cpp:131] Top shape: 100 3 224 224 (15052800)
I0521 02:41:40.948405 25710 net.cpp:131] Top shape: 100 (100)
I0521 02:41:40.948407 25710 net.cpp:139] Memory required for data: 60211600
I0521 02:41:40.948412 25710 layer_factory.hpp:77] Creating layer label_data_1_split
I0521 02:41:40.948423 25710 net.cpp:86] Creating Layer label_data_1_split
I0521 02:41:40.948428 25710 net.cpp:408] label_data_1_split <- label
I0521 02:41:40.948438 25710 net.cpp:382] label_data_1_split -> label_data_1_split_0
I0521 02:41:40.948449 25710 net.cpp:382] label_data_1_split -> label_data_1_split_1
I0521 02:41:40.948458 25710 net.cpp:124] Setting up label_data_1_split
I0521 02:41:40.948463 25710 net.cpp:131] Top shape: 100 (100)
I0521 02:41:40.948468 25710 net.cpp:131] Top shape: 100 (100)
I0521 02:41:40.948472 25710 net.cpp:139] Memory required for data: 60212400
I0521 02:41:40.948474 25710 layer_factory.hpp:77] Creating layer conv1
I0521 02:41:40.948487 25710 net.cpp:86] Creating Layer conv1
I0521 02:41:40.948491 25710 net.cpp:408] conv1 <- data
I0521 02:41:40.948498 25710 net.cpp:382] conv1 -> conv1
I0521 02:41:40.948552 25710 net.cpp:124] Setting up conv1
I0521 02:41:40.948559 25710 net.cpp:131] Top shape: 100 16 54 54 (4665600)
I0521 02:41:40.948562 25710 net.cpp:139] Memory required for data: 78874800
I0521 02:41:40.948570 25710 layer_factory.hpp:77] Creating layer relu1
I0521 02:41:40.948575 25710 net.cpp:86] Creating Layer relu1
I0521 02:41:40.948578 25710 net.cpp:408] relu1 <- conv1
I0521 02:41:40.948583 25710 net.cpp:369] relu1 -> conv1 (in-place)
I0521 02:41:40.948587 25710 net.cpp:124] Setting up relu1
I0521 02:41:40.948595 25710 net.cpp:131] Top shape: 100 16 54 54 (4665600)
I0521 02:41:40.948597 25710 net.cpp:139] Memory required for data: 97537200
I0521 02:41:40.948601 25710 layer_factory.hpp:77] Creating layer pool1
I0521 02:41:40.948609 25710 net.cpp:86] Creating Layer pool1
I0521 02:41:40.948613 25710 net.cpp:408] pool1 <- conv1
I0521 02:41:40.948617 25710 net.cpp:382] pool1 -> pool1
I0521 02:41:40.948628 25710 net.cpp:124] Setting up pool1
I0521 02:41:40.948634 25710 net.cpp:131] Top shape: 100 16 27 27 (1166400)
I0521 02:41:40.948639 25710 net.cpp:139] Memory required for data: 102202800
I0521 02:41:40.948642 25710 layer_factory.hpp:77] Creating layer conv2
I0521 02:41:40.948649 25710 net.cpp:86] Creating Layer conv2
I0521 02:41:40.948653 25710 net.cpp:408] conv2 <- pool1
I0521 02:41:40.948659 25710 net.cpp:382] conv2 -> conv2
I0521 02:41:40.948717 25710 net.cpp:124] Setting up conv2
I0521 02:41:40.948724 25710 net.cpp:131] Top shape: 100 20 23 23 (1058000)
I0521 02:41:40.948729 25710 net.cpp:139] Memory required for data: 106434800
I0521 02:41:40.948734 25710 layer_factory.hpp:77] Creating layer relu2
I0521 02:41:40.948740 25710 net.cpp:86] Creating Layer relu2
I0521 02:41:40.948745 25710 net.cpp:408] relu2 <- conv2
I0521 02:41:40.948750 25710 net.cpp:369] relu2 -> conv2 (in-place)
I0521 02:41:40.948755 25710 net.cpp:124] Setting up relu2
I0521 02:41:40.948760 25710 net.cpp:131] Top shape: 100 20 23 23 (1058000)
I0521 02:41:40.948763 25710 net.cpp:139] Memory required for data: 110666800
I0521 02:41:40.948768 25710 layer_factory.hpp:77] Creating layer pool2
I0521 02:41:40.948773 25710 net.cpp:86] Creating Layer pool2
I0521 02:41:40.948777 25710 net.cpp:408] pool2 <- conv2
I0521 02:41:40.948782 25710 net.cpp:382] pool2 -> pool2
I0521 02:41:40.948789 25710 net.cpp:124] Setting up pool2
I0521 02:41:40.948796 25710 net.cpp:131] Top shape: 100 20 11 11 (242000)
I0521 02:41:40.948799 25710 net.cpp:139] Memory required for data: 111634800
I0521 02:41:40.948802 25710 layer_factory.hpp:77] Creating layer conv3
I0521 02:41:40.948809 25710 net.cpp:86] Creating Layer conv3
I0521 02:41:40.948814 25710 net.cpp:408] conv3 <- pool2
I0521 02:41:40.948819 25710 net.cpp:382] conv3 -> conv3
I0521 02:41:40.948864 25710 net.cpp:124] Setting up conv3
I0521 02:41:40.948870 25710 net.cpp:131] Top shape: 100 30 9 9 (243000)
I0521 02:41:40.948873 25710 net.cpp:139] Memory required for data: 112606800
I0521 02:41:40.948879 25710 layer_factory.hpp:77] Creating layer relu3
I0521 02:41:40.948894 25710 net.cpp:86] Creating Layer relu3
I0521 02:41:40.948899 25710 net.cpp:408] relu3 <- conv3
I0521 02:41:40.948902 25710 net.cpp:369] relu3 -> conv3 (in-place)
I0521 02:41:40.948909 25710 net.cpp:124] Setting up relu3
I0521 02:41:40.948913 25710 net.cpp:131] Top shape: 100 30 9 9 (243000)
I0521 02:41:40.948918 25710 net.cpp:139] Memory required for data: 113578800
I0521 02:41:40.948921 25710 layer_factory.hpp:77] Creating layer pool3
I0521 02:41:40.948926 25710 net.cpp:86] Creating Layer pool3
I0521 02:41:40.948930 25710 net.cpp:408] pool3 <- conv3
I0521 02:41:40.948935 25710 net.cpp:382] pool3 -> pool3
I0521 02:41:40.948943 25710 net.cpp:124] Setting up pool3
I0521 02:41:40.948948 25710 net.cpp:131] Top shape: 100 30 4 4 (48000)
I0521 02:41:40.948953 25710 net.cpp:139] Memory required for data: 113770800
I0521 02:41:40.948956 25710 layer_factory.hpp:77] Creating layer fc4
I0521 02:41:40.948964 25710 net.cpp:86] Creating Layer fc4
I0521 02:41:40.948969 25710 net.cpp:408] fc4 <- pool3
I0521 02:41:40.948973 25710 net.cpp:382] fc4 -> fc4
I0521 02:41:40.949097 25710 net.cpp:124] Setting up fc4
I0521 02:41:40.949103 25710 net.cpp:131] Top shape: 100 48 (4800)
I0521 02:41:40.949108 25710 net.cpp:139] Memory required for data: 113790000
I0521 02:41:40.949113 25710 layer_factory.hpp:77] Creating layer relu4
I0521 02:41:40.949117 25710 net.cpp:86] Creating Layer relu4
I0521 02:41:40.949120 25710 net.cpp:408] relu4 <- fc4
I0521 02:41:40.949124 25710 net.cpp:369] relu4 -> fc4 (in-place)
I0521 02:41:40.949128 25710 net.cpp:124] Setting up relu4
I0521 02:41:40.949131 25710 net.cpp:131] Top shape: 100 48 (4800)
I0521 02:41:40.949134 25710 net.cpp:139] Memory required for data: 113809200
I0521 02:41:40.949137 25710 layer_factory.hpp:77] Creating layer fc5
I0521 02:41:40.949142 25710 net.cpp:86] Creating Layer fc5
I0521 02:41:40.949147 25710 net.cpp:408] fc5 <- fc4
I0521 02:41:40.949152 25710 net.cpp:382] fc5 -> fc5
I0521 02:41:40.949162 25710 net.cpp:124] Setting up fc5
I0521 02:41:40.949167 25710 net.cpp:131] Top shape: 100 2 (200)
I0521 02:41:40.949169 25710 net.cpp:139] Memory required for data: 113810000
I0521 02:41:40.949175 25710 layer_factory.hpp:77] Creating layer fc5_fc5_0_split
I0521 02:41:40.949182 25710 net.cpp:86] Creating Layer fc5_fc5_0_split
I0521 02:41:40.949187 25710 net.cpp:408] fc5_fc5_0_split <- fc5
I0521 02:41:40.949190 25710 net.cpp:382] fc5_fc5_0_split -> fc5_fc5_0_split_0
I0521 02:41:40.949194 25710 net.cpp:382] fc5_fc5_0_split -> fc5_fc5_0_split_1
I0521 02:41:40.949203 25710 net.cpp:124] Setting up fc5_fc5_0_split
I0521 02:41:40.949208 25710 net.cpp:131] Top shape: 100 2 (200)
I0521 02:41:40.949211 25710 net.cpp:131] Top shape: 100 2 (200)
I0521 02:41:40.949215 25710 net.cpp:139] Memory required for data: 113811600
I0521 02:41:40.949218 25710 layer_factory.hpp:77] Creating layer loss
I0521 02:41:40.949223 25710 net.cpp:86] Creating Layer loss
I0521 02:41:40.949229 25710 net.cpp:408] loss <- fc5_fc5_0_split_0
I0521 02:41:40.949231 25710 net.cpp:408] loss <- label_data_1_split_0
I0521 02:41:40.949237 25710 net.cpp:382] loss -> loss
…
