…
I0520 00:38:37.290000 12877 net.cpp:53] Initializing net from parameters: 
name: "mAlexNet"
state {
  phase: TRAIN
  level: 0
  stage: ""
}
layer {
  name: "data"
  type: "ImageData"
  top: "data"
  top: "label"
  include {
    phase: TRAIN
  }
  transform_param {
    scale: 0.00390625
    mirror: true
    crop_size: 224
  }
  image_data_param {
    source: "/home/hao/deep-parking/splits/PKLot/UFPR05_train.txt"
    batch_size: 64
    rand_skip: 64
    shuffle: true
    new_height: 256
    new_width: 256
    root_folder: "/home/hao/Documents/CV/PKLot/PKLotSegmented/"
  }
}
layer {
  name: "conv1"
  type: "Convolution"
  bottom: "data"
  top: "conv1"
  param {
    lr_mult: 1
    decay_mult: 1
  }
  param {
    lr_mult: 2
    decay_mult: 0
  }
  convolution_param {
    num_output: 16
    kernel_size: 11
    stride: 4
    weight_filler {
      type: "xavier"
    }
    bias_filler {
      type: "constant"
      value: 1
    }
  }
}
layer {
  name: "relu1"
  type: "ReLU"
  bottom: "conv1"
  top: "conv1"
}
layer {
  name: "pool1"
  type: "Pooling"
  bottom: "conv1"
  top: "pool1"
  pooling_param {
    pool: MAX
    kernel_size: 3
    stride: 2
  }
}
layer {
  name: "conv2"
  type: "Convolution"
  bottom: "pool1"
  top: "conv2"
  param {
    lr_mult: 1
    decay_mult: 1
  }
  param {
    lr_mult: 2
    decay_mult: 0
  }
  convolution_param {
    num_output: 20
    kernel_size: 5
    stride: 1
    weight_filler {
      type: "xavier"
    }
    bias_filler {
      type: "constant"
      value: 1
    }
  }
}
layer {
  name: "relu2"
  type: "ReLU"
  bottom: "conv2"
  top: "conv2"
}
layer {
  name: "pool2"
  type: "Pooling"
  bottom: "conv2"
  top: "pool2"
  pooling_param {
    pool: MAX
    kernel_size: 3
    stride: 2
  }
}
layer {
  name: "conv3"
  type: "Convolution"
  bottom: "pool2"
  top: "conv3"
  param {
    lr_mult: 1
    decay_mult: 1
  }
  param {
    lr_mult: 2
    decay_mult: 0
  }
  convolution_param {
    num_output: 30
    kernel_size: 3
    stride: 1
    weight_filler {
      type: "xavier"
    }
    bias_filler {
      type: "constant"
      value: 1
    }
  }
}
layer {
  name: "relu3"
  type: "ReLU"
  bottom: "conv3"
  top: "conv3"
}
layer {
  name: "pool3"
  type: "Pooling"
  bottom: "conv3"
  top: "pool3"
  pooling_param {
    pool: MAX
    kernel_size: 3
    stride: 2
  }
}
layer {
  name: "fc4"
  type: "InnerProduct"
  bottom: "pool3"
  top: "fc4"
  param {
    lr_mult: 1
    decay_mult: 1
  }
  param {
    lr_mult: 2
    decay_mult: 1
  }
  inner_product_param {
    num_output: 48
    weight_filler {
      type: "xavier"
    }
    bias_filler {
      type: "constant"
      value: 1
    }
  }
}
layer {
  name: "relu4"
  type: "ReLU"
  bottom: "fc4"
  top: "fc4"
}
layer {
  name: "fc5"
  type: "InnerProduct"
  bottom: "fc4"
  top: "fc5"
  param {
    lr_mult: 1
    decay_mult: 1
  }
  param {
    lr_mult: 2
    decay_mult: 1
  }
  inner_product_param {
    num_output: 2
    weight_filler {
      type: "xavier"
    }
    bias_filler {
      type: "constant"
      value: 1
    }
  }
}
layer {
  name: "loss"
  type: "SoftmaxWithLoss"
  bottom: "fc5"
  bottom: "label"
  top: "loss"
}
I0520 00:38:37.290074 12877 layer_factory.hpp:77] Creating layer data
I0520 00:38:37.290096 12877 net.cpp:86] Creating Layer data
I0520 00:38:37.290102 12877 net.cpp:382] data -> data
I0520 00:38:37.290118 12877 net.cpp:382] data -> label
I0520 00:38:37.290138 12877 image_data_layer.cpp:38] Opening file /home/hao/deep-parking/splits/PKLot/UFPR05_train.txt
I0520 00:38:37.317795 12877 image_data_layer.cpp:53] Shuffling data
I0520 00:38:37.344588 12877 image_data_layer.cpp:63] A total of 93955 images.
I0520 00:38:37.344615 12877 image_data_layer.cpp:70] Skipping first 40 data points.
I0520 00:38:37.345472 12877 image_data_layer.cpp:90] output data size: 64,3,224,224
I0520 00:38:37.345574 12877 net.cpp:124] Setting up data
I0520 00:38:37.345600 12877 net.cpp:131] Top shape: 64 3 224 224 (9633792)
I0520 00:38:37.345605 12877 net.cpp:131] Top shape: 64 (64)
I0520 00:38:37.345618 12877 net.cpp:139] Memory required for data: 38535424
I0520 00:38:37.345625 12877 layer_factory.hpp:77] Creating layer conv1
I0520 00:38:37.345646 12877 net.cpp:86] Creating Layer conv1
I0520 00:38:37.345651 12877 net.cpp:408] conv1 <- data
I0520 00:38:37.345662 12877 net.cpp:382] conv1 -> conv1
I0520 00:38:37.345732 12877 net.cpp:124] Setting up conv1
I0520 00:38:37.345751 12877 net.cpp:131] Top shape: 64 16 54 54 (2985984)
I0520 00:38:37.345753 12877 net.cpp:139] Memory required for data: 50479360
I0520 00:38:37.345775 12877 layer_factory.hpp:77] Creating layer relu1
I0520 00:38:37.345782 12877 net.cpp:86] Creating Layer relu1
I0520 00:38:37.345786 12877 net.cpp:408] relu1 <- conv1
I0520 00:38:37.345790 12877 net.cpp:369] relu1 -> conv1 (in-place)
I0520 00:38:37.345801 12877 net.cpp:124] Setting up relu1
I0520 00:38:37.345813 12877 net.cpp:131] Top shape: 64 16 54 54 (2985984)
I0520 00:38:37.345818 12877 net.cpp:139] Memory required for data: 62423296
I0520 00:38:37.345825 12877 layer_factory.hpp:77] Creating layer pool1
I0520 00:38:37.345834 12877 net.cpp:86] Creating Layer pool1
I0520 00:38:37.345841 12877 net.cpp:408] pool1 <- conv1
I0520 00:38:37.345850 12877 net.cpp:382] pool1 -> pool1
I0520 00:38:37.345877 12877 net.cpp:124] Setting up pool1
I0520 00:38:37.345886 12877 net.cpp:131] Top shape: 64 16 27 27 (746496)
I0520 00:38:37.345892 12877 net.cpp:139] Memory required for data: 65409280
I0520 00:38:37.345898 12877 layer_factory.hpp:77] Creating layer conv2
I0520 00:38:37.345912 12877 net.cpp:86] Creating Layer conv2
I0520 00:38:37.345919 12877 net.cpp:408] conv2 <- pool1
I0520 00:38:37.345928 12877 net.cpp:382] conv2 -> conv2
I0520 00:38:37.345993 12877 net.cpp:124] Setting up conv2
I0520 00:38:37.346000 12877 net.cpp:131] Top shape: 64 20 23 23 (677120)
I0520 00:38:37.346004 12877 net.cpp:139] Memory required for data: 68117760
I0520 00:38:37.346010 12877 layer_factory.hpp:77] Creating layer relu2
I0520 00:38:37.346017 12877 net.cpp:86] Creating Layer relu2
I0520 00:38:37.346021 12877 net.cpp:408] relu2 <- conv2
I0520 00:38:37.346025 12877 net.cpp:369] relu2 -> conv2 (in-place)
I0520 00:38:37.346031 12877 net.cpp:124] Setting up relu2
I0520 00:38:37.346036 12877 net.cpp:131] Top shape: 64 20 23 23 (677120)
I0520 00:38:37.346040 12877 net.cpp:139] Memory required for data: 70826240
I0520 00:38:37.346045 12877 layer_factory.hpp:77] Creating layer pool2
I0520 00:38:37.346050 12877 net.cpp:86] Creating Layer pool2
I0520 00:38:37.346053 12877 net.cpp:408] pool2 <- conv2
I0520 00:38:37.346057 12877 net.cpp:382] pool2 -> pool2
I0520 00:38:37.346065 12877 net.cpp:124] Setting up pool2
I0520 00:38:37.346071 12877 net.cpp:131] Top shape: 64 20 11 11 (154880)
I0520 00:38:37.346076 12877 net.cpp:139] Memory required for data: 71445760
I0520 00:38:37.346078 12877 layer_factory.hpp:77] Creating layer conv3
I0520 00:38:37.346087 12877 net.cpp:86] Creating Layer conv3
I0520 00:38:37.346092 12877 net.cpp:408] conv3 <- pool2
I0520 00:38:37.346097 12877 net.cpp:382] conv3 -> conv3
I0520 00:38:37.346139 12877 net.cpp:124] Setting up conv3
I0520 00:38:37.346145 12877 net.cpp:131] Top shape: 64 30 9 9 (155520)
I0520 00:38:37.346150 12877 net.cpp:139] Memory required for data: 72067840
I0520 00:38:37.346182 12877 layer_factory.hpp:77] Creating layer relu3
I0520 00:38:37.346194 12877 net.cpp:86] Creating Layer relu3
I0520 00:38:37.346197 12877 net.cpp:408] relu3 <- conv3
I0520 00:38:37.346201 12877 net.cpp:369] relu3 -> conv3 (in-place)
I0520 00:38:37.346207 12877 net.cpp:124] Setting up relu3
I0520 00:38:37.346213 12877 net.cpp:131] Top shape: 64 30 9 9 (155520)
I0520 00:38:37.346217 12877 net.cpp:139] Memory required for data: 72689920
I0520 00:38:37.346221 12877 layer_factory.hpp:77] Creating layer pool3
I0520 00:38:37.346225 12877 net.cpp:86] Creating Layer pool3
I0520 00:38:37.346230 12877 net.cpp:408] pool3 <- conv3
I0520 00:38:37.346235 12877 net.cpp:382] pool3 -> pool3
I0520 00:38:37.346243 12877 net.cpp:124] Setting up pool3
I0520 00:38:37.346248 12877 net.cpp:131] Top shape: 64 30 4 4 (30720)
I0520 00:38:37.346253 12877 net.cpp:139] Memory required for data: 72812800
I0520 00:38:37.346256 12877 layer_factory.hpp:77] Creating layer fc4
I0520 00:38:37.346263 12877 net.cpp:86] Creating Layer fc4
I0520 00:38:37.346267 12877 net.cpp:408] fc4 <- pool3
I0520 00:38:37.346273 12877 net.cpp:382] fc4 -> fc4
I0520 00:38:37.346406 12877 net.cpp:124] Setting up fc4
I0520 00:38:37.346412 12877 net.cpp:131] Top shape: 64 48 (3072)
I0520 00:38:37.346426 12877 net.cpp:139] Memory required for data: 72825088
I0520 00:38:37.346431 12877 layer_factory.hpp:77] Creating layer relu4
I0520 00:38:37.346436 12877 net.cpp:86] Creating Layer relu4
I0520 00:38:37.346438 12877 net.cpp:408] relu4 <- fc4
I0520 00:38:37.346443 12877 net.cpp:369] relu4 -> fc4 (in-place)
I0520 00:38:37.346447 12877 net.cpp:124] Setting up relu4
I0520 00:38:37.346453 12877 net.cpp:131] Top shape: 64 48 (3072)
I0520 00:38:37.346457 12877 net.cpp:139] Memory required for data: 72837376
I0520 00:38:37.346459 12877 layer_factory.hpp:77] Creating layer fc5
I0520 00:38:37.346467 12877 net.cpp:86] Creating Layer fc5
I0520 00:38:37.346469 12877 net.cpp:408] fc5 <- fc4
I0520 00:38:37.346474 12877 net.cpp:382] fc5 -> fc5
I0520 00:38:37.346485 12877 net.cpp:124] Setting up fc5
I0520 00:38:37.346490 12877 net.cpp:131] Top shape: 64 2 (128)
I0520 00:38:37.346493 12877 net.cpp:139] Memory required for data: 72837888
I0520 00:38:37.346498 12877 layer_factory.hpp:77] Creating layer loss
I0520 00:38:37.346504 12877 net.cpp:86] Creating Layer loss
I0520 00:38:37.346508 12877 net.cpp:408] loss <- fc5
I0520 00:38:37.346513 12877 net.cpp:408] loss <- label
I0520 00:38:37.346518 12877 net.cpp:382] loss -> loss
I0520 00:38:37.346527 12877 layer_factory.hpp:77] Creating layer loss
…
I0520 00:38:37.346925 12877 solver.cpp:190] Creating test net (#0) specified by test_net file: val-PKLot_val.prototxt
I0520 00:38:37.347054 12877 net.cpp:53] Initializing net from parameters: 
name: "mAlexNet"
state {
  phase: TEST
}
layer {
  name: "data"
  type: "ImageData"
  top: "data"
  top: "label"
  include {
    phase: TEST
  }
  transform_param {
    scale: 0.00390625
    mirror: false
    crop_size: 224
  }
  image_data_param {
    source: "/home/hao/deep-parking/splits/PKLot/val.txt"
    batch_size: 100
    rand_skip: 100
    shuffle: true
    new_height: 256
    new_width: 256
    root_folder: "/home/hao/Documents/CV/PKLot/PKLotSegmented/"
  }
}
layer {
  name: "conv1"
  type: "Convolution"
  bottom: "data"
  top: "conv1"
  param {
    lr_mult: 1
    decay_mult: 1
  }
  param {
    lr_mult: 2
    decay_mult: 0
  }
  convolution_param {
    num_output: 16
    kernel_size: 11
    stride: 4
    weight_filler {
      type: "xavier"
    }
    bias_filler {
      type: "constant"
      value: 1
    }
  }
}
layer {
  name: "relu1"
  type: "ReLU"
  bottom: "conv1"
  top: "conv1"
}
layer {
  name: "pool1"
  type: "Pooling"
  bottom: "conv1"
  top: "pool1"
  pooling_param {
    pool: MAX
    kernel_size: 3
    stride: 2
  }
}
layer {
  name: "conv2"
  type: "Convolution"
  bottom: "pool1"
  top: "conv2"
  param {
    lr_mult: 1
    decay_mult: 1
  }
  param {
    lr_mult: 2
    decay_mult: 0
  }
  convolution_param {
    num_output: 20
    kernel_size: 5
    stride: 1
    weight_filler {
      type: "xavier"
    }
    bias_filler {
      type: "constant"
      value: 1
    }
  }
}
layer {
  name: "relu2"
  type: "ReLU"
  bottom: "conv2"
  top: "conv2"
}
layer {
  name: "pool2"
  type: "Pooling"
  bottom: "conv2"
  top: "pool2"
  pooling_param {
    pool: MAX
    kernel_size: 3
    stride: 2
  }
}
layer {
  name: "conv3"
  type: "Convolution"
  bottom: "pool2"
  top: "conv3"
  param {
    lr_mult: 1
    decay_mult: 1
  }
  param {
    lr_mult: 2
    decay_mult: 0
  }
  convolution_param {
    num_output: 30
    kernel_size: 3
    stride: 1
    weight_filler {
      type: "xavier"
    }
    bias_filler {
      type: "constant"
      value: 1
    }
  }
}
layer {
  name: "relu3"
  type: "ReLU"
  bottom: "conv3"
  top: "conv3"
}
layer {
  name: "pool3"
  type: "Pooling"
  bottom: "conv3"
  top: "pool3"
  pooling_param {
    pool: MAX
    kernel_size: 3
    stride: 2
  }
}
layer {
  name: "fc4"
  type: "InnerProduct"
  bottom: "pool3"
  top: "fc4"
  param {
    lr_mult: 1
    decay_mult: 1
  }
  param {
    lr_mult: 2
    decay_mult: 1
  }
  inner_product_param {
    num_output: 48
    weight_filler {
      type: "xavier"
    }
    bias_filler {
      type: "constant"
      value: 1
    }
  }
}
layer {
  name: "relu4"
  type: "ReLU"
  bottom: "fc4"
  top: "fc4"
}
layer {
  name: "fc5"
  type: "InnerProduct"
  bottom: "fc4"
  top: "fc5"
  param {
    lr_mult: 1
    decay_mult: 1
  }
  param {
    lr_mult: 2
    decay_mult: 1
  }
  inner_product_param {
    num_output: 2
    weight_filler {
      type: "xavier"
    }
    bias_filler {
      type: "constant"
      value: 1
    }
  }
}
layer {
  name: "loss"
  type: "SoftmaxWithLoss"
  bottom: "fc5"
  bottom: "label"
  top: "loss"
}
layer {
  name: "accuracy"
  type: "Accuracy"
  bottom: "fc5"
  bottom: "label"
  top: "accuracy"
  include {
    phase: TEST
  }
}
I0520 00:38:37.347144 12877 layer_factory.hpp:77] Creating layer data
I0520 00:38:37.347167 12877 net.cpp:86] Creating Layer data
I0520 00:38:37.347172 12877 net.cpp:382] data -> data
I0520 00:38:37.347178 12877 net.cpp:382] data -> label
I0520 00:38:37.347187 12877 image_data_layer.cpp:38] Opening file /home/hao/deep-parking/splits/PKLot/val.txt
I0520 00:38:37.401396 12877 image_data_layer.cpp:53] Shuffling data
I0520 00:38:37.438181 12877 image_data_layer.cpp:63] A total of 102362 images.
I0520 00:38:37.438212 12877 image_data_layer.cpp:70] Skipping first 21 data points.
I0520 00:38:37.438534 12877 image_data_layer.cpp:90] output data size: 100,3,224,224
I0520 00:38:37.438647 12877 net.cpp:124] Setting up data
I0520 00:38:37.438665 12877 net.cpp:131] Top shape: 100 3 224 224 (15052800)
I0520 00:38:37.438700 12877 net.cpp:131] Top shape: 100 (100)
I0520 00:38:37.438705 12877 net.cpp:139] Memory required for data: 60211600
I0520 00:38:37.438710 12877 layer_factory.hpp:77] Creating layer label_data_1_split
I0520 00:38:37.438728 12877 net.cpp:86] Creating Layer label_data_1_split
I0520 00:38:37.438741 12877 net.cpp:408] label_data_1_split <- label
I0520 00:38:37.438753 12877 net.cpp:382] label_data_1_split -> label_data_1_split_0
I0520 00:38:37.438766 12877 net.cpp:382] label_data_1_split -> label_data_1_split_1
I0520 00:38:37.438779 12877 net.cpp:124] Setting up label_data_1_split
I0520 00:38:37.438787 12877 net.cpp:131] Top shape: 100 (100)
I0520 00:38:37.438792 12877 net.cpp:131] Top shape: 100 (100)
I0520 00:38:37.438798 12877 net.cpp:139] Memory required for data: 60212400
I0520 00:38:37.438803 12877 layer_factory.hpp:77] Creating layer conv1
I0520 00:38:37.438822 12877 net.cpp:86] Creating Layer conv1
I0520 00:38:37.438829 12877 net.cpp:408] conv1 <- data
I0520 00:38:37.438840 12877 net.cpp:382] conv1 -> conv1
I0520 00:38:37.438911 12877 net.cpp:124] Setting up conv1
I0520 00:38:37.438920 12877 net.cpp:131] Top shape: 100 16 54 54 (4665600)
I0520 00:38:37.438925 12877 net.cpp:139] Memory required for data: 78874800
I0520 00:38:37.438935 12877 layer_factory.hpp:77] Creating layer relu1
I0520 00:38:37.438941 12877 net.cpp:86] Creating Layer relu1
I0520 00:38:37.438944 12877 net.cpp:408] relu1 <- conv1
I0520 00:38:37.438949 12877 net.cpp:369] relu1 -> conv1 (in-place)
I0520 00:38:37.438956 12877 net.cpp:124] Setting up relu1
I0520 00:38:37.438961 12877 net.cpp:131] Top shape: 100 16 54 54 (4665600)
I0520 00:38:37.438963 12877 net.cpp:139] Memory required for data: 97537200
I0520 00:38:37.438969 12877 layer_factory.hpp:77] Creating layer pool1
I0520 00:38:37.438977 12877 net.cpp:86] Creating Layer pool1
I0520 00:38:37.438980 12877 net.cpp:408] pool1 <- conv1
I0520 00:38:37.438984 12877 net.cpp:382] pool1 -> pool1
I0520 00:38:37.438995 12877 net.cpp:124] Setting up pool1
I0520 00:38:37.439002 12877 net.cpp:131] Top shape: 100 16 27 27 (1166400)
I0520 00:38:37.439005 12877 net.cpp:139] Memory required for data: 102202800
I0520 00:38:37.439008 12877 layer_factory.hpp:77] Creating layer conv2
I0520 00:38:37.439016 12877 net.cpp:86] Creating Layer conv2
I0520 00:38:37.439020 12877 net.cpp:408] conv2 <- pool1
I0520 00:38:37.439026 12877 net.cpp:382] conv2 -> conv2
I0520 00:38:37.439082 12877 net.cpp:124] Setting up conv2
I0520 00:38:37.439088 12877 net.cpp:131] Top shape: 100 20 23 23 (1058000)
I0520 00:38:37.439092 12877 net.cpp:139] Memory required for data: 106434800
I0520 00:38:37.439097 12877 layer_factory.hpp:77] Creating layer relu2
I0520 00:38:37.439102 12877 net.cpp:86] Creating Layer relu2
I0520 00:38:37.439105 12877 net.cpp:408] relu2 <- conv2
I0520 00:38:37.439108 12877 net.cpp:369] relu2 -> conv2 (in-place)
I0520 00:38:37.439112 12877 net.cpp:124] Setting up relu2
I0520 00:38:37.439119 12877 net.cpp:131] Top shape: 100 20 23 23 (1058000)
I0520 00:38:37.439122 12877 net.cpp:139] Memory required for data: 110666800
I0520 00:38:37.439126 12877 layer_factory.hpp:77] Creating layer pool2
I0520 00:38:37.439129 12877 net.cpp:86] Creating Layer pool2
I0520 00:38:37.439134 12877 net.cpp:408] pool2 <- conv2
I0520 00:38:37.439139 12877 net.cpp:382] pool2 -> pool2
I0520 00:38:37.439146 12877 net.cpp:124] Setting up pool2
I0520 00:38:37.439153 12877 net.cpp:131] Top shape: 100 20 11 11 (242000)
I0520 00:38:37.439157 12877 net.cpp:139] Memory required for data: 111634800
I0520 00:38:37.439159 12877 layer_factory.hpp:77] Creating layer conv3
I0520 00:38:37.439169 12877 net.cpp:86] Creating Layer conv3
I0520 00:38:37.439173 12877 net.cpp:408] conv3 <- pool2
I0520 00:38:37.439179 12877 net.cpp:382] conv3 -> conv3
I0520 00:38:37.439224 12877 net.cpp:124] Setting up conv3
I0520 00:38:37.439230 12877 net.cpp:131] Top shape: 100 30 9 9 (243000)
I0520 00:38:37.439235 12877 net.cpp:139] Memory required for data: 112606800
I0520 00:38:37.439242 12877 layer_factory.hpp:77] Creating layer relu3
I0520 00:38:37.439260 12877 net.cpp:86] Creating Layer relu3
I0520 00:38:37.439265 12877 net.cpp:408] relu3 <- conv3
I0520 00:38:37.439270 12877 net.cpp:369] relu3 -> conv3 (in-place)
I0520 00:38:37.439275 12877 net.cpp:124] Setting up relu3
I0520 00:38:37.439281 12877 net.cpp:131] Top shape: 100 30 9 9 (243000)
I0520 00:38:37.439285 12877 net.cpp:139] Memory required for data: 113578800
I0520 00:38:37.439290 12877 layer_factory.hpp:77] Creating layer pool3
I0520 00:38:37.439293 12877 net.cpp:86] Creating Layer pool3
I0520 00:38:37.439297 12877 net.cpp:408] pool3 <- conv3
I0520 00:38:37.439302 12877 net.cpp:382] pool3 -> pool3
I0520 00:38:37.439311 12877 net.cpp:124] Setting up pool3
I0520 00:38:37.439316 12877 net.cpp:131] Top shape: 100 30 4 4 (48000)
I0520 00:38:37.439321 12877 net.cpp:139] Memory required for data: 113770800
I0520 00:38:37.439324 12877 layer_factory.hpp:77] Creating layer fc4
I0520 00:38:37.439332 12877 net.cpp:86] Creating Layer fc4
I0520 00:38:37.439335 12877 net.cpp:408] fc4 <- pool3
I0520 00:38:37.439340 12877 net.cpp:382] fc4 -> fc4
I0520 00:38:37.439465 12877 net.cpp:124] Setting up fc4
I0520 00:38:37.439471 12877 net.cpp:131] Top shape: 100 48 (4800)
I0520 00:38:37.439474 12877 net.cpp:139] Memory required for data: 113790000
I0520 00:38:37.439478 12877 layer_factory.hpp:77] Creating layer relu4
I0520 00:38:37.439483 12877 net.cpp:86] Creating Layer relu4
I0520 00:38:37.439486 12877 net.cpp:408] relu4 <- fc4
I0520 00:38:37.439491 12877 net.cpp:369] relu4 -> fc4 (in-place)
I0520 00:38:37.439496 12877 net.cpp:124] Setting up relu4
I0520 00:38:37.439498 12877 net.cpp:131] Top shape: 100 48 (4800)
I0520 00:38:37.439504 12877 net.cpp:139] Memory required for data: 113809200
I0520 00:38:37.439508 12877 layer_factory.hpp:77] Creating layer fc5
I0520 00:38:37.439513 12877 net.cpp:86] Creating Layer fc5
I0520 00:38:37.439517 12877 net.cpp:408] fc5 <- fc4
I0520 00:38:37.439523 12877 net.cpp:382] fc5 -> fc5
I0520 00:38:37.439534 12877 net.cpp:124] Setting up fc5
I0520 00:38:37.439539 12877 net.cpp:131] Top shape: 100 2 (200)
I0520 00:38:37.439543 12877 net.cpp:139] Memory required for data: 113810000
I0520 00:38:37.439548 12877 layer_factory.hpp:77] Creating layer fc5_fc5_0_split
I0520 00:38:37.439553 12877 net.cpp:86] Creating Layer fc5_fc5_0_split
I0520 00:38:37.439558 12877 net.cpp:408] fc5_fc5_0_split <- fc5
I0520 00:38:37.439561 12877 net.cpp:382] fc5_fc5_0_split -> fc5_fc5_0_split_0
I0520 00:38:37.439568 12877 net.cpp:382] fc5_fc5_0_split -> fc5_fc5_0_split_1
I0520 00:38:37.439577 12877 net.cpp:124] Setting up fc5_fc5_0_split
I0520 00:38:37.439582 12877 net.cpp:131] Top shape: 100 2 (200)
I0520 00:38:37.439586 12877 net.cpp:131] Top shape: 100 2 (200)
I0520 00:38:37.439589 12877 net.cpp:139] Memory required for data: 113811600
I0520 00:38:37.439592 12877 layer_factory.hpp:77] Creating layer loss
I0520 00:38:37.439599 12877 net.cpp:86] Creating Layer loss
I0520 00:38:37.439604 12877 net.cpp:408] loss <- fc5_fc5_0_split_0
I0520 00:38:37.439607 12877 net.cpp:408] loss <- label_data_1_split_0
I0520 00:38:37.439615 12877 net.cpp:382] loss -> loss
…
