…
I0519 21:25:01.307843  5930 net.cpp:53] Initializing net from parameters: 
name: "mAlexNet"
state {
  phase: TRAIN
  level: 0
  stage: ""
}
layer {
  name: "data"
  type: "ImageData"
  top: "data"
  top: "label"
  include {
    phase: TRAIN
  }
  transform_param {
    scale: 0.00390625
    mirror: true
    crop_size: 224
  }
  image_data_param {
    source: "/home/hao/deep-parking/splits/PKLot/UFPR05_train.txt"
    batch_size: 64
    rand_skip: 64
    shuffle: true
    new_height: 256
    new_width: 256
    root_folder: "/home/hao/Documents/CV/PKLot/PKLotSegmented/"
  }
}
layer {
  name: "conv1"
  type: "Convolution"
  bottom: "data"
  top: "conv1"
  param {
    lr_mult: 1
    decay_mult: 1
  }
  param {
    lr_mult: 2
    decay_mult: 0
  }
  convolution_param {
    num_output: 16
    kernel_size: 11
    stride: 4
    weight_filler {
      type: "xavier"
    }
    bias_filler {
      type: "constant"
      value: 1
    }
  }
}
layer {
  name: "relu1"
  type: "ReLU"
  bottom: "conv1"
  top: "conv1"
}
layer {
  name: "pool1"
  type: "Pooling"
  bottom: "conv1"
  top: "pool1"
  pooling_param {
    pool: MAX
    kernel_size: 3
    stride: 2
  }
}
layer {
  name: "conv2"
  type: "Convolution"
  bottom: "pool1"
  top: "conv2"
  param {
    lr_mult: 1
    decay_mult: 1
  }
  param {
    lr_mult: 2
    decay_mult: 0
  }
  convolution_param {
    num_output: 20
    kernel_size: 5
    stride: 1
    weight_filler {
      type: "xavier"
    }
    bias_filler {
      type: "constant"
      value: 1
    }
  }
}
layer {
  name: "relu2"
  type: "ReLU"
  bottom: "conv2"
  top: "conv2"
}
layer {
  name: "pool2"
  type: "Pooling"
  bottom: "conv2"
  top: "pool2"
  pooling_param {
    pool: MAX
    kernel_size: 3
    stride: 2
  }
}
layer {
  name: "conv3"
  type: "Convolution"
  bottom: "pool2"
  top: "conv3"
  param {
    lr_mult: 1
    decay_mult: 1
  }
  param {
    lr_mult: 2
    decay_mult: 0
  }
  convolution_param {
    num_output: 30
    kernel_size: 3
    stride: 1
    weight_filler {
      type: "xavier"
    }
    bias_filler {
      type: "constant"
      value: 1
    }
  }
}
layer {
  name: "relu3"
  type: "ReLU"
  bottom: "conv3"
  top: "conv3"
}
layer {
  name: "pool3"
  type: "Pooling"
  bottom: "conv3"
  top: "pool3"
  pooling_param {
    pool: MAX
    kernel_size: 3
    stride: 2
  }
}
layer {
  name: "fc4"
  type: "InnerProduct"
  bottom: "pool3"
  top: "fc4"
  param {
    lr_mult: 1
    decay_mult: 1
  }
  param {
    lr_mult: 2
    decay_mult: 1
  }
  inner_product_param {
    num_output: 48
    weight_filler {
      type: "xavier"
    }
    bias_filler {
      type: "constant"
      value: 1
    }
  }
}
layer {
  name: "relu4"
  type: "ReLU"
  bottom: "fc4"
  top: "fc4"
}
layer {
  name: "fc5"
  type: "InnerProduct"
  bottom: "fc4"
  top: "fc5"
  param {
    lr_mult: 1
    decay_mult: 1
  }
  param {
    lr_mult: 2
    decay_mult: 1
  }
  inner_product_param {
    num_output: 2
    weight_filler {
      type: "xavier"
    }
    bias_filler {
      type: "constant"
      value: 1
    }
  }
}
layer {
  name: "loss"
  type: "SoftmaxWithLoss"
  bottom: "fc5"
  bottom: "label"
  top: "loss"
}
I0519 21:25:01.307907  5930 layer_factory.hpp:77] Creating layer data
I0519 21:25:01.307929  5930 net.cpp:86] Creating Layer data
I0519 21:25:01.307935  5930 net.cpp:382] data -> data
I0519 21:25:01.307952  5930 net.cpp:382] data -> label
I0519 21:25:01.307967  5930 image_data_layer.cpp:38] Opening file /home/hao/deep-parking/splits/PKLot/UFPR05_train.txt
I0519 21:25:01.334609  5930 image_data_layer.cpp:53] Shuffling data
I0519 21:25:01.363970  5930 image_data_layer.cpp:63] A total of 93955 images.
I0519 21:25:01.364002  5930 image_data_layer.cpp:70] Skipping first 40 data points.
I0519 21:25:01.364846  5930 image_data_layer.cpp:90] output data size: 64,3,224,224
I0519 21:25:01.364960  5930 net.cpp:124] Setting up data
I0519 21:25:01.364995  5930 net.cpp:131] Top shape: 64 3 224 224 (9633792)
I0519 21:25:01.365000  5930 net.cpp:131] Top shape: 64 (64)
I0519 21:25:01.365003  5930 net.cpp:139] Memory required for data: 38535424
I0519 21:25:01.365010  5930 layer_factory.hpp:77] Creating layer conv1
I0519 21:25:01.365033  5930 net.cpp:86] Creating Layer conv1
I0519 21:25:01.365051  5930 net.cpp:408] conv1 <- data
I0519 21:25:01.365073  5930 net.cpp:382] conv1 -> conv1
I0519 21:25:01.365154  5930 net.cpp:124] Setting up conv1
I0519 21:25:01.365161  5930 net.cpp:131] Top shape: 64 16 54 54 (2985984)
I0519 21:25:01.365175  5930 net.cpp:139] Memory required for data: 50479360
I0519 21:25:01.365186  5930 layer_factory.hpp:77] Creating layer relu1
I0519 21:25:01.365195  5930 net.cpp:86] Creating Layer relu1
I0519 21:25:01.365200  5930 net.cpp:408] relu1 <- conv1
I0519 21:25:01.365204  5930 net.cpp:369] relu1 -> conv1 (in-place)
I0519 21:25:01.365209  5930 net.cpp:124] Setting up relu1
I0519 21:25:01.365216  5930 net.cpp:131] Top shape: 64 16 54 54 (2985984)
I0519 21:25:01.365218  5930 net.cpp:139] Memory required for data: 62423296
I0519 21:25:01.365221  5930 layer_factory.hpp:77] Creating layer pool1
I0519 21:25:01.365226  5930 net.cpp:86] Creating Layer pool1
I0519 21:25:01.365231  5930 net.cpp:408] pool1 <- conv1
I0519 21:25:01.365236  5930 net.cpp:382] pool1 -> pool1
I0519 21:25:01.365257  5930 net.cpp:124] Setting up pool1
I0519 21:25:01.365262  5930 net.cpp:131] Top shape: 64 16 27 27 (746496)
I0519 21:25:01.365265  5930 net.cpp:139] Memory required for data: 65409280
I0519 21:25:01.365270  5930 layer_factory.hpp:77] Creating layer conv2
I0519 21:25:01.365278  5930 net.cpp:86] Creating Layer conv2
I0519 21:25:01.365283  5930 net.cpp:408] conv2 <- pool1
I0519 21:25:01.365288  5930 net.cpp:382] conv2 -> conv2
I0519 21:25:01.365347  5930 net.cpp:124] Setting up conv2
I0519 21:25:01.365353  5930 net.cpp:131] Top shape: 64 20 23 23 (677120)
I0519 21:25:01.365358  5930 net.cpp:139] Memory required for data: 68117760
I0519 21:25:01.365363  5930 layer_factory.hpp:77] Creating layer relu2
I0519 21:25:01.365370  5930 net.cpp:86] Creating Layer relu2
I0519 21:25:01.365375  5930 net.cpp:408] relu2 <- conv2
I0519 21:25:01.365378  5930 net.cpp:369] relu2 -> conv2 (in-place)
I0519 21:25:01.365383  5930 net.cpp:124] Setting up relu2
I0519 21:25:01.365389  5930 net.cpp:131] Top shape: 64 20 23 23 (677120)
I0519 21:25:01.365392  5930 net.cpp:139] Memory required for data: 70826240
I0519 21:25:01.365396  5930 layer_factory.hpp:77] Creating layer pool2
I0519 21:25:01.365401  5930 net.cpp:86] Creating Layer pool2
I0519 21:25:01.365406  5930 net.cpp:408] pool2 <- conv2
I0519 21:25:01.365411  5930 net.cpp:382] pool2 -> pool2
I0519 21:25:01.365418  5930 net.cpp:124] Setting up pool2
I0519 21:25:01.365423  5930 net.cpp:131] Top shape: 64 20 11 11 (154880)
I0519 21:25:01.365427  5930 net.cpp:139] Memory required for data: 71445760
I0519 21:25:01.365430  5930 layer_factory.hpp:77] Creating layer conv3
I0519 21:25:01.365438  5930 net.cpp:86] Creating Layer conv3
I0519 21:25:01.365442  5930 net.cpp:408] conv3 <- pool2
I0519 21:25:01.365448  5930 net.cpp:382] conv3 -> conv3
I0519 21:25:01.365491  5930 net.cpp:124] Setting up conv3
I0519 21:25:01.365497  5930 net.cpp:131] Top shape: 64 30 9 9 (155520)
I0519 21:25:01.365502  5930 net.cpp:139] Memory required for data: 72067840
I0519 21:25:01.365526  5930 layer_factory.hpp:77] Creating layer relu3
I0519 21:25:01.365535  5930 net.cpp:86] Creating Layer relu3
I0519 21:25:01.365538  5930 net.cpp:408] relu3 <- conv3
I0519 21:25:01.365542  5930 net.cpp:369] relu3 -> conv3 (in-place)
I0519 21:25:01.365548  5930 net.cpp:124] Setting up relu3
I0519 21:25:01.365553  5930 net.cpp:131] Top shape: 64 30 9 9 (155520)
I0519 21:25:01.365567  5930 net.cpp:139] Memory required for data: 72689920
I0519 21:25:01.365574  5930 layer_factory.hpp:77] Creating layer pool3
I0519 21:25:01.365581  5930 net.cpp:86] Creating Layer pool3
I0519 21:25:01.365586  5930 net.cpp:408] pool3 <- conv3
I0519 21:25:01.365592  5930 net.cpp:382] pool3 -> pool3
I0519 21:25:01.365600  5930 net.cpp:124] Setting up pool3
I0519 21:25:01.365605  5930 net.cpp:131] Top shape: 64 30 4 4 (30720)
I0519 21:25:01.365610  5930 net.cpp:139] Memory required for data: 72812800
I0519 21:25:01.365613  5930 layer_factory.hpp:77] Creating layer fc4
I0519 21:25:01.365619  5930 net.cpp:86] Creating Layer fc4
I0519 21:25:01.365624  5930 net.cpp:408] fc4 <- pool3
I0519 21:25:01.365629  5930 net.cpp:382] fc4 -> fc4
I0519 21:25:01.365763  5930 net.cpp:124] Setting up fc4
I0519 21:25:01.365769  5930 net.cpp:131] Top shape: 64 48 (3072)
I0519 21:25:01.365782  5930 net.cpp:139] Memory required for data: 72825088
I0519 21:25:01.365787  5930 layer_factory.hpp:77] Creating layer relu4
I0519 21:25:01.365792  5930 net.cpp:86] Creating Layer relu4
I0519 21:25:01.365795  5930 net.cpp:408] relu4 <- fc4
I0519 21:25:01.365800  5930 net.cpp:369] relu4 -> fc4 (in-place)
I0519 21:25:01.365805  5930 net.cpp:124] Setting up relu4
I0519 21:25:01.365811  5930 net.cpp:131] Top shape: 64 48 (3072)
I0519 21:25:01.365814  5930 net.cpp:139] Memory required for data: 72837376
I0519 21:25:01.365818  5930 layer_factory.hpp:77] Creating layer fc5
I0519 21:25:01.365823  5930 net.cpp:86] Creating Layer fc5
I0519 21:25:01.365826  5930 net.cpp:408] fc5 <- fc4
I0519 21:25:01.365831  5930 net.cpp:382] fc5 -> fc5
I0519 21:25:01.365844  5930 net.cpp:124] Setting up fc5
I0519 21:25:01.365849  5930 net.cpp:131] Top shape: 64 2 (128)
I0519 21:25:01.365851  5930 net.cpp:139] Memory required for data: 72837888
I0519 21:25:01.365856  5930 layer_factory.hpp:77] Creating layer loss
I0519 21:25:01.365861  5930 net.cpp:86] Creating Layer loss
I0519 21:25:01.365865  5930 net.cpp:408] loss <- fc5
I0519 21:25:01.365869  5930 net.cpp:408] loss <- label
I0519 21:25:01.365873  5930 net.cpp:382] loss -> loss
I0519 21:25:01.365883  5930 layer_factory.hpp:77] Creating layer loss
…
I0519 21:25:01.366286  5930 solver.cpp:190] Creating test net (#0) specified by test_net file: val-PKLot_val.prototxt
I0519 21:25:01.366422  5930 net.cpp:53] Initializing net from parameters: 
name: "mAlexNet"
state {
  phase: TEST
}
layer {
  name: "data"
  type: "ImageData"
  top: "data"
  top: "label"
  include {
    phase: TEST
  }
  transform_param {
    scale: 0.00390625
    mirror: false
    crop_size: 224
  }
  image_data_param {
    source: "/home/hao/deep-parking/splits/PKLot/val.txt"
    batch_size: 100
    rand_skip: 100
    shuffle: true
    new_height: 256
    new_width: 256
    root_folder: "/home/hao/Documents/CV/PKLot/PKLotSegmented/"
  }
}
layer {
  name: "conv1"
  type: "Convolution"
  bottom: "data"
  top: "conv1"
  param {
    lr_mult: 1
    decay_mult: 1
  }
  param {
    lr_mult: 2
    decay_mult: 0
  }
  convolution_param {
    num_output: 16
    kernel_size: 11
    stride: 4
    weight_filler {
      type: "xavier"
    }
    bias_filler {
      type: "constant"
      value: 1
    }
  }
}
layer {
  name: "relu1"
  type: "ReLU"
  bottom: "conv1"
  top: "conv1"
}
layer {
  name: "pool1"
  type: "Pooling"
  bottom: "conv1"
  top: "pool1"
  pooling_param {
    pool: MAX
    kernel_size: 3
    stride: 2
  }
}
layer {
  name: "conv2"
  type: "Convolution"
  bottom: "pool1"
  top: "conv2"
  param {
    lr_mult: 1
    decay_mult: 1
  }
  param {
    lr_mult: 2
    decay_mult: 0
  }
  convolution_param {
    num_output: 20
    kernel_size: 5
    stride: 1
    weight_filler {
      type: "xavier"
    }
    bias_filler {
      type: "constant"
      value: 1
    }
  }
}
layer {
  name: "relu2"
  type: "ReLU"
  bottom: "conv2"
  top: "conv2"
}
layer {
  name: "pool2"
  type: "Pooling"
  bottom: "conv2"
  top: "pool2"
  pooling_param {
    pool: MAX
    kernel_size: 3
    stride: 2
  }
}
layer {
  name: "conv3"
  type: "Convolution"
  bottom: "pool2"
  top: "conv3"
  param {
    lr_mult: 1
    decay_mult: 1
  }
  param {
    lr_mult: 2
    decay_mult: 0
  }
  convolution_param {
    num_output: 30
    kernel_size: 3
    stride: 1
    weight_filler {
      type: "xavier"
    }
    bias_filler {
      type: "constant"
      value: 1
    }
  }
}
layer {
  name: "relu3"
  type: "ReLU"
  bottom: "conv3"
  top: "conv3"
}
layer {
  name: "pool3"
  type: "Pooling"
  bottom: "conv3"
  top: "pool3"
  pooling_param {
    pool: MAX
    kernel_size: 3
    stride: 2
  }
}
layer {
  name: "fc4"
  type: "InnerProduct"
  bottom: "pool3"
  top: "fc4"
  param {
    lr_mult: 1
    decay_mult: 1
  }
  param {
    lr_mult: 2
    decay_mult: 1
  }
  inner_product_param {
    num_output: 48
    weight_filler {
      type: "xavier"
    }
    bias_filler {
      type: "constant"
      value: 1
    }
  }
}
layer {
  name: "relu4"
  type: "ReLU"
  bottom: "fc4"
  top: "fc4"
}
layer {
  name: "fc5"
  type: "InnerProduct"
  bottom: "fc4"
  top: "fc5"
  param {
    lr_mult: 1
    decay_mult: 1
  }
  param {
    lr_mult: 2
    decay_mult: 1
  }
  inner_product_param {
    num_output: 2
    weight_filler {
      type: "xavier"
    }
    bias_filler {
      type: "constant"
      value: 1
    }
  }
}
layer {
  name: "loss"
  type: "SoftmaxWithLoss"
  bottom: "fc5"
  bottom: "label"
  top: "loss"
}
layer {
  name: "accuracy"
  type: "Accuracy"
  bottom: "fc5"
  bottom: "label"
  top: "accuracy"
  include {
    phase: TEST
  }
}
I0519 21:25:01.366513  5930 layer_factory.hpp:77] Creating layer data
I0519 21:25:01.366536  5930 net.cpp:86] Creating Layer data
I0519 21:25:01.366541  5930 net.cpp:382] data -> data
I0519 21:25:01.366549  5930 net.cpp:382] data -> label
I0519 21:25:01.366554  5930 image_data_layer.cpp:38] Opening file /home/hao/deep-parking/splits/PKLot/val.txt
I0519 21:25:01.419068  5930 image_data_layer.cpp:53] Shuffling data
I0519 21:25:01.456724  5930 image_data_layer.cpp:63] A total of 102362 images.
I0519 21:25:01.456746  5930 image_data_layer.cpp:70] Skipping first 21 data points.
I0519 21:25:01.457089  5930 image_data_layer.cpp:90] output data size: 100,3,224,224
I0519 21:25:01.457163  5930 net.cpp:124] Setting up data
I0519 21:25:01.457175  5930 net.cpp:131] Top shape: 100 3 224 224 (15052800)
I0519 21:25:01.457198  5930 net.cpp:131] Top shape: 100 (100)
I0519 21:25:01.457201  5930 net.cpp:139] Memory required for data: 60211600
I0519 21:25:01.457208  5930 layer_factory.hpp:77] Creating layer label_data_1_split
I0519 21:25:01.457221  5930 net.cpp:86] Creating Layer label_data_1_split
I0519 21:25:01.457227  5930 net.cpp:408] label_data_1_split <- label
I0519 21:25:01.457235  5930 net.cpp:382] label_data_1_split -> label_data_1_split_0
I0519 21:25:01.457245  5930 net.cpp:382] label_data_1_split -> label_data_1_split_1
I0519 21:25:01.457255  5930 net.cpp:124] Setting up label_data_1_split
I0519 21:25:01.457259  5930 net.cpp:131] Top shape: 100 (100)
I0519 21:25:01.457263  5930 net.cpp:131] Top shape: 100 (100)
I0519 21:25:01.457267  5930 net.cpp:139] Memory required for data: 60212400
I0519 21:25:01.457269  5930 layer_factory.hpp:77] Creating layer conv1
I0519 21:25:01.457283  5930 net.cpp:86] Creating Layer conv1
I0519 21:25:01.457288  5930 net.cpp:408] conv1 <- data
I0519 21:25:01.457294  5930 net.cpp:382] conv1 -> conv1
I0519 21:25:01.457355  5930 net.cpp:124] Setting up conv1
I0519 21:25:01.457362  5930 net.cpp:131] Top shape: 100 16 54 54 (4665600)
I0519 21:25:01.457365  5930 net.cpp:139] Memory required for data: 78874800
I0519 21:25:01.457374  5930 layer_factory.hpp:77] Creating layer relu1
I0519 21:25:01.457379  5930 net.cpp:86] Creating Layer relu1
I0519 21:25:01.457383  5930 net.cpp:408] relu1 <- conv1
I0519 21:25:01.457387  5930 net.cpp:369] relu1 -> conv1 (in-place)
I0519 21:25:01.457396  5930 net.cpp:124] Setting up relu1
I0519 21:25:01.457401  5930 net.cpp:131] Top shape: 100 16 54 54 (4665600)
I0519 21:25:01.457406  5930 net.cpp:139] Memory required for data: 97537200
I0519 21:25:01.457409  5930 layer_factory.hpp:77] Creating layer pool1
I0519 21:25:01.457417  5930 net.cpp:86] Creating Layer pool1
I0519 21:25:01.457422  5930 net.cpp:408] pool1 <- conv1
I0519 21:25:01.457427  5930 net.cpp:382] pool1 -> pool1
I0519 21:25:01.457437  5930 net.cpp:124] Setting up pool1
I0519 21:25:01.457442  5930 net.cpp:131] Top shape: 100 16 27 27 (1166400)
I0519 21:25:01.457448  5930 net.cpp:139] Memory required for data: 102202800
I0519 21:25:01.457451  5930 layer_factory.hpp:77] Creating layer conv2
I0519 21:25:01.457459  5930 net.cpp:86] Creating Layer conv2
I0519 21:25:01.457463  5930 net.cpp:408] conv2 <- pool1
I0519 21:25:01.457469  5930 net.cpp:382] conv2 -> conv2
I0519 21:25:01.457531  5930 net.cpp:124] Setting up conv2
I0519 21:25:01.457538  5930 net.cpp:131] Top shape: 100 20 23 23 (1058000)
I0519 21:25:01.457542  5930 net.cpp:139] Memory required for data: 106434800
I0519 21:25:01.457549  5930 layer_factory.hpp:77] Creating layer relu2
I0519 21:25:01.457572  5930 net.cpp:86] Creating Layer relu2
I0519 21:25:01.457579  5930 net.cpp:408] relu2 <- conv2
I0519 21:25:01.457587  5930 net.cpp:369] relu2 -> conv2 (in-place)
I0519 21:25:01.457594  5930 net.cpp:124] Setting up relu2
I0519 21:25:01.457599  5930 net.cpp:131] Top shape: 100 20 23 23 (1058000)
I0519 21:25:01.457604  5930 net.cpp:139] Memory required for data: 110666800
I0519 21:25:01.457607  5930 layer_factory.hpp:77] Creating layer pool2
I0519 21:25:01.457612  5930 net.cpp:86] Creating Layer pool2
I0519 21:25:01.457615  5930 net.cpp:408] pool2 <- conv2
I0519 21:25:01.457620  5930 net.cpp:382] pool2 -> pool2
I0519 21:25:01.457628  5930 net.cpp:124] Setting up pool2
I0519 21:25:01.457633  5930 net.cpp:131] Top shape: 100 20 11 11 (242000)
I0519 21:25:01.457638  5930 net.cpp:139] Memory required for data: 111634800
I0519 21:25:01.457640  5930 layer_factory.hpp:77] Creating layer conv3
I0519 21:25:01.457648  5930 net.cpp:86] Creating Layer conv3
I0519 21:25:01.457653  5930 net.cpp:408] conv3 <- pool2
I0519 21:25:01.457659  5930 net.cpp:382] conv3 -> conv3
I0519 21:25:01.457703  5930 net.cpp:124] Setting up conv3
I0519 21:25:01.457708  5930 net.cpp:131] Top shape: 100 30 9 9 (243000)
I0519 21:25:01.457713  5930 net.cpp:139] Memory required for data: 112606800
I0519 21:25:01.457720  5930 layer_factory.hpp:77] Creating layer relu3
I0519 21:25:01.457742  5930 net.cpp:86] Creating Layer relu3
I0519 21:25:01.457747  5930 net.cpp:408] relu3 <- conv3
I0519 21:25:01.457751  5930 net.cpp:369] relu3 -> conv3 (in-place)
I0519 21:25:01.457757  5930 net.cpp:124] Setting up relu3
I0519 21:25:01.457762  5930 net.cpp:131] Top shape: 100 30 9 9 (243000)
I0519 21:25:01.457767  5930 net.cpp:139] Memory required for data: 113578800
I0519 21:25:01.457770  5930 layer_factory.hpp:77] Creating layer pool3
I0519 21:25:01.457774  5930 net.cpp:86] Creating Layer pool3
I0519 21:25:01.457778  5930 net.cpp:408] pool3 <- conv3
I0519 21:25:01.457783  5930 net.cpp:382] pool3 -> pool3
I0519 21:25:01.457792  5930 net.cpp:124] Setting up pool3
I0519 21:25:01.457798  5930 net.cpp:131] Top shape: 100 30 4 4 (48000)
I0519 21:25:01.457801  5930 net.cpp:139] Memory required for data: 113770800
I0519 21:25:01.457804  5930 layer_factory.hpp:77] Creating layer fc4
I0519 21:25:01.457810  5930 net.cpp:86] Creating Layer fc4
I0519 21:25:01.457815  5930 net.cpp:408] fc4 <- pool3
I0519 21:25:01.457820  5930 net.cpp:382] fc4 -> fc4
I0519 21:25:01.457944  5930 net.cpp:124] Setting up fc4
I0519 21:25:01.457949  5930 net.cpp:131] Top shape: 100 48 (4800)
I0519 21:25:01.457952  5930 net.cpp:139] Memory required for data: 113790000
I0519 21:25:01.457957  5930 layer_factory.hpp:77] Creating layer relu4
I0519 21:25:01.457962  5930 net.cpp:86] Creating Layer relu4
I0519 21:25:01.457964  5930 net.cpp:408] relu4 <- fc4
I0519 21:25:01.457969  5930 net.cpp:369] relu4 -> fc4 (in-place)
I0519 21:25:01.457973  5930 net.cpp:124] Setting up relu4
I0519 21:25:01.457976  5930 net.cpp:131] Top shape: 100 48 (4800)
I0519 21:25:01.457979  5930 net.cpp:139] Memory required for data: 113809200
I0519 21:25:01.457983  5930 layer_factory.hpp:77] Creating layer fc5
I0519 21:25:01.457991  5930 net.cpp:86] Creating Layer fc5
I0519 21:25:01.457996  5930 net.cpp:408] fc5 <- fc4
I0519 21:25:01.458003  5930 net.cpp:382] fc5 -> fc5
I0519 21:25:01.458014  5930 net.cpp:124] Setting up fc5
I0519 21:25:01.458017  5930 net.cpp:131] Top shape: 100 2 (200)
I0519 21:25:01.458020  5930 net.cpp:139] Memory required for data: 113810000
I0519 21:25:01.458025  5930 layer_factory.hpp:77] Creating layer fc5_fc5_0_split
I0519 21:25:01.458030  5930 net.cpp:86] Creating Layer fc5_fc5_0_split
I0519 21:25:01.458034  5930 net.cpp:408] fc5_fc5_0_split <- fc5
I0519 21:25:01.458039  5930 net.cpp:382] fc5_fc5_0_split -> fc5_fc5_0_split_0
I0519 21:25:01.458046  5930 net.cpp:382] fc5_fc5_0_split -> fc5_fc5_0_split_1
I0519 21:25:01.458053  5930 net.cpp:124] Setting up fc5_fc5_0_split
I0519 21:25:01.458058  5930 net.cpp:131] Top shape: 100 2 (200)
I0519 21:25:01.458061  5930 net.cpp:131] Top shape: 100 2 (200)
I0519 21:25:01.458065  5930 net.cpp:139] Memory required for data: 113811600
I0519 21:25:01.458067  5930 layer_factory.hpp:77] Creating layer loss
I0519 21:25:01.458072  5930 net.cpp:86] Creating Layer loss
I0519 21:25:01.458076  5930 net.cpp:408] loss <- fc5_fc5_0_split_0
I0519 21:25:01.458081  5930 net.cpp:408] loss <- label_data_1_split_0
I0519 21:25:01.458087  5930 net.cpp:382] loss -> loss
…
