…
I0519 00:25:34.837534 19990 net.cpp:53] Initializing net from parameters: 
name: "mAlexNet"
state {
  phase: TRAIN
  level: 0
  stage: ""
}
layer {
  name: "data"
  type: "ImageData"
  top: "data"
  top: "label"
  include {
    phase: TRAIN
  }
  transform_param {
    scale: 0.00390625
    mirror: true
    crop_size: 224
  }
  image_data_param {
    source: "/home/hao/deep-parking/splits/PKLot/UFPR04_train.txt"
    batch_size: 64
    rand_skip: 64
    shuffle: true
    new_height: 256
    new_width: 256
    root_folder: "/home/hao/Documents/CV/PKLot/PKLotSegmented/"
  }
}
layer {
  name: "conv1"
  type: "Convolution"
  bottom: "data"
  top: "conv1"
  param {
    lr_mult: 1
    decay_mult: 1
  }
  param {
    lr_mult: 2
    decay_mult: 0
  }
  convolution_param {
    num_output: 16
    kernel_size: 11
    stride: 4
    weight_filler {
      type: "xavier"
    }
    bias_filler {
      type: "constant"
      value: 1
    }
  }
}
layer {
  name: "relu1"
  type: "ReLU"
  bottom: "conv1"
  top: "conv1"
}
layer {
  name: "pool1"
  type: "Pooling"
  bottom: "conv1"
  top: "pool1"
  pooling_param {
    pool: MAX
    kernel_size: 3
    stride: 2
  }
}
layer {
  name: "conv2"
  type: "Convolution"
  bottom: "pool1"
  top: "conv2"
  param {
    lr_mult: 1
    decay_mult: 1
  }
  param {
    lr_mult: 2
    decay_mult: 0
  }
  convolution_param {
    num_output: 20
    kernel_size: 5
    stride: 1
    weight_filler {
      type: "xavier"
    }
    bias_filler {
      type: "constant"
      value: 1
    }
  }
}
layer {
  name: "relu2"
  type: "ReLU"
  bottom: "conv2"
  top: "conv2"
}
layer {
  name: "pool2"
  type: "Pooling"
  bottom: "conv2"
  top: "pool2"
  pooling_param {
    pool: MAX
    kernel_size: 3
    stride: 2
  }
}
layer {
  name: "conv3"
  type: "Convolution"
  bottom: "pool2"
  top: "conv3"
  param {
    lr_mult: 1
    decay_mult: 1
  }
  param {
    lr_mult: 2
    decay_mult: 0
  }
  convolution_param {
    num_output: 30
    kernel_size: 3
    stride: 1
    weight_filler {
      type: "xavier"
    }
    bias_filler {
      type: "constant"
      value: 1
    }
  }
}
layer {
  name: "relu3"
  type: "ReLU"
  bottom: "conv3"
  top: "conv3"
}
layer {
  name: "pool3"
  type: "Pooling"
  bottom: "conv3"
  top: "pool3"
  pooling_param {
    pool: MAX
    kernel_size: 3
    stride: 2
  }
}
layer {
  name: "fc4"
  type: "InnerProduct"
  bottom: "pool3"
  top: "fc4"
  param {
    lr_mult: 1
    decay_mult: 1
  }
  param {
    lr_mult: 2
    decay_mult: 1
  }
  inner_product_param {
    num_output: 48
    weight_filler {
      type: "xavier"
    }
    bias_filler {
      type: "constant"
      value: 1
    }
  }
}
layer {
  name: "relu4"
  type: "ReLU"
  bottom: "fc4"
  top: "fc4"
}
layer {
  name: "fc5"
  type: "InnerProduct"
  bottom: "fc4"
  top: "fc5"
  param {
    lr_mult: 1
    decay_mult: 1
  }
  param {
    lr_mult: 2
    decay_mult: 1
  }
  inner_product_param {
    num_output: 2
    weight_filler {
      type: "xavier"
    }
    bias_filler {
      type: "constant"
      value: 1
    }
  }
}
layer {
  name: "loss"
  type: "SoftmaxWithLoss"
  bottom: "fc5"
  bottom: "label"
  top: "loss"
}
I0519 00:25:34.837636 19990 layer_factory.hpp:77] Creating layer data
I0519 00:25:34.837666 19990 net.cpp:86] Creating Layer data
I0519 00:25:34.837675 19990 net.cpp:382] data -> data
I0519 00:25:34.837705 19990 net.cpp:382] data -> label
I0519 00:25:34.837992 19990 image_data_layer.cpp:38] Opening file /home/hao/deep-parking/splits/PKLot/UFPR04_train.txt
I0519 00:25:34.853404 19990 image_data_layer.cpp:53] Shuffling data
I0519 00:25:34.865479 19990 image_data_layer.cpp:63] A total of 49160 images.
I0519 00:25:34.865530 19990 image_data_layer.cpp:70] Skipping first 40 data points.
I0519 00:25:34.871848 19990 image_data_layer.cpp:90] output data size: 64,3,224,224
I0519 00:25:34.871973 19990 net.cpp:124] Setting up data
I0519 00:25:34.871989 19990 net.cpp:131] Top shape: 64 3 224 224 (9633792)
I0519 00:25:34.871994 19990 net.cpp:131] Top shape: 64 (64)
I0519 00:25:34.871999 19990 net.cpp:139] Memory required for data: 38535424
I0519 00:25:34.872007 19990 layer_factory.hpp:77] Creating layer conv1
I0519 00:25:34.872035 19990 net.cpp:86] Creating Layer conv1
I0519 00:25:34.872045 19990 net.cpp:408] conv1 <- data
I0519 00:25:34.872061 19990 net.cpp:382] conv1 -> conv1
I0519 00:25:34.872162 19990 net.cpp:124] Setting up conv1
I0519 00:25:34.872172 19990 net.cpp:131] Top shape: 64 16 54 54 (2985984)
I0519 00:25:34.872177 19990 net.cpp:139] Memory required for data: 50479360
I0519 00:25:34.872193 19990 layer_factory.hpp:77] Creating layer relu1
I0519 00:25:34.872203 19990 net.cpp:86] Creating Layer relu1
I0519 00:25:34.872210 19990 net.cpp:408] relu1 <- conv1
I0519 00:25:34.872215 19990 net.cpp:369] relu1 -> conv1 (in-place)
I0519 00:25:34.872225 19990 net.cpp:124] Setting up relu1
I0519 00:25:34.872231 19990 net.cpp:131] Top shape: 64 16 54 54 (2985984)
I0519 00:25:34.872237 19990 net.cpp:139] Memory required for data: 62423296
I0519 00:25:34.872241 19990 layer_factory.hpp:77] Creating layer pool1
I0519 00:25:34.872254 19990 net.cpp:86] Creating Layer pool1
I0519 00:25:34.872260 19990 net.cpp:408] pool1 <- conv1
I0519 00:25:34.872267 19990 net.cpp:382] pool1 -> pool1
I0519 00:25:34.872292 19990 net.cpp:124] Setting up pool1
I0519 00:25:34.872298 19990 net.cpp:131] Top shape: 64 16 27 27 (746496)
I0519 00:25:34.872304 19990 net.cpp:139] Memory required for data: 65409280
I0519 00:25:34.872308 19990 layer_factory.hpp:77] Creating layer conv2
I0519 00:25:34.872318 19990 net.cpp:86] Creating Layer conv2
I0519 00:25:34.872323 19990 net.cpp:408] conv2 <- pool1
I0519 00:25:34.872330 19990 net.cpp:382] conv2 -> conv2
I0519 00:25:34.872406 19990 net.cpp:124] Setting up conv2
I0519 00:25:34.872414 19990 net.cpp:131] Top shape: 64 20 23 23 (677120)
I0519 00:25:34.872419 19990 net.cpp:139] Memory required for data: 68117760
I0519 00:25:34.872438 19990 layer_factory.hpp:77] Creating layer relu2
I0519 00:25:34.872445 19990 net.cpp:86] Creating Layer relu2
I0519 00:25:34.872450 19990 net.cpp:408] relu2 <- conv2
I0519 00:25:34.872455 19990 net.cpp:369] relu2 -> conv2 (in-place)
I0519 00:25:34.872462 19990 net.cpp:124] Setting up relu2
I0519 00:25:34.872469 19990 net.cpp:131] Top shape: 64 20 23 23 (677120)
I0519 00:25:34.872474 19990 net.cpp:139] Memory required for data: 70826240
I0519 00:25:34.872478 19990 layer_factory.hpp:77] Creating layer pool2
I0519 00:25:34.872483 19990 net.cpp:86] Creating Layer pool2
I0519 00:25:34.872488 19990 net.cpp:408] pool2 <- conv2
I0519 00:25:34.872493 19990 net.cpp:382] pool2 -> pool2
I0519 00:25:34.872503 19990 net.cpp:124] Setting up pool2
I0519 00:25:34.872509 19990 net.cpp:131] Top shape: 64 20 11 11 (154880)
I0519 00:25:34.872514 19990 net.cpp:139] Memory required for data: 71445760
I0519 00:25:34.872517 19990 layer_factory.hpp:77] Creating layer conv3
I0519 00:25:34.872526 19990 net.cpp:86] Creating Layer conv3
I0519 00:25:34.872532 19990 net.cpp:408] conv3 <- pool2
I0519 00:25:34.872539 19990 net.cpp:382] conv3 -> conv3
I0519 00:25:34.872589 19990 net.cpp:124] Setting up conv3
I0519 00:25:34.872596 19990 net.cpp:131] Top shape: 64 30 9 9 (155520)
I0519 00:25:34.872601 19990 net.cpp:139] Memory required for data: 72067840
I0519 00:25:34.872629 19990 layer_factory.hpp:77] Creating layer relu3
I0519 00:25:34.872638 19990 net.cpp:86] Creating Layer relu3
I0519 00:25:34.872643 19990 net.cpp:408] relu3 <- conv3
I0519 00:25:34.872648 19990 net.cpp:369] relu3 -> conv3 (in-place)
I0519 00:25:34.872655 19990 net.cpp:124] Setting up relu3
I0519 00:25:34.872663 19990 net.cpp:131] Top shape: 64 30 9 9 (155520)
I0519 00:25:34.872668 19990 net.cpp:139] Memory required for data: 72689920
I0519 00:25:34.872671 19990 layer_factory.hpp:77] Creating layer pool3
I0519 00:25:34.872676 19990 net.cpp:86] Creating Layer pool3
I0519 00:25:34.872681 19990 net.cpp:408] pool3 <- conv3
I0519 00:25:34.872687 19990 net.cpp:382] pool3 -> pool3
I0519 00:25:34.872699 19990 net.cpp:124] Setting up pool3
I0519 00:25:34.872704 19990 net.cpp:131] Top shape: 64 30 4 4 (30720)
I0519 00:25:34.872710 19990 net.cpp:139] Memory required for data: 72812800
I0519 00:25:34.872714 19990 layer_factory.hpp:77] Creating layer fc4
I0519 00:25:34.872722 19990 net.cpp:86] Creating Layer fc4
I0519 00:25:34.872727 19990 net.cpp:408] fc4 <- pool3
I0519 00:25:34.872733 19990 net.cpp:382] fc4 -> fc4
I0519 00:25:34.872889 19990 net.cpp:124] Setting up fc4
I0519 00:25:34.872896 19990 net.cpp:131] Top shape: 64 48 (3072)
I0519 00:25:34.872900 19990 net.cpp:139] Memory required for data: 72825088
I0519 00:25:34.872905 19990 layer_factory.hpp:77] Creating layer relu4
I0519 00:25:34.872910 19990 net.cpp:86] Creating Layer relu4
I0519 00:25:34.872915 19990 net.cpp:408] relu4 <- fc4
I0519 00:25:34.872920 19990 net.cpp:369] relu4 -> fc4 (in-place)
I0519 00:25:34.872925 19990 net.cpp:124] Setting up relu4
I0519 00:25:34.872932 19990 net.cpp:131] Top shape: 64 48 (3072)
I0519 00:25:34.872936 19990 net.cpp:139] Memory required for data: 72837376
I0519 00:25:34.872939 19990 layer_factory.hpp:77] Creating layer fc5
I0519 00:25:34.872946 19990 net.cpp:86] Creating Layer fc5
I0519 00:25:34.872951 19990 net.cpp:408] fc5 <- fc4
I0519 00:25:34.872957 19990 net.cpp:382] fc5 -> fc5
I0519 00:25:34.872972 19990 net.cpp:124] Setting up fc5
I0519 00:25:34.872977 19990 net.cpp:131] Top shape: 64 2 (128)
I0519 00:25:34.872982 19990 net.cpp:139] Memory required for data: 72837888
I0519 00:25:34.872987 19990 layer_factory.hpp:77] Creating layer loss
I0519 00:25:34.872993 19990 net.cpp:86] Creating Layer loss
I0519 00:25:34.872999 19990 net.cpp:408] loss <- fc5
I0519 00:25:34.873003 19990 net.cpp:408] loss <- label
I0519 00:25:34.873009 19990 net.cpp:382] loss -> loss
I0519 00:25:34.873021 19990 layer_factory.hpp:77] Creating layer loss
…
I0519 00:25:34.873503 19990 solver.cpp:190] Creating test net (#0) specified by test_net file: val-PKLot_val.prototxt
I0519 00:25:34.873621 19990 net.cpp:53] Initializing net from parameters: 
name: "mAlexNet"
state {
  phase: TEST
}
layer {
  name: "data"
  type: "ImageData"
  top: "data"
  top: "label"
  include {
    phase: TEST
  }
  transform_param {
    scale: 0.00390625
    mirror: false
    crop_size: 224
  }
  image_data_param {
    source: "/home/hao/deep-parking/splits/PKLot/val.txt"
    batch_size: 100
    rand_skip: 100
    shuffle: true
    new_height: 256
    new_width: 256
    root_folder: "/home/hao/Documents/CV/PKLot/PKLotSegmented/"
  }
}
layer {
  name: "conv1"
  type: "Convolution"
  bottom: "data"
  top: "conv1"
  param {
    lr_mult: 1
    decay_mult: 1
  }
  param {
    lr_mult: 2
    decay_mult: 0
  }
  convolution_param {
    num_output: 16
    kernel_size: 11
    stride: 4
    weight_filler {
      type: "xavier"
    }
    bias_filler {
      type: "constant"
      value: 1
    }
  }
}
layer {
  name: "relu1"
  type: "ReLU"
  bottom: "conv1"
  top: "conv1"
}
layer {
  name: "pool1"
  type: "Pooling"
  bottom: "conv1"
  top: "pool1"
  pooling_param {
    pool: MAX
    kernel_size: 3
    stride: 2
  }
}
layer {
  name: "conv2"
  type: "Convolution"
  bottom: "pool1"
  top: "conv2"
  param {
    lr_mult: 1
    decay_mult: 1
  }
  param {
    lr_mult: 2
    decay_mult: 0
  }
  convolution_param {
    num_output: 20
    kernel_size: 5
    stride: 1
    weight_filler {
      type: "xavier"
    }
    bias_filler {
      type: "constant"
      value: 1
    }
  }
}
layer {
  name: "relu2"
  type: "ReLU"
  bottom: "conv2"
  top: "conv2"
}
layer {
  name: "pool2"
  type: "Pooling"
  bottom: "conv2"
  top: "pool2"
  pooling_param {
    pool: MAX
    kernel_size: 3
    stride: 2
  }
}
layer {
  name: "conv3"
  type: "Convolution"
  bottom: "pool2"
  top: "conv3"
  param {
    lr_mult: 1
    decay_mult: 1
  }
  param {
    lr_mult: 2
    decay_mult: 0
  }
  convolution_param {
    num_output: 30
    kernel_size: 3
    stride: 1
    weight_filler {
      type: "xavier"
    }
    bias_filler {
      type: "constant"
      value: 1
    }
  }
}
layer {
  name: "relu3"
  type: "ReLU"
  bottom: "conv3"
  top: "conv3"
}
layer {
  name: "pool3"
  type: "Pooling"
  bottom: "conv3"
  top: "pool3"
  pooling_param {
    pool: MAX
    kernel_size: 3
    stride: 2
  }
}
layer {
  name: "fc4"
  type: "InnerProduct"
  bottom: "pool3"
  top: "fc4"
  param {
    lr_mult: 1
    decay_mult: 1
  }
  param {
    lr_mult: 2
    decay_mult: 1
  }
  inner_product_param {
    num_output: 48
    weight_filler {
      type: "xavier"
    }
    bias_filler {
      type: "constant"
      value: 1
    }
  }
}
layer {
  name: "relu4"
  type: "ReLU"
  bottom: "fc4"
  top: "fc4"
}
layer {
  name: "fc5"
  type: "InnerProduct"
  bottom: "fc4"
  top: "fc5"
  param {
    lr_mult: 1
    decay_mult: 1
  }
  param {
    lr_mult: 2
    decay_mult: 1
  }
  inner_product_param {
    num_output: 2
    weight_filler {
      type: "xavier"
    }
    bias_filler {
      type: "constant"
      value: 1
    }
  }
}
layer {
  name: "loss"
  type: "SoftmaxWithLoss"
  bottom: "fc5"
  bottom: "label"
  top: "loss"
}
layer {
  name: "accuracy"
  type: "Accuracy"
  bottom: "fc5"
  bottom: "label"
  top: "accuracy"
  include {
    phase: TEST
  }
}
I0519 00:25:34.873701 19990 layer_factory.hpp:77] Creating layer data
I0519 00:25:34.873713 19990 net.cpp:86] Creating Layer data
I0519 00:25:34.873721 19990 net.cpp:382] data -> data
I0519 00:25:34.873728 19990 net.cpp:382] data -> label
I0519 00:25:34.873735 19990 image_data_layer.cpp:38] Opening file /home/hao/deep-parking/splits/PKLot/val.txt
I0519 00:25:34.916220 19990 image_data_layer.cpp:53] Shuffling data
I0519 00:25:34.951315 19990 image_data_layer.cpp:63] A total of 102362 images.
I0519 00:25:34.951354 19990 image_data_layer.cpp:70] Skipping first 21 data points.
I0519 00:25:34.953335 19990 image_data_layer.cpp:90] output data size: 100,3,224,224
I0519 00:25:34.953442 19990 net.cpp:124] Setting up data
I0519 00:25:34.953457 19990 net.cpp:131] Top shape: 100 3 224 224 (15052800)
I0519 00:25:34.953482 19990 net.cpp:131] Top shape: 100 (100)
I0519 00:25:34.953486 19990 net.cpp:139] Memory required for data: 60211600
I0519 00:25:34.953493 19990 layer_factory.hpp:77] Creating layer label_data_1_split
I0519 00:25:34.953514 19990 net.cpp:86] Creating Layer label_data_1_split
I0519 00:25:34.953521 19990 net.cpp:408] label_data_1_split <- label
I0519 00:25:34.953531 19990 net.cpp:382] label_data_1_split -> label_data_1_split_0
I0519 00:25:34.953544 19990 net.cpp:382] label_data_1_split -> label_data_1_split_1
I0519 00:25:34.953557 19990 net.cpp:124] Setting up label_data_1_split
I0519 00:25:34.953562 19990 net.cpp:131] Top shape: 100 (100)
I0519 00:25:34.953567 19990 net.cpp:131] Top shape: 100 (100)
I0519 00:25:34.953569 19990 net.cpp:139] Memory required for data: 60212400
I0519 00:25:34.953573 19990 layer_factory.hpp:77] Creating layer conv1
I0519 00:25:34.953591 19990 net.cpp:86] Creating Layer conv1
I0519 00:25:34.953598 19990 net.cpp:408] conv1 <- data
I0519 00:25:34.953605 19990 net.cpp:382] conv1 -> conv1
I0519 00:25:34.953680 19990 net.cpp:124] Setting up conv1
I0519 00:25:34.953688 19990 net.cpp:131] Top shape: 100 16 54 54 (4665600)
I0519 00:25:34.953692 19990 net.cpp:139] Memory required for data: 78874800
I0519 00:25:34.953702 19990 layer_factory.hpp:77] Creating layer relu1
I0519 00:25:34.953709 19990 net.cpp:86] Creating Layer relu1
I0519 00:25:34.953713 19990 net.cpp:408] relu1 <- conv1
I0519 00:25:34.953719 19990 net.cpp:369] relu1 -> conv1 (in-place)
I0519 00:25:34.953730 19990 net.cpp:124] Setting up relu1
I0519 00:25:34.953737 19990 net.cpp:131] Top shape: 100 16 54 54 (4665600)
I0519 00:25:34.953740 19990 net.cpp:139] Memory required for data: 97537200
I0519 00:25:34.953745 19990 layer_factory.hpp:77] Creating layer pool1
I0519 00:25:34.953755 19990 net.cpp:86] Creating Layer pool1
I0519 00:25:34.953761 19990 net.cpp:408] pool1 <- conv1
I0519 00:25:34.953768 19990 net.cpp:382] pool1 -> pool1
I0519 00:25:34.953779 19990 net.cpp:124] Setting up pool1
I0519 00:25:34.953786 19990 net.cpp:131] Top shape: 100 16 27 27 (1166400)
I0519 00:25:34.953794 19990 net.cpp:139] Memory required for data: 102202800
I0519 00:25:34.953797 19990 layer_factory.hpp:77] Creating layer conv2
I0519 00:25:34.953806 19990 net.cpp:86] Creating Layer conv2
I0519 00:25:34.953812 19990 net.cpp:408] conv2 <- pool1
I0519 00:25:34.953819 19990 net.cpp:382] conv2 -> conv2
I0519 00:25:34.953907 19990 net.cpp:124] Setting up conv2
I0519 00:25:34.953913 19990 net.cpp:131] Top shape: 100 20 23 23 (1058000)
I0519 00:25:34.953918 19990 net.cpp:139] Memory required for data: 106434800
I0519 00:25:34.953924 19990 layer_factory.hpp:77] Creating layer relu2
I0519 00:25:34.953933 19990 net.cpp:86] Creating Layer relu2
I0519 00:25:34.953936 19990 net.cpp:408] relu2 <- conv2
I0519 00:25:34.953940 19990 net.cpp:369] relu2 -> conv2 (in-place)
I0519 00:25:34.953946 19990 net.cpp:124] Setting up relu2
I0519 00:25:34.953951 19990 net.cpp:131] Top shape: 100 20 23 23 (1058000)
I0519 00:25:34.953954 19990 net.cpp:139] Memory required for data: 110666800
I0519 00:25:34.953958 19990 layer_factory.hpp:77] Creating layer pool2
I0519 00:25:34.953963 19990 net.cpp:86] Creating Layer pool2
I0519 00:25:34.953967 19990 net.cpp:408] pool2 <- conv2
I0519 00:25:34.953972 19990 net.cpp:382] pool2 -> pool2
I0519 00:25:34.953979 19990 net.cpp:124] Setting up pool2
I0519 00:25:34.953985 19990 net.cpp:131] Top shape: 100 20 11 11 (242000)
I0519 00:25:34.953989 19990 net.cpp:139] Memory required for data: 111634800
I0519 00:25:34.953991 19990 layer_factory.hpp:77] Creating layer conv3
I0519 00:25:34.954000 19990 net.cpp:86] Creating Layer conv3
I0519 00:25:34.954005 19990 net.cpp:408] conv3 <- pool2
I0519 00:25:34.954011 19990 net.cpp:382] conv3 -> conv3
I0519 00:25:34.954061 19990 net.cpp:124] Setting up conv3
I0519 00:25:34.954066 19990 net.cpp:131] Top shape: 100 30 9 9 (243000)
I0519 00:25:34.954071 19990 net.cpp:139] Memory required for data: 112606800
I0519 00:25:34.954079 19990 layer_factory.hpp:77] Creating layer relu3
I0519 00:25:34.954095 19990 net.cpp:86] Creating Layer relu3
I0519 00:25:34.954100 19990 net.cpp:408] relu3 <- conv3
I0519 00:25:34.954105 19990 net.cpp:369] relu3 -> conv3 (in-place)
I0519 00:25:34.954113 19990 net.cpp:124] Setting up relu3
I0519 00:25:34.954118 19990 net.cpp:131] Top shape: 100 30 9 9 (243000)
I0519 00:25:34.954123 19990 net.cpp:139] Memory required for data: 113578800
I0519 00:25:34.954128 19990 layer_factory.hpp:77] Creating layer pool3
I0519 00:25:34.954131 19990 net.cpp:86] Creating Layer pool3
I0519 00:25:34.954136 19990 net.cpp:408] pool3 <- conv3
I0519 00:25:34.954142 19990 net.cpp:382] pool3 -> pool3
I0519 00:25:34.954151 19990 net.cpp:124] Setting up pool3
I0519 00:25:34.954157 19990 net.cpp:131] Top shape: 100 30 4 4 (48000)
I0519 00:25:34.954162 19990 net.cpp:139] Memory required for data: 113770800
I0519 00:25:34.954165 19990 layer_factory.hpp:77] Creating layer fc4
I0519 00:25:34.954174 19990 net.cpp:86] Creating Layer fc4
I0519 00:25:34.954180 19990 net.cpp:408] fc4 <- pool3
I0519 00:25:34.954185 19990 net.cpp:382] fc4 -> fc4
I0519 00:25:34.954327 19990 net.cpp:124] Setting up fc4
I0519 00:25:34.954334 19990 net.cpp:131] Top shape: 100 48 (4800)
I0519 00:25:34.954337 19990 net.cpp:139] Memory required for data: 113790000
I0519 00:25:34.954342 19990 layer_factory.hpp:77] Creating layer relu4
I0519 00:25:34.954349 19990 net.cpp:86] Creating Layer relu4
I0519 00:25:34.954352 19990 net.cpp:408] relu4 <- fc4
I0519 00:25:34.954357 19990 net.cpp:369] relu4 -> fc4 (in-place)
I0519 00:25:34.954362 19990 net.cpp:124] Setting up relu4
I0519 00:25:34.954367 19990 net.cpp:131] Top shape: 100 48 (4800)
I0519 00:25:34.954370 19990 net.cpp:139] Memory required for data: 113809200
I0519 00:25:34.954375 19990 layer_factory.hpp:77] Creating layer fc5
I0519 00:25:34.954382 19990 net.cpp:86] Creating Layer fc5
I0519 00:25:34.954385 19990 net.cpp:408] fc5 <- fc4
I0519 00:25:34.954392 19990 net.cpp:382] fc5 -> fc5
I0519 00:25:34.954404 19990 net.cpp:124] Setting up fc5
I0519 00:25:34.954408 19990 net.cpp:131] Top shape: 100 2 (200)
I0519 00:25:34.954411 19990 net.cpp:139] Memory required for data: 113810000
I0519 00:25:34.954417 19990 layer_factory.hpp:77] Creating layer fc5_fc5_0_split
I0519 00:25:34.954425 19990 net.cpp:86] Creating Layer fc5_fc5_0_split
I0519 00:25:34.954430 19990 net.cpp:408] fc5_fc5_0_split <- fc5
I0519 00:25:34.954435 19990 net.cpp:382] fc5_fc5_0_split -> fc5_fc5_0_split_0
I0519 00:25:34.954442 19990 net.cpp:382] fc5_fc5_0_split -> fc5_fc5_0_split_1
I0519 00:25:34.954452 19990 net.cpp:124] Setting up fc5_fc5_0_split
I0519 00:25:34.954457 19990 net.cpp:131] Top shape: 100 2 (200)
I0519 00:25:34.954461 19990 net.cpp:131] Top shape: 100 2 (200)
I0519 00:25:34.954466 19990 net.cpp:139] Memory required for data: 113811600
I0519 00:25:34.954469 19990 layer_factory.hpp:77] Creating layer loss
I0519 00:25:34.954475 19990 net.cpp:86] Creating Layer loss
I0519 00:25:34.954480 19990 net.cpp:408] loss <- fc5_fc5_0_split_0
I0519 00:25:34.954484 19990 net.cpp:408] loss <- label_data_1_split_0
I0519 00:25:34.954493 19990 net.cpp:382] loss -> loss
…
