…
I0520 11:41:25.031466   732 net.cpp:53] Initializing net from parameters: 
name: "mAlexNet"
state {
  phase: TRAIN
  level: 0
  stage: ""
}
layer {
  name: "data"
  type: "ImageData"
  top: "data"
  top: "label"
  include {
    phase: TRAIN
  }
  transform_param {
    scale: 0.00390625
    mirror: true
    crop_size: 224
  }
  image_data_param {
    source: "/home/hao/deep-parking/splits/PKLot/PUC_train.txt"
    batch_size: 64
    rand_skip: 64
    shuffle: true
    new_height: 256
    new_width: 256
    root_folder: "/home/hao/Documents/CV/PKLot/PKLotSegmented/"
  }
}
layer {
  name: "conv1"
  type: "Convolution"
  bottom: "data"
  top: "conv1"
  param {
    lr_mult: 1
    decay_mult: 1
  }
  param {
    lr_mult: 2
    decay_mult: 0
  }
  convolution_param {
    num_output: 16
    kernel_size: 11
    stride: 4
    weight_filler {
      type: "xavier"
    }
    bias_filler {
      type: "constant"
      value: 1
    }
  }
}
layer {
  name: "relu1"
  type: "ReLU"
  bottom: "conv1"
  top: "conv1"
}
layer {
  name: "pool1"
  type: "Pooling"
  bottom: "conv1"
  top: "pool1"
  pooling_param {
    pool: MAX
    kernel_size: 3
    stride: 2
  }
}
layer {
  name: "conv2"
  type: "Convolution"
  bottom: "pool1"
  top: "conv2"
  param {
    lr_mult: 1
    decay_mult: 1
  }
  param {
    lr_mult: 2
    decay_mult: 0
  }
  convolution_param {
    num_output: 20
    kernel_size: 5
    stride: 1
    weight_filler {
      type: "xavier"
    }
    bias_filler {
      type: "constant"
      value: 1
    }
  }
}
layer {
  name: "relu2"
  type: "ReLU"
  bottom: "conv2"
  top: "conv2"
}
layer {
  name: "pool2"
  type: "Pooling"
  bottom: "conv2"
  top: "pool2"
  pooling_param {
    pool: MAX
    kernel_size: 3
    stride: 2
  }
}
layer {
  name: "conv3"
  type: "Convolution"
  bottom: "pool2"
  top: "conv3"
  param {
    lr_mult: 1
    decay_mult: 1
  }
  param {
    lr_mult: 2
    decay_mult: 0
  }
  convolution_param {
    num_output: 30
    kernel_size: 3
    stride: 1
    weight_filler {
      type: "xavier"
    }
    bias_filler {
      type: "constant"
      value: 1
    }
  }
}
layer {
  name: "relu3"
  type: "ReLU"
  bottom: "conv3"
  top: "conv3"
}
layer {
  name: "pool3"
  type: "Pooling"
  bottom: "conv3"
  top: "pool3"
  pooling_param {
    pool: MAX
    kernel_size: 3
    stride: 2
  }
}
layer {
  name: "fc4"
  type: "InnerProduct"
  bottom: "pool3"
  top: "fc4"
  param {
    lr_mult: 1
    decay_mult: 1
  }
  param {
    lr_mult: 2
    decay_mult: 1
  }
  inner_product_param {
    num_output: 48
    weight_filler {
      type: "xavier"
    }
    bias_filler {
      type: "constant"
      value: 1
    }
  }
}
layer {
  name: "relu4"
  type: "ReLU"
  bottom: "fc4"
  top: "fc4"
}
layer {
  name: "fc5"
  type: "InnerProduct"
  bottom: "fc4"
  top: "fc5"
  param {
    lr_mult: 1
    decay_mult: 1
  }
  param {
    lr_mult: 2
    decay_mult: 1
  }
  inner_product_param {
    num_output: 2
    weight_filler {
      type: "xavier"
    }
    bias_filler {
      type: "constant"
      value: 1
    }
  }
}
layer {
  name: "loss"
  type: "SoftmaxWithLoss"
  bottom: "fc5"
  bottom: "label"
  top: "loss"
}
I0520 11:41:25.031535   732 layer_factory.hpp:77] Creating layer data
I0520 11:41:25.031559   732 net.cpp:86] Creating Layer data
I0520 11:41:25.031566   732 net.cpp:382] data -> data
I0520 11:41:25.031584   732 net.cpp:382] data -> label
I0520 11:41:25.031599   732 image_data_layer.cpp:38] Opening file /home/hao/deep-parking/splits/PKLot/PUC_train.txt
I0520 11:41:25.095305   732 image_data_layer.cpp:53] Shuffling data
I0520 11:41:25.164280   732 image_data_layer.cpp:63] A total of 220713 images.
I0520 11:41:25.164312   732 image_data_layer.cpp:70] Skipping first 40 data points.
I0520 11:41:25.164922   732 image_data_layer.cpp:90] output data size: 64,3,224,224
I0520 11:41:25.165019   732 net.cpp:124] Setting up data
I0520 11:41:25.165032   732 net.cpp:131] Top shape: 64 3 224 224 (9633792)
I0520 11:41:25.165036   732 net.cpp:131] Top shape: 64 (64)
I0520 11:41:25.165040   732 net.cpp:139] Memory required for data: 38535424
I0520 11:41:25.165046   732 layer_factory.hpp:77] Creating layer conv1
I0520 11:41:25.165072   732 net.cpp:86] Creating Layer conv1
I0520 11:41:25.165079   732 net.cpp:408] conv1 <- data
I0520 11:41:25.165091   732 net.cpp:382] conv1 -> conv1
I0520 11:41:25.165171   732 net.cpp:124] Setting up conv1
I0520 11:41:25.165179   732 net.cpp:131] Top shape: 64 16 54 54 (2985984)
I0520 11:41:25.165182   732 net.cpp:139] Memory required for data: 50479360
I0520 11:41:25.165194   732 layer_factory.hpp:77] Creating layer relu1
I0520 11:41:25.165202   732 net.cpp:86] Creating Layer relu1
I0520 11:41:25.165206   732 net.cpp:408] relu1 <- conv1
I0520 11:41:25.165210   732 net.cpp:369] relu1 -> conv1 (in-place)
I0520 11:41:25.165215   732 net.cpp:124] Setting up relu1
I0520 11:41:25.165221   732 net.cpp:131] Top shape: 64 16 54 54 (2985984)
I0520 11:41:25.165225   732 net.cpp:139] Memory required for data: 62423296
I0520 11:41:25.165227   732 layer_factory.hpp:77] Creating layer pool1
I0520 11:41:25.165232   732 net.cpp:86] Creating Layer pool1
I0520 11:41:25.165235   732 net.cpp:408] pool1 <- conv1
I0520 11:41:25.165241   732 net.cpp:382] pool1 -> pool1
I0520 11:41:25.165259   732 net.cpp:124] Setting up pool1
I0520 11:41:25.165264   732 net.cpp:131] Top shape: 64 16 27 27 (746496)
I0520 11:41:25.165267   732 net.cpp:139] Memory required for data: 65409280
I0520 11:41:25.165271   732 layer_factory.hpp:77] Creating layer conv2
I0520 11:41:25.165278   732 net.cpp:86] Creating Layer conv2
I0520 11:41:25.165283   732 net.cpp:408] conv2 <- pool1
I0520 11:41:25.165288   732 net.cpp:382] conv2 -> conv2
I0520 11:41:25.165402   732 net.cpp:124] Setting up conv2
I0520 11:41:25.165411   732 net.cpp:131] Top shape: 64 20 23 23 (677120)
I0520 11:41:25.165416   732 net.cpp:139] Memory required for data: 68117760
I0520 11:41:25.165422   732 layer_factory.hpp:77] Creating layer relu2
I0520 11:41:25.165431   732 net.cpp:86] Creating Layer relu2
I0520 11:41:25.165438   732 net.cpp:408] relu2 <- conv2
I0520 11:41:25.165443   732 net.cpp:369] relu2 -> conv2 (in-place)
I0520 11:41:25.165452   732 net.cpp:124] Setting up relu2
I0520 11:41:25.165457   732 net.cpp:131] Top shape: 64 20 23 23 (677120)
I0520 11:41:25.165459   732 net.cpp:139] Memory required for data: 70826240
I0520 11:41:25.165463   732 layer_factory.hpp:77] Creating layer pool2
I0520 11:41:25.165467   732 net.cpp:86] Creating Layer pool2
I0520 11:41:25.165470   732 net.cpp:408] pool2 <- conv2
I0520 11:41:25.165480   732 net.cpp:382] pool2 -> pool2
I0520 11:41:25.165498   732 net.cpp:124] Setting up pool2
I0520 11:41:25.165504   732 net.cpp:131] Top shape: 64 20 11 11 (154880)
I0520 11:41:25.165510   732 net.cpp:139] Memory required for data: 71445760
I0520 11:41:25.165514   732 layer_factory.hpp:77] Creating layer conv3
I0520 11:41:25.165529   732 net.cpp:86] Creating Layer conv3
I0520 11:41:25.165535   732 net.cpp:408] conv3 <- pool2
I0520 11:41:25.165555   732 net.cpp:382] conv3 -> conv3
I0520 11:41:25.165684   732 net.cpp:124] Setting up conv3
I0520 11:41:25.165699   732 net.cpp:131] Top shape: 64 30 9 9 (155520)
I0520 11:41:25.165704   732 net.cpp:139] Memory required for data: 72067840
I0520 11:41:25.165745   732 layer_factory.hpp:77] Creating layer relu3
I0520 11:41:25.165755   732 net.cpp:86] Creating Layer relu3
I0520 11:41:25.165765   732 net.cpp:408] relu3 <- conv3
I0520 11:41:25.165772   732 net.cpp:369] relu3 -> conv3 (in-place)
I0520 11:41:25.165781   732 net.cpp:124] Setting up relu3
I0520 11:41:25.165810   732 net.cpp:131] Top shape: 64 30 9 9 (155520)
I0520 11:41:25.165815   732 net.cpp:139] Memory required for data: 72689920
I0520 11:41:25.165820   732 layer_factory.hpp:77] Creating layer pool3
I0520 11:41:25.165828   732 net.cpp:86] Creating Layer pool3
I0520 11:41:25.165835   732 net.cpp:408] pool3 <- conv3
I0520 11:41:25.165844   732 net.cpp:382] pool3 -> pool3
I0520 11:41:25.165859   732 net.cpp:124] Setting up pool3
I0520 11:41:25.165868   732 net.cpp:131] Top shape: 64 30 4 4 (30720)
I0520 11:41:25.165874   732 net.cpp:139] Memory required for data: 72812800
I0520 11:41:25.165879   732 layer_factory.hpp:77] Creating layer fc4
I0520 11:41:25.165890   732 net.cpp:86] Creating Layer fc4
I0520 11:41:25.165896   732 net.cpp:408] fc4 <- pool3
I0520 11:41:25.165905   732 net.cpp:382] fc4 -> fc4
I0520 11:41:25.166043   732 net.cpp:124] Setting up fc4
I0520 11:41:25.166051   732 net.cpp:131] Top shape: 64 48 (3072)
I0520 11:41:25.166056   732 net.cpp:139] Memory required for data: 72825088
I0520 11:41:25.166067   732 layer_factory.hpp:77] Creating layer relu4
I0520 11:41:25.166077   732 net.cpp:86] Creating Layer relu4
I0520 11:41:25.166085   732 net.cpp:408] relu4 <- fc4
I0520 11:41:25.166092   732 net.cpp:369] relu4 -> fc4 (in-place)
I0520 11:41:25.166101   732 net.cpp:124] Setting up relu4
I0520 11:41:25.166108   732 net.cpp:131] Top shape: 64 48 (3072)
I0520 11:41:25.166115   732 net.cpp:139] Memory required for data: 72837376
I0520 11:41:25.166121   732 layer_factory.hpp:77] Creating layer fc5
I0520 11:41:25.166131   732 net.cpp:86] Creating Layer fc5
I0520 11:41:25.166136   732 net.cpp:408] fc5 <- fc4
I0520 11:41:25.166146   732 net.cpp:382] fc5 -> fc5
I0520 11:41:25.166164   732 net.cpp:124] Setting up fc5
I0520 11:41:25.166172   732 net.cpp:131] Top shape: 64 2 (128)
I0520 11:41:25.166179   732 net.cpp:139] Memory required for data: 72837888
I0520 11:41:25.166189   732 layer_factory.hpp:77] Creating layer loss
I0520 11:41:25.166198   732 net.cpp:86] Creating Layer loss
I0520 11:41:25.166205   732 net.cpp:408] loss <- fc5
I0520 11:41:25.166211   732 net.cpp:408] loss <- label
I0520 11:41:25.166221   732 net.cpp:382] loss -> loss
I0520 11:41:25.166236   732 layer_factory.hpp:77] Creating layer loss
…
I0520 11:41:25.166847   732 net.cpp:53] Initializing net from parameters: 
name: "mAlexNet"
state {
  phase: TEST
}
layer {
  name: "data"
  type: "ImageData"
  top: "data"
  top: "label"
  include {
    phase: TEST
  }
  transform_param {
    scale: 0.00390625
    mirror: false
    crop_size: 224
  }
  image_data_param {
    source: "/home/hao/deep-parking/splits/CNRPark-EXT/val.txt"
    batch_size: 100
    rand_skip: 100
    shuffle: true
    new_height: 256
    new_width: 256
    root_folder: "/home/hao/Documents/CV/CNR-EXT-Patches-150x150/PATCHES/"
  }
}
layer {
  name: "conv1"
  type: "Convolution"
  bottom: "data"
  top: "conv1"
  param {
    lr_mult: 1
    decay_mult: 1
  }
  param {
    lr_mult: 2
    decay_mult: 0
  }
  convolution_param {
    num_output: 16
    kernel_size: 11
    stride: 4
    weight_filler {
      type: "xavier"
    }
    bias_filler {
      type: "constant"
      value: 1
    }
  }
}
layer {
  name: "relu1"
  type: "ReLU"
  bottom: "conv1"
  top: "conv1"
}
layer {
  name: "pool1"
  type: "Pooling"
  bottom: "conv1"
  top: "pool1"
  pooling_param {
    pool: MAX
    kernel_size: 3
    stride: 2
  }
}
layer {
  name: "conv2"
  type: "Convolution"
  bottom: "pool1"
  top: "conv2"
  param {
    lr_mult: 1
    decay_mult: 1
  }
  param {
    lr_mult: 2
    decay_mult: 0
  }
  convolution_param {
    num_output: 20
    kernel_size: 5
    stride: 1
    weight_filler {
      type: "xavier"
    }
    bias_filler {
      type: "constant"
      value: 1
    }
  }
}
layer {
  name: "relu2"
  type: "ReLU"
  bottom: "conv2"
  top: "conv2"
}
layer {
  name: "pool2"
  type: "Pooling"
  bottom: "conv2"
  top: "pool2"
  pooling_param {
    pool: MAX
    kernel_size: 3
    stride: 2
  }
}
layer {
  name: "conv3"
  type: "Convolution"
  bottom: "pool2"
  top: "conv3"
  param {
    lr_mult: 1
    decay_mult: 1
  }
  param {
    lr_mult: 2
    decay_mult: 0
  }
  convolution_param {
    num_output: 30
    kernel_size: 3
    stride: 1
    weight_filler {
      type: "xavier"
    }
    bias_filler {
      type: "constant"
      value: 1
    }
  }
}
layer {
  name: "relu3"
  type: "ReLU"
  bottom: "conv3"
  top: "conv3"
}
layer {
  name: "pool3"
  type: "Pooling"
  bottom: "conv3"
  top: "pool3"
  pooling_param {
    pool: MAX
    kernel_size: 3
    stride: 2
  }
}
layer {
  name: "fc4"
  type: "InnerProduct"
  bottom: "pool3"
  top: "fc4"
  param {
    lr_mult: 1
    decay_mult: 1
  }
  param {
    lr_mult: 2
    decay_mult: 1
  }
  inner_product_param {
    num_output: 48
    weight_filler {
      type: "xavier"
    }
    bias_filler {
      type: "constant"
      value: 1
    }
  }
}
layer {
  name: "relu4"
  type: "ReLU"
  bottom: "fc4"
  top: "fc4"
}
layer {
  name: "fc5"
  type: "InnerProduct"
  bottom: "fc4"
  top: "fc5"
  param {
    lr_mult: 1
    decay_mult: 1
  }
  param {
    lr_mult: 2
    decay_mult: 1
  }
  inner_product_param {
    num_output: 2
    weight_filler {
      type: "xavier"
    }
    bias_filler {
      type: "constant"
      value: 1
    }
  }
}
layer {
  name: "loss"
  type: "SoftmaxWithLoss"
  bottom: "fc5"
  bottom: "label"
  top: "loss"
}
layer {
  name: "accuracy"
  type: "Accuracy"
  bottom: "fc5"
  bottom: "label"
  top: "accuracy"
  include {
    phase: TEST
  }
}
I0520 11:41:25.166929   732 layer_factory.hpp:77] Creating layer data
I0520 11:41:25.166947   732 net.cpp:86] Creating Layer data
I0520 11:41:25.166960   732 net.cpp:382] data -> data
I0520 11:41:25.166972   732 net.cpp:382] data -> label
I0520 11:41:25.166983   732 image_data_layer.cpp:38] Opening file /home/hao/deep-parking/splits/CNRPark-EXT/val.txt
I0520 11:41:25.180778   732 image_data_layer.cpp:53] Shuffling data
I0520 11:41:25.184691   732 image_data_layer.cpp:63] A total of 18647 images.
I0520 11:41:25.184712   732 image_data_layer.cpp:70] Skipping first 21 data points.
I0520 11:41:25.185250   732 image_data_layer.cpp:90] output data size: 100,3,224,224
I0520 11:41:25.185329   732 net.cpp:124] Setting up data
I0520 11:41:25.185361   732 net.cpp:131] Top shape: 100 3 224 224 (15052800)
I0520 11:41:25.185370   732 net.cpp:131] Top shape: 100 (100)
I0520 11:41:25.185375   732 net.cpp:139] Memory required for data: 60211600
I0520 11:41:25.185385   732 layer_factory.hpp:77] Creating layer label_data_1_split
I0520 11:41:25.185401   732 net.cpp:86] Creating Layer label_data_1_split
I0520 11:41:25.185410   732 net.cpp:408] label_data_1_split <- label
I0520 11:41:25.185423   732 net.cpp:382] label_data_1_split -> label_data_1_split_0
I0520 11:41:25.185438   732 net.cpp:382] label_data_1_split -> label_data_1_split_1
I0520 11:41:25.185451   732 net.cpp:124] Setting up label_data_1_split
I0520 11:41:25.185458   732 net.cpp:131] Top shape: 100 (100)
I0520 11:41:25.185467   732 net.cpp:131] Top shape: 100 (100)
I0520 11:41:25.185472   732 net.cpp:139] Memory required for data: 60212400
I0520 11:41:25.185477   732 layer_factory.hpp:77] Creating layer conv1
I0520 11:41:25.185498   732 net.cpp:86] Creating Layer conv1
I0520 11:41:25.185504   732 net.cpp:408] conv1 <- data
I0520 11:41:25.185515   732 net.cpp:382] conv1 -> conv1
I0520 11:41:25.185591   732 net.cpp:124] Setting up conv1
I0520 11:41:25.185601   732 net.cpp:131] Top shape: 100 16 54 54 (4665600)
I0520 11:41:25.185607   732 net.cpp:139] Memory required for data: 78874800
I0520 11:41:25.185621   732 layer_factory.hpp:77] Creating layer relu1
I0520 11:41:25.185629   732 net.cpp:86] Creating Layer relu1
I0520 11:41:25.185636   732 net.cpp:408] relu1 <- conv1
I0520 11:41:25.185644   732 net.cpp:369] relu1 -> conv1 (in-place)
I0520 11:41:25.185654   732 net.cpp:124] Setting up relu1
I0520 11:41:25.185662   732 net.cpp:131] Top shape: 100 16 54 54 (4665600)
I0520 11:41:25.185668   732 net.cpp:139] Memory required for data: 97537200
I0520 11:41:25.185676   732 layer_factory.hpp:77] Creating layer pool1
I0520 11:41:25.185690   732 net.cpp:86] Creating Layer pool1
I0520 11:41:25.185695   732 net.cpp:408] pool1 <- conv1
I0520 11:41:25.185703   732 net.cpp:382] pool1 -> pool1
I0520 11:41:25.185719   732 net.cpp:124] Setting up pool1
I0520 11:41:25.185726   732 net.cpp:131] Top shape: 100 16 27 27 (1166400)
I0520 11:41:25.185734   732 net.cpp:139] Memory required for data: 102202800
I0520 11:41:25.185741   732 layer_factory.hpp:77] Creating layer conv2
I0520 11:41:25.185755   732 net.cpp:86] Creating Layer conv2
I0520 11:41:25.185761   732 net.cpp:408] conv2 <- pool1
I0520 11:41:25.185771   732 net.cpp:382] conv2 -> conv2
I0520 11:41:25.185847   732 net.cpp:124] Setting up conv2
I0520 11:41:25.185854   732 net.cpp:131] Top shape: 100 20 23 23 (1058000)
I0520 11:41:25.185861   732 net.cpp:139] Memory required for data: 106434800
I0520 11:41:25.185873   732 layer_factory.hpp:77] Creating layer relu2
I0520 11:41:25.185881   732 net.cpp:86] Creating Layer relu2
I0520 11:41:25.185889   732 net.cpp:408] relu2 <- conv2
I0520 11:41:25.185899   732 net.cpp:369] relu2 -> conv2 (in-place)
I0520 11:41:25.185906   732 net.cpp:124] Setting up relu2
I0520 11:41:25.185915   732 net.cpp:131] Top shape: 100 20 23 23 (1058000)
I0520 11:41:25.185921   732 net.cpp:139] Memory required for data: 110666800
I0520 11:41:25.185927   732 layer_factory.hpp:77] Creating layer pool2
I0520 11:41:25.185936   732 net.cpp:86] Creating Layer pool2
I0520 11:41:25.185942   732 net.cpp:408] pool2 <- conv2
I0520 11:41:25.185951   732 net.cpp:382] pool2 -> pool2
I0520 11:41:25.185964   732 net.cpp:124] Setting up pool2
I0520 11:41:25.185972   732 net.cpp:131] Top shape: 100 20 11 11 (242000)
I0520 11:41:25.185978   732 net.cpp:139] Memory required for data: 111634800
I0520 11:41:25.185986   732 layer_factory.hpp:77] Creating layer conv3
I0520 11:41:25.186000   732 net.cpp:86] Creating Layer conv3
I0520 11:41:25.186007   732 net.cpp:408] conv3 <- pool2
I0520 11:41:25.186017   732 net.cpp:382] conv3 -> conv3
I0520 11:41:25.186071   732 net.cpp:124] Setting up conv3
I0520 11:41:25.186079   732 net.cpp:131] Top shape: 100 30 9 9 (243000)
I0520 11:41:25.186084   732 net.cpp:139] Memory required for data: 112606800
I0520 11:41:25.186095   732 layer_factory.hpp:77] Creating layer relu3
I0520 11:41:25.186113   732 net.cpp:86] Creating Layer relu3
I0520 11:41:25.186121   732 net.cpp:408] relu3 <- conv3
I0520 11:41:25.186131   732 net.cpp:369] relu3 -> conv3 (in-place)
I0520 11:41:25.186141   732 net.cpp:124] Setting up relu3
I0520 11:41:25.186151   732 net.cpp:131] Top shape: 100 30 9 9 (243000)
I0520 11:41:25.186156   732 net.cpp:139] Memory required for data: 113578800
I0520 11:41:25.186162   732 layer_factory.hpp:77] Creating layer pool3
I0520 11:41:25.186172   732 net.cpp:86] Creating Layer pool3
I0520 11:41:25.186178   732 net.cpp:408] pool3 <- conv3
I0520 11:41:25.186187   732 net.cpp:382] pool3 -> pool3
I0520 11:41:25.186199   732 net.cpp:124] Setting up pool3
I0520 11:41:25.186206   732 net.cpp:131] Top shape: 100 30 4 4 (48000)
I0520 11:41:25.186213   732 net.cpp:139] Memory required for data: 113770800
I0520 11:41:25.186218   732 layer_factory.hpp:77] Creating layer fc4
I0520 11:41:25.186231   732 net.cpp:86] Creating Layer fc4
I0520 11:41:25.186237   732 net.cpp:408] fc4 <- pool3
I0520 11:41:25.186249   732 net.cpp:382] fc4 -> fc4
I0520 11:41:25.186385   732 net.cpp:124] Setting up fc4
I0520 11:41:25.186393   732 net.cpp:131] Top shape: 100 48 (4800)
I0520 11:41:25.186398   732 net.cpp:139] Memory required for data: 113790000
I0520 11:41:25.186408   732 layer_factory.hpp:77] Creating layer relu4
I0520 11:41:25.186417   732 net.cpp:86] Creating Layer relu4
I0520 11:41:25.186424   732 net.cpp:408] relu4 <- fc4
I0520 11:41:25.186432   732 net.cpp:369] relu4 -> fc4 (in-place)
I0520 11:41:25.186442   732 net.cpp:124] Setting up relu4
I0520 11:41:25.186450   732 net.cpp:131] Top shape: 100 48 (4800)
I0520 11:41:25.186457   732 net.cpp:139] Memory required for data: 113809200
I0520 11:41:25.186463   732 layer_factory.hpp:77] Creating layer fc5
I0520 11:41:25.186473   732 net.cpp:86] Creating Layer fc5
I0520 11:41:25.186481   732 net.cpp:408] fc5 <- fc4
I0520 11:41:25.186491   732 net.cpp:382] fc5 -> fc5
I0520 11:41:25.186507   732 net.cpp:124] Setting up fc5
I0520 11:41:25.186513   732 net.cpp:131] Top shape: 100 2 (200)
I0520 11:41:25.186519   732 net.cpp:139] Memory required for data: 113810000
I0520 11:41:25.186532   732 layer_factory.hpp:77] Creating layer fc5_fc5_0_split
I0520 11:41:25.186540   732 net.cpp:86] Creating Layer fc5_fc5_0_split
I0520 11:41:25.186547   732 net.cpp:408] fc5_fc5_0_split <- fc5
I0520 11:41:25.186558   732 net.cpp:382] fc5_fc5_0_split -> fc5_fc5_0_split_0
I0520 11:41:25.186568   732 net.cpp:382] fc5_fc5_0_split -> fc5_fc5_0_split_1
I0520 11:41:25.186579   732 net.cpp:124] Setting up fc5_fc5_0_split
I0520 11:41:25.186587   732 net.cpp:131] Top shape: 100 2 (200)
I0520 11:41:25.186594   732 net.cpp:131] Top shape: 100 2 (200)
I0520 11:41:25.186600   732 net.cpp:139] Memory required for data: 113811600
I0520 11:41:25.186609   732 layer_factory.hpp:77] Creating layer loss
I0520 11:41:25.186619   732 net.cpp:86] Creating Layer loss
I0520 11:41:25.186625   732 net.cpp:408] loss <- fc5_fc5_0_split_0
I0520 11:41:25.186633   732 net.cpp:408] loss <- label_data_1_split_0
I0520 11:41:25.186642   732 net.cpp:382] loss -> loss
…
