…
I0520 21:59:29.733332  3058 net.cpp:53] Initializing net from parameters: 
name: "mAlexNet"
state {
  phase: TRAIN
  level: 0
  stage: ""
}
layer {
  name: "data"
  type: "ImageData"
  top: "data"
  top: "label"
  include {
    phase: TRAIN
  }
  transform_param {
    scale: 0.00390625
    mirror: true
    crop_size: 224
  }
  image_data_param {
    source: "/home/hao/deep-parking/splits/PKLot/PUC_train.txt"
    batch_size: 64
    rand_skip: 64
    shuffle: true
    new_height: 256
    new_width: 256
    root_folder: "/home/hao/Documents/CV/PKLot/PKLotSegmented/"
  }
}
layer {
  name: "conv1"
  type: "Convolution"
  bottom: "data"
  top: "conv1"
  param {
    lr_mult: 1
    decay_mult: 1
  }
  param {
    lr_mult: 2
    decay_mult: 0
  }
  convolution_param {
    num_output: 16
    kernel_size: 11
    stride: 4
    weight_filler {
      type: "xavier"
    }
    bias_filler {
      type: "constant"
      value: 1
    }
  }
}
layer {
  name: "relu1"
  type: "ReLU"
  bottom: "conv1"
  top: "conv1"
}
layer {
  name: "pool1"
  type: "Pooling"
  bottom: "conv1"
  top: "pool1"
  pooling_param {
    pool: MAX
    kernel_size: 3
    stride: 2
  }
}
layer {
  name: "conv2"
  type: "Convolution"
  bottom: "pool1"
  top: "conv2"
  param {
    lr_mult: 1
    decay_mult: 1
  }
  param {
    lr_mult: 2
    decay_mult: 0
  }
  convolution_param {
    num_output: 20
    kernel_size: 5
    stride: 1
    weight_filler {
      type: "xavier"
    }
    bias_filler {
      type: "constant"
      value: 1
    }
  }
}
layer {
  name: "relu2"
  type: "ReLU"
  bottom: "conv2"
  top: "conv2"
}
layer {
  name: "pool2"
  type: "Pooling"
  bottom: "conv2"
  top: "pool2"
  pooling_param {
    pool: MAX
    kernel_size: 3
    stride: 2
  }
}
layer {
  name: "conv3"
  type: "Convolution"
  bottom: "pool2"
  top: "conv3"
  param {
    lr_mult: 1
    decay_mult: 1
  }
  param {
    lr_mult: 2
    decay_mult: 0
  }
  convolution_param {
    num_output: 30
    kernel_size: 3
    stride: 1
    weight_filler {
      type: "xavier"
    }
    bias_filler {
      type: "constant"
      value: 1
    }
  }
}
layer {
  name: "relu3"
  type: "ReLU"
  bottom: "conv3"
  top: "conv3"
}
layer {
  name: "pool3"
  type: "Pooling"
  bottom: "conv3"
  top: "pool3"
  pooling_param {
    pool: MAX
    kernel_size: 3
    stride: 2
  }
}
layer {
  name: "fc4"
  type: "InnerProduct"
  bottom: "pool3"
  top: "fc4"
  param {
    lr_mult: 1
    decay_mult: 1
  }
  param {
    lr_mult: 2
    decay_mult: 1
  }
  inner_product_param {
    num_output: 48
    weight_filler {
      type: "xavier"
    }
    bias_filler {
      type: "constant"
      value: 1
    }
  }
}
layer {
  name: "relu4"
  type: "ReLU"
  bottom: "fc4"
  top: "fc4"
}
layer {
  name: "fc5"
  type: "InnerProduct"
  bottom: "fc4"
  top: "fc5"
  param {
    lr_mult: 1
    decay_mult: 1
  }
  param {
    lr_mult: 2
    decay_mult: 1
  }
  inner_product_param {
    num_output: 2
    weight_filler {
      type: "xavier"
    }
    bias_filler {
      type: "constant"
      value: 1
    }
  }
}
layer {
  name: "loss"
  type: "SoftmaxWithLoss"
  bottom: "fc5"
  bottom: "label"
  top: "loss"
}
I0520 21:59:29.733439  3058 layer_factory.hpp:77] Creating layer data
I0520 21:59:29.733486  3058 net.cpp:86] Creating Layer data
I0520 21:59:29.733505  3058 net.cpp:382] data -> data
I0520 21:59:29.733552  3058 net.cpp:382] data -> label
I0520 21:59:29.733923  3058 image_data_layer.cpp:38] Opening file /home/hao/deep-parking/splits/PKLot/PUC_train.txt
I0520 21:59:29.798506  3058 image_data_layer.cpp:53] Shuffling data
I0520 21:59:29.870960  3058 image_data_layer.cpp:63] A total of 220713 images.
I0520 21:59:29.871001  3058 image_data_layer.cpp:70] Skipping first 40 data points.
I0520 21:59:29.880420  3058 image_data_layer.cpp:90] output data size: 64,3,224,224
I0520 21:59:29.880561  3058 net.cpp:124] Setting up data
I0520 21:59:29.880587  3058 net.cpp:131] Top shape: 64 3 224 224 (9633792)
I0520 21:59:29.880596  3058 net.cpp:131] Top shape: 64 (64)
I0520 21:59:29.880602  3058 net.cpp:139] Memory required for data: 38535424
I0520 21:59:29.880611  3058 layer_factory.hpp:77] Creating layer conv1
I0520 21:59:29.880648  3058 net.cpp:86] Creating Layer conv1
I0520 21:59:29.880662  3058 net.cpp:408] conv1 <- data
I0520 21:59:29.880682  3058 net.cpp:382] conv1 -> conv1
I0520 21:59:29.880832  3058 net.cpp:124] Setting up conv1
I0520 21:59:29.880847  3058 net.cpp:131] Top shape: 64 16 54 54 (2985984)
I0520 21:59:29.880852  3058 net.cpp:139] Memory required for data: 50479360
I0520 21:59:29.880874  3058 layer_factory.hpp:77] Creating layer relu1
I0520 21:59:29.880887  3058 net.cpp:86] Creating Layer relu1
I0520 21:59:29.880893  3058 net.cpp:408] relu1 <- conv1
I0520 21:59:29.880898  3058 net.cpp:369] relu1 -> conv1 (in-place)
I0520 21:59:29.880904  3058 net.cpp:124] Setting up relu1
I0520 21:59:29.880913  3058 net.cpp:131] Top shape: 64 16 54 54 (2985984)
I0520 21:59:29.880915  3058 net.cpp:139] Memory required for data: 62423296
I0520 21:59:29.880919  3058 layer_factory.hpp:77] Creating layer pool1
I0520 21:59:29.880939  3058 net.cpp:86] Creating Layer pool1
I0520 21:59:29.880944  3058 net.cpp:408] pool1 <- conv1
I0520 21:59:29.880950  3058 net.cpp:382] pool1 -> pool1
I0520 21:59:29.880970  3058 net.cpp:124] Setting up pool1
I0520 21:59:29.880976  3058 net.cpp:131] Top shape: 64 16 27 27 (746496)
I0520 21:59:29.880980  3058 net.cpp:139] Memory required for data: 65409280
I0520 21:59:29.880983  3058 layer_factory.hpp:77] Creating layer conv2
I0520 21:59:29.880991  3058 net.cpp:86] Creating Layer conv2
I0520 21:59:29.880996  3058 net.cpp:408] conv2 <- pool1
I0520 21:59:29.881002  3058 net.cpp:382] conv2 -> conv2
I0520 21:59:29.881067  3058 net.cpp:124] Setting up conv2
I0520 21:59:29.881073  3058 net.cpp:131] Top shape: 64 20 23 23 (677120)
I0520 21:59:29.881076  3058 net.cpp:139] Memory required for data: 68117760
I0520 21:59:29.881083  3058 layer_factory.hpp:77] Creating layer relu2
I0520 21:59:29.881088  3058 net.cpp:86] Creating Layer relu2
I0520 21:59:29.881093  3058 net.cpp:408] relu2 <- conv2
I0520 21:59:29.881098  3058 net.cpp:369] relu2 -> conv2 (in-place)
I0520 21:59:29.881103  3058 net.cpp:124] Setting up relu2
I0520 21:59:29.881106  3058 net.cpp:131] Top shape: 64 20 23 23 (677120)
I0520 21:59:29.881109  3058 net.cpp:139] Memory required for data: 70826240
I0520 21:59:29.881112  3058 layer_factory.hpp:77] Creating layer pool2
I0520 21:59:29.881117  3058 net.cpp:86] Creating Layer pool2
I0520 21:59:29.881120  3058 net.cpp:408] pool2 <- conv2
I0520 21:59:29.881125  3058 net.cpp:382] pool2 -> pool2
I0520 21:59:29.881135  3058 net.cpp:124] Setting up pool2
I0520 21:59:29.881141  3058 net.cpp:131] Top shape: 64 20 11 11 (154880)
I0520 21:59:29.881145  3058 net.cpp:139] Memory required for data: 71445760
I0520 21:59:29.881147  3058 layer_factory.hpp:77] Creating layer conv3
I0520 21:59:29.881155  3058 net.cpp:86] Creating Layer conv3
I0520 21:59:29.881160  3058 net.cpp:408] conv3 <- pool2
I0520 21:59:29.881166  3058 net.cpp:382] conv3 -> conv3
I0520 21:59:29.881217  3058 net.cpp:124] Setting up conv3
I0520 21:59:29.881222  3058 net.cpp:131] Top shape: 64 30 9 9 (155520)
I0520 21:59:29.881225  3058 net.cpp:139] Memory required for data: 72067840
I0520 21:59:29.881256  3058 layer_factory.hpp:77] Creating layer relu3
I0520 21:59:29.881263  3058 net.cpp:86] Creating Layer relu3
I0520 21:59:29.881266  3058 net.cpp:408] relu3 <- conv3
I0520 21:59:29.881271  3058 net.cpp:369] relu3 -> conv3 (in-place)
I0520 21:59:29.881278  3058 net.cpp:124] Setting up relu3
I0520 21:59:29.881283  3058 net.cpp:131] Top shape: 64 30 9 9 (155520)
I0520 21:59:29.881289  3058 net.cpp:139] Memory required for data: 72689920
I0520 21:59:29.881291  3058 layer_factory.hpp:77] Creating layer pool3
I0520 21:59:29.881296  3058 net.cpp:86] Creating Layer pool3
I0520 21:59:29.881300  3058 net.cpp:408] pool3 <- conv3
I0520 21:59:29.881306  3058 net.cpp:382] pool3 -> pool3
I0520 21:59:29.881315  3058 net.cpp:124] Setting up pool3
I0520 21:59:29.881321  3058 net.cpp:131] Top shape: 64 30 4 4 (30720)
I0520 21:59:29.881326  3058 net.cpp:139] Memory required for data: 72812800
I0520 21:59:29.881330  3058 layer_factory.hpp:77] Creating layer fc4
I0520 21:59:29.881335  3058 net.cpp:86] Creating Layer fc4
I0520 21:59:29.881340  3058 net.cpp:408] fc4 <- pool3
I0520 21:59:29.881345  3058 net.cpp:382] fc4 -> fc4
I0520 21:59:29.881482  3058 net.cpp:124] Setting up fc4
I0520 21:59:29.881489  3058 net.cpp:131] Top shape: 64 48 (3072)
I0520 21:59:29.881491  3058 net.cpp:139] Memory required for data: 72825088
I0520 21:59:29.881496  3058 layer_factory.hpp:77] Creating layer relu4
I0520 21:59:29.881501  3058 net.cpp:86] Creating Layer relu4
I0520 21:59:29.881505  3058 net.cpp:408] relu4 <- fc4
I0520 21:59:29.881510  3058 net.cpp:369] relu4 -> fc4 (in-place)
I0520 21:59:29.881516  3058 net.cpp:124] Setting up relu4
I0520 21:59:29.881521  3058 net.cpp:131] Top shape: 64 48 (3072)
I0520 21:59:29.881523  3058 net.cpp:139] Memory required for data: 72837376
I0520 21:59:29.881527  3058 layer_factory.hpp:77] Creating layer fc5
I0520 21:59:29.881532  3058 net.cpp:86] Creating Layer fc5
I0520 21:59:29.881536  3058 net.cpp:408] fc5 <- fc4
I0520 21:59:29.881542  3058 net.cpp:382] fc5 -> fc5
I0520 21:59:29.881556  3058 net.cpp:124] Setting up fc5
I0520 21:59:29.881561  3058 net.cpp:131] Top shape: 64 2 (128)
I0520 21:59:29.881564  3058 net.cpp:139] Memory required for data: 72837888
I0520 21:59:29.881570  3058 layer_factory.hpp:77] Creating layer loss
I0520 21:59:29.881577  3058 net.cpp:86] Creating Layer loss
I0520 21:59:29.881580  3058 net.cpp:408] loss <- fc5
I0520 21:59:29.881584  3058 net.cpp:408] loss <- label
I0520 21:59:29.881589  3058 net.cpp:382] loss -> loss
I0520 21:59:29.881599  3058 layer_factory.hpp:77] Creating layer loss
…
I0520 21:59:29.882144  3058 net.cpp:53] Initializing net from parameters: 
name: "mAlexNet"
state {
  phase: TEST
}
layer {
  name: "data"
  type: "ImageData"
  top: "data"
  top: "label"
  include {
    phase: TEST
  }
  transform_param {
    scale: 0.00390625
    mirror: false
    crop_size: 224
  }
  image_data_param {
    source: "/home/hao/deep-parking/splits/CNRPark-EXT/val.txt"
    batch_size: 100
    rand_skip: 100
    shuffle: true
    new_height: 256
    new_width: 256
    root_folder: "/home/hao/Documents/CV/CNR-EXT-Patches-150x150/PATCHES/"
  }
}
layer {
  name: "conv1"
  type: "Convolution"
  bottom: "data"
  top: "conv1"
  param {
    lr_mult: 1
    decay_mult: 1
  }
  param {
    lr_mult: 2
    decay_mult: 0
  }
  convolution_param {
    num_output: 16
    kernel_size: 11
    stride: 4
    weight_filler {
      type: "xavier"
    }
    bias_filler {
      type: "constant"
      value: 1
    }
  }
}
layer {
  name: "relu1"
  type: "ReLU"
  bottom: "conv1"
  top: "conv1"
}
layer {
  name: "pool1"
  type: "Pooling"
  bottom: "conv1"
  top: "pool1"
  pooling_param {
    pool: MAX
    kernel_size: 3
    stride: 2
  }
}
layer {
  name: "conv2"
  type: "Convolution"
  bottom: "pool1"
  top: "conv2"
  param {
    lr_mult: 1
    decay_mult: 1
  }
  param {
    lr_mult: 2
    decay_mult: 0
  }
  convolution_param {
    num_output: 20
    kernel_size: 5
    stride: 1
    weight_filler {
      type: "xavier"
    }
    bias_filler {
      type: "constant"
      value: 1
    }
  }
}
layer {
  name: "relu2"
  type: "ReLU"
  bottom: "conv2"
  top: "conv2"
}
layer {
  name: "pool2"
  type: "Pooling"
  bottom: "conv2"
  top: "pool2"
  pooling_param {
    pool: MAX
    kernel_size: 3
    stride: 2
  }
}
layer {
  name: "conv3"
  type: "Convolution"
  bottom: "pool2"
  top: "conv3"
  param {
    lr_mult: 1
    decay_mult: 1
  }
  param {
    lr_mult: 2
    decay_mult: 0
  }
  convolution_param {
    num_output: 30
    kernel_size: 3
    stride: 1
    weight_filler {
      type: "xavier"
    }
    bias_filler {
      type: "constant"
      value: 1
    }
  }
}
layer {
  name: "relu3"
  type: "ReLU"
  bottom: "conv3"
  top: "conv3"
}
layer {
  name: "pool3"
  type: "Pooling"
  bottom: "conv3"
  top: "pool3"
  pooling_param {
    pool: MAX
    kernel_size: 3
    stride: 2
  }
}
layer {
  name: "fc4"
  type: "InnerProduct"
  bottom: "pool3"
  top: "fc4"
  param {
    lr_mult: 1
    decay_mult: 1
  }
  param {
    lr_mult: 2
    decay_mult: 1
  }
  inner_product_param {
    num_output: 48
    weight_filler {
      type: "xavier"
    }
    bias_filler {
      type: "constant"
      value: 1
    }
  }
}
layer {
  name: "relu4"
  type: "ReLU"
  bottom: "fc4"
  top: "fc4"
}
layer {
  name: "fc5"
  type: "InnerProduct"
  bottom: "fc4"
  top: "fc5"
  param {
    lr_mult: 1
    decay_mult: 1
  }
  param {
    lr_mult: 2
    decay_mult: 1
  }
  inner_product_param {
    num_output: 2
    weight_filler {
      type: "xavier"
    }
    bias_filler {
      type: "constant"
      value: 1
    }
  }
}
layer {
  name: "loss"
  type: "SoftmaxWithLoss"
  bottom: "fc5"
  bottom: "label"
  top: "loss"
}
layer {
  name: "accuracy"
  type: "Accuracy"
  bottom: "fc5"
  bottom: "label"
  top: "accuracy"
  include {
    phase: TEST
  }
}
I0520 21:59:29.882225  3058 layer_factory.hpp:77] Creating layer data
I0520 21:59:29.882241  3058 net.cpp:86] Creating Layer data
I0520 21:59:29.882248  3058 net.cpp:382] data -> data
I0520 21:59:29.882259  3058 net.cpp:382] data -> label
I0520 21:59:29.882272  3058 image_data_layer.cpp:38] Opening file /home/hao/deep-parking/splits/CNRPark-EXT/val.txt
I0520 21:59:29.894690  3058 image_data_layer.cpp:53] Shuffling data
I0520 21:59:29.898815  3058 image_data_layer.cpp:63] A total of 18647 images.
I0520 21:59:29.898839  3058 image_data_layer.cpp:70] Skipping first 21 data points.
I0520 21:59:29.901155  3058 image_data_layer.cpp:90] output data size: 100,3,224,224
I0520 21:59:29.901263  3058 net.cpp:124] Setting up data
I0520 21:59:29.901298  3058 net.cpp:131] Top shape: 100 3 224 224 (15052800)
I0520 21:59:29.901304  3058 net.cpp:131] Top shape: 100 (100)
I0520 21:59:29.901307  3058 net.cpp:139] Memory required for data: 60211600
I0520 21:59:29.901314  3058 layer_factory.hpp:77] Creating layer label_data_1_split
I0520 21:59:29.901327  3058 net.cpp:86] Creating Layer label_data_1_split
I0520 21:59:29.901345  3058 net.cpp:408] label_data_1_split <- label
I0520 21:59:29.901355  3058 net.cpp:382] label_data_1_split -> label_data_1_split_0
I0520 21:59:29.901366  3058 net.cpp:382] label_data_1_split -> label_data_1_split_1
I0520 21:59:29.901377  3058 net.cpp:124] Setting up label_data_1_split
I0520 21:59:29.901384  3058 net.cpp:131] Top shape: 100 (100)
I0520 21:59:29.901391  3058 net.cpp:131] Top shape: 100 (100)
I0520 21:59:29.901394  3058 net.cpp:139] Memory required for data: 60212400
I0520 21:59:29.901398  3058 layer_factory.hpp:77] Creating layer conv1
I0520 21:59:29.901415  3058 net.cpp:86] Creating Layer conv1
I0520 21:59:29.901420  3058 net.cpp:408] conv1 <- data
I0520 21:59:29.901428  3058 net.cpp:382] conv1 -> conv1
I0520 21:59:29.901496  3058 net.cpp:124] Setting up conv1
I0520 21:59:29.901505  3058 net.cpp:131] Top shape: 100 16 54 54 (4665600)
I0520 21:59:29.901511  3058 net.cpp:139] Memory required for data: 78874800
I0520 21:59:29.901521  3058 layer_factory.hpp:77] Creating layer relu1
I0520 21:59:29.901530  3058 net.cpp:86] Creating Layer relu1
I0520 21:59:29.901535  3058 net.cpp:408] relu1 <- conv1
I0520 21:59:29.901540  3058 net.cpp:369] relu1 -> conv1 (in-place)
I0520 21:59:29.901547  3058 net.cpp:124] Setting up relu1
I0520 21:59:29.901553  3058 net.cpp:131] Top shape: 100 16 54 54 (4665600)
I0520 21:59:29.901559  3058 net.cpp:139] Memory required for data: 97537200
I0520 21:59:29.901563  3058 layer_factory.hpp:77] Creating layer pool1
I0520 21:59:29.901571  3058 net.cpp:86] Creating Layer pool1
I0520 21:59:29.901576  3058 net.cpp:408] pool1 <- conv1
I0520 21:59:29.901582  3058 net.cpp:382] pool1 -> pool1
I0520 21:59:29.901595  3058 net.cpp:124] Setting up pool1
I0520 21:59:29.901602  3058 net.cpp:131] Top shape: 100 16 27 27 (1166400)
I0520 21:59:29.901608  3058 net.cpp:139] Memory required for data: 102202800
I0520 21:59:29.901612  3058 layer_factory.hpp:77] Creating layer conv2
I0520 21:59:29.901619  3058 net.cpp:86] Creating Layer conv2
I0520 21:59:29.901625  3058 net.cpp:408] conv2 <- pool1
I0520 21:59:29.901631  3058 net.cpp:382] conv2 -> conv2
I0520 21:59:29.901705  3058 net.cpp:124] Setting up conv2
I0520 21:59:29.901711  3058 net.cpp:131] Top shape: 100 20 23 23 (1058000)
I0520 21:59:29.901715  3058 net.cpp:139] Memory required for data: 106434800
I0520 21:59:29.901721  3058 layer_factory.hpp:77] Creating layer relu2
I0520 21:59:29.901727  3058 net.cpp:86] Creating Layer relu2
I0520 21:59:29.901732  3058 net.cpp:408] relu2 <- conv2
I0520 21:59:29.901738  3058 net.cpp:369] relu2 -> conv2 (in-place)
I0520 21:59:29.901743  3058 net.cpp:124] Setting up relu2
I0520 21:59:29.901749  3058 net.cpp:131] Top shape: 100 20 23 23 (1058000)
I0520 21:59:29.901753  3058 net.cpp:139] Memory required for data: 110666800
I0520 21:59:29.901757  3058 layer_factory.hpp:77] Creating layer pool2
I0520 21:59:29.901762  3058 net.cpp:86] Creating Layer pool2
I0520 21:59:29.901765  3058 net.cpp:408] pool2 <- conv2
I0520 21:59:29.901774  3058 net.cpp:382] pool2 -> pool2
I0520 21:59:29.901784  3058 net.cpp:124] Setting up pool2
I0520 21:59:29.901790  3058 net.cpp:131] Top shape: 100 20 11 11 (242000)
I0520 21:59:29.901796  3058 net.cpp:139] Memory required for data: 111634800
I0520 21:59:29.901800  3058 layer_factory.hpp:77] Creating layer conv3
I0520 21:59:29.901808  3058 net.cpp:86] Creating Layer conv3
I0520 21:59:29.901813  3058 net.cpp:408] conv3 <- pool2
I0520 21:59:29.901820  3058 net.cpp:382] conv3 -> conv3
I0520 21:59:29.901875  3058 net.cpp:124] Setting up conv3
I0520 21:59:29.901882  3058 net.cpp:131] Top shape: 100 30 9 9 (243000)
I0520 21:59:29.901885  3058 net.cpp:139] Memory required for data: 112606800
I0520 21:59:29.901892  3058 layer_factory.hpp:77] Creating layer relu3
I0520 21:59:29.901911  3058 net.cpp:86] Creating Layer relu3
I0520 21:59:29.901914  3058 net.cpp:408] relu3 <- conv3
I0520 21:59:29.901921  3058 net.cpp:369] relu3 -> conv3 (in-place)
I0520 21:59:29.901930  3058 net.cpp:124] Setting up relu3
I0520 21:59:29.901938  3058 net.cpp:131] Top shape: 100 30 9 9 (243000)
I0520 21:59:29.901943  3058 net.cpp:139] Memory required for data: 113578800
I0520 21:59:29.901947  3058 layer_factory.hpp:77] Creating layer pool3
I0520 21:59:29.901953  3058 net.cpp:86] Creating Layer pool3
I0520 21:59:29.901958  3058 net.cpp:408] pool3 <- conv3
I0520 21:59:29.901963  3058 net.cpp:382] pool3 -> pool3
I0520 21:59:29.901974  3058 net.cpp:124] Setting up pool3
I0520 21:59:29.901981  3058 net.cpp:131] Top shape: 100 30 4 4 (48000)
I0520 21:59:29.901988  3058 net.cpp:139] Memory required for data: 113770800
I0520 21:59:29.901990  3058 layer_factory.hpp:77] Creating layer fc4
I0520 21:59:29.901998  3058 net.cpp:86] Creating Layer fc4
I0520 21:59:29.902004  3058 net.cpp:408] fc4 <- pool3
I0520 21:59:29.902009  3058 net.cpp:382] fc4 -> fc4
I0520 21:59:29.902163  3058 net.cpp:124] Setting up fc4
I0520 21:59:29.902168  3058 net.cpp:131] Top shape: 100 48 (4800)
I0520 21:59:29.902173  3058 net.cpp:139] Memory required for data: 113790000
I0520 21:59:29.902177  3058 layer_factory.hpp:77] Creating layer relu4
I0520 21:59:29.902182  3058 net.cpp:86] Creating Layer relu4
I0520 21:59:29.902186  3058 net.cpp:408] relu4 <- fc4
I0520 21:59:29.902191  3058 net.cpp:369] relu4 -> fc4 (in-place)
I0520 21:59:29.902196  3058 net.cpp:124] Setting up relu4
I0520 21:59:29.902200  3058 net.cpp:131] Top shape: 100 48 (4800)
I0520 21:59:29.902204  3058 net.cpp:139] Memory required for data: 113809200
I0520 21:59:29.902207  3058 layer_factory.hpp:77] Creating layer fc5
I0520 21:59:29.902217  3058 net.cpp:86] Creating Layer fc5
I0520 21:59:29.902223  3058 net.cpp:408] fc5 <- fc4
I0520 21:59:29.902230  3058 net.cpp:382] fc5 -> fc5
I0520 21:59:29.902249  3058 net.cpp:124] Setting up fc5
I0520 21:59:29.902253  3058 net.cpp:131] Top shape: 100 2 (200)
I0520 21:59:29.902256  3058 net.cpp:139] Memory required for data: 113810000
I0520 21:59:29.902262  3058 layer_factory.hpp:77] Creating layer fc5_fc5_0_split
I0520 21:59:29.902268  3058 net.cpp:86] Creating Layer fc5_fc5_0_split
I0520 21:59:29.902271  3058 net.cpp:408] fc5_fc5_0_split <- fc5
I0520 21:59:29.902277  3058 net.cpp:382] fc5_fc5_0_split -> fc5_fc5_0_split_0
I0520 21:59:29.902282  3058 net.cpp:382] fc5_fc5_0_split -> fc5_fc5_0_split_1
I0520 21:59:29.902290  3058 net.cpp:124] Setting up fc5_fc5_0_split
I0520 21:59:29.902294  3058 net.cpp:131] Top shape: 100 2 (200)
I0520 21:59:29.902297  3058 net.cpp:131] Top shape: 100 2 (200)
I0520 21:59:29.902300  3058 net.cpp:139] Memory required for data: 113811600
I0520 21:59:29.902303  3058 layer_factory.hpp:77] Creating layer loss
I0520 21:59:29.902308  3058 net.cpp:86] Creating Layer loss
I0520 21:59:29.902312  3058 net.cpp:408] loss <- fc5_fc5_0_split_0
I0520 21:59:29.902317  3058 net.cpp:408] loss <- label_data_1_split_0
I0520 21:59:29.902320  3058 net.cpp:382] loss -> loss
…
